VAE/VAE_Optimized/model.pth (torch, 19684 bytes, 30 tensors)

encoder.0.weight f4 [20, 41]
0.11940086 0.12962545 -0.036587216 0.14346299 -0.03421823 0.031514414 -0.07603398 0.091718145
0.13767388 -0.11457347 0.13574564 0.029229373 0.11538257 0.021150703 0.075305134 -0.02205033
0.120392144 0.023083873 -0.07290815 0.03980843 -0.07195497 -0.018314943 -0.06343128 0.10360114
-0.123278916 -0.07199772 -0.044099525 -0.09390298 0.014740167 -0.15424956 0.14104195 -0.13266465
0.12057042 0.025990305 -0.050710328 0.09650757 0.0243398 0.12618268 0.017072868 -0.049253017
0.041961342 -0.042351115 0.065726906 0.1394354 0.09027774 -0.06827488 0.0901536 0.027943583
0.07931051 -0.0951887 -0.15459773 -0.06033938 -0.11978885 0.12814665 0.04498294 0.064689286
0.049391698 -0.0027167946 0.12222288 -0.11096358 0.009833282 -0.10659487 0.048156492 -0.05378348
0.04785418 -0.03253747 0.12952925 -0.092564486 -0.09314172 -0.093147345 0.14046937 0.05204508
0.15027831 -0.1288865 -0.15490504 -0.122184694 -0.10505639 0.06325664 0.055922054 0.1297686
-0.080652095 -0.106465496 0.082862385 -0.06312614 0.09478558 -0.037060134 0.08933856 -0.12134202
-0.07881305 0.047613703 0.033016313 -0.03981787 0.093090415 0.10616837 -0.11325306 -0.08337621
0.14300238 -0.052698106 -0.05536616 -0.1511129 -0.08943606 0.03901278 -0.020613872 -0.11336435
0.00366332 -0.10667941 -0.1324973 -0.08599906 -0.13668516 -0.09944178 0.15611269 0.029497314
0.048126463 -0.14566082 -0.10257084 -0.051983345 0.024421066 -0.13742062 -0.067291066 -0.09349632
0.00043279785 -0.05811276 -0.010822181 -0.10582798 -0.10719692 -0.091112055 -0.05345788 -0.12326497
0.130947 -0.030994875 0.1343714 0.04866095 -0.13224748 0.10807774 -0.0429704 -0.059865475
-0.12963523 -0.15526181 0.044682976 -0.034115203 0.060802057 -0.1281661 0.115947954 -0.11463994
-0.026967047 0.032619968 0.08062499 0.12608069 0.14226794 -0.123833634 0.039303824 -0.06717439
-0.017114272 -0.11689451 0.14225222 -0.114623815 0.08346726 0.054885644 0.050749592 -0.084434755
0.14195438 0.034319248 0.020090202 -0.13762888 0.065559946 -0.023429282 -0.071546994 0.13414492
0.034818754 -0.08640726 -0.07904562 -0.0074581904 0.08720139 -0.03990768 -0.089108825 -0.05348059
-0.11667349 0.055696636 0.120884776 -0.14702828 0.036271464 0.08067808 0.028318891 -0.055617325
0.081513666 0.08207137 0.058397625 -0.027443074 -0.04135501 0.016707612 -0.027588736 -0.046539947
0.09982735 0.13421567 -0.015460789 -0.034966815 0.0022789328 -0.009324861 0.037545934 0.04376514
-0.14184588 -0.057634015 0.13151853 0.060838267 -0.007767704 -0.09415806 -0.09554791 -0.13989529
-0.05090678 0.052740533 0.099579774 0.07210501 -0.13804887 -0.09391704 -0.02464682 0.15107462
0.022591705 -0.040444434 0.064611465 -0.059483707 -0.10108435 0.11398924 -0.07101249 -0.03130765
-0.15536232 0.10452252 0.118322656 0.056917246 -0.108895935 -0.15413412 -0.12684105 0.11645881
0.07497992 0.13142093 0.08181473 0.03952636 -0.0015293605 -0.11877109 -0.13380533 -0.14607692
0.0639316 -0.07667632 -0.031430375 -0.08987882 -0.02845854 -0.10992055 -0.102046385 0.051804528
-0.04641428 0.09641281 -0.050101914 -0.11456396 -0.027555132 -0.07570483 -0.047780048 -0.14867674
00000000: 7088 f43d 89bc 043e 7adc 15bd f6e7 123e
00000010: 6a28 0cbd 4215 013d b4b7 9bbd b9d6 bb3d
00000020: 62fa 0c3e 7fa5 eabd e800 0b3e 7072 ef3c
00000030: b24d ec3d 3d44 ad3c 9439 9a3d e5a2 b4bc
00000040: 2890 f63d 641a bd3c de50 95bd 2a0e 233d
00000050: 215d 93bd 3809 96bc 42e8 81bd d62c d43d
00000060: a879 fcbd 8a73 93bd b4a1 34bd 3550 c0bd
00000070: be80 713c 99f3 1dbe 4d6d 103e 3ed9 07be
00000080: a0ed f63d 9fe9 d43c a2b5 4fbd c3a5 c53d
00000090: 4364 c73c 0836 013e 66dc 8b3c 88bd 49bd
000000a0: a8df 2b3d 5d78 2dbd d49b 863d 27c8 0e3e
000000b0: 89e3 b83d b3d3 8bbd 73a2 b83d f1e9 e43c
000000c0: 8c6d a23d 4bf2 c2bd de4e 1ebe 6d26 77bd
000000d0: db53 f5bd e038 033e 0840 383d d17b 843d
000000e0: f34e 4a3d 400c 32bb fd4f fa3d e040 e3bd
000000f0: c61b 213c 694e dabd be3f 453d 114c 5cbd
00000100: bf02 443d 0346 05bd 51a3 043e 7392 bdbd
00000110: 16c1 bebd 09c4 bebd 34d7 0f3e 392d 553d
00000120: 8fe2 193e d3fa 03be 6d9f 1ebe f83b fabd
00000130: ce27 d7bd b38c 813d 860e 653d 0fe2 043e
00000140: ed2c a5bd 950a dabd c1b3 a93d 4748 81bd
00000150: f11e c23d 5ecc 17bd 23f7 b63d 2a82 f8bd
00000160: bd68 a1bd 9606 433d 1d3c 073d 1018 23bd
00000170: 30a6 be3d cd6e d93d 38f1 e7bd 25c1 aabd
00000180: 376f 123e f8d9 57bd a0c7 62bd 57bd 1abe
00000190: 412a b7bd ddcb 1f3d 6cde a8bc 912b e8bd
000001a0: 5014 703b bc7a dabd 5fad 07be 4620 b0bd
000001b0: 32f7 0bbe 22a8 cbbd 01dc 1f3e 5aa4 f13c
000001c0: 4120 453d 1c28 15be a910 d2bd 7dec 54bd
000001d0: b00e c83c feb7 0cbe e6cf 89bd 007b bfbd
000001e0: 25e9 e239 a507 6ebd 844f 31bc 57bc d8bd
000001f0: 0f8a dbbd f598 babd a6f6 5abd 5872 fcbd
00000200: f816 063e f7e8 fdbc a898 093e b450 473d
00000210: e26b 07be dd57 dd3d bb01 30bd 8035 75bd
00000220: 19bf 04be f4fc 1ebe 7f05 373d 62bc 0bbd
00000230: 940b 793d f93d 03be 1f76 ed3d 58c8 eabd
00000240: ffe9 dcbc 849c 053d b71e a53d 4c1b 013e
00000250: b0ae 113e 7d9c fdbd 0cfd 203d ba92 89bd
00000260: 3b33 8cbc 6466 efbd 91aa 113e e4bf eabd
00000270: e2f0 aa3d c5cf 603d cede 4f3d 21ec acbd
00000280: 7d5c 113e 5792 0c3d 3594 a43c 96ee 0cbe
00000290: 4b44 863d c4ee bfbc 3b87 92bd 495d 093e
000002a0: 1c9e 0e3d 4af6 b0bd ace2 a1bd d663 f4bb
000002b0: a496 b23d 3c76 23bd b07e b6bd 770e 5bbd
000002c0: 83f2 eebd 2822 643d 7092 f73d 958e 16be
000002d0: 6391 143d 8d3a a53d 05fd e73c fece 63bd
000002e0: a3f0 a63d 0915 a83d 5932 6f3d 4cd0 e0bc
000002f0: df63 29bd 67de 883c c601 e2bc aca0 3ebd
00000300: 4872 cc3d d56f 093e 404f 7dbc 5d39 0fbd
00000310: 265a 153b 4dc7 18bc c4c9 193d 1343 333d
00000320: 0c40 11be a511 6cbd cbac 063e 8c31 793d
00000330: 3988 febb f1d5 c0bd 9fae c3bd b640 0fbe
00000340: a183 50bd 7506 583d 7bf0 cb3d cbab 933d
00000350: af5c 0dbe 9457 c0bd 21e8 c9bc 4eb3 1a3e
00000360: 3d12 b93c 10a9 25bd 0453 843d 30a5 73bd
00000370: 5005 cfbd 3173 e93d ff6e 91bd 733c 00bd
00000380: 4d17 1fbe e70f d63d 2653 f23d 0f22 693d
00000390: d504 dfbd 56d5 1dbe 9fe2 01be f581 ee3d
000003a0: 138f 993d 3593 063e 7b8e a73d 64e6 213d
000003b0: d374 c8ba 423e f3bd 4404 09be 3095 15be
000003c0: 92ee 823d 7908 9dbd 23bd 00bd 6312 b8bd
000003d0: e221 e9bc 061e e1bd b2fd d0bd fc30 543d
000003e0: e61c 3ebd 1474 c53d aa37 4dbd 82a0 eabd
000003f0: 4dbb e1bc 220b 9bbd 03b5 43bd b73e 18be

encoder.0.bias f4 [20]
0.0763033 0.1377535 -0.088749476 -0.077120006 -0.045155913 0.007922117 0.09373534 -0.08915377
0.078189015 -0.05596977 0.094346024 -0.0074147 -0.13682179 -0.08593397 -0.11303108 0.07745633
-0.10472204 -0.013012122 0.0336954 -0.08564486
00000000: e844 9c3d 410f 0d3e 49c2 b5bd 18f1 9dbd
00000010: 68f5 38bd c4cb 013c 50f8 bf3d 4096 b6bd
00000020: 9021 a03d 8f40 65bd 7d38 c13d 03f7 f2bb
00000030: 031b 0cbe 26fe afbd d77c e7bd 6da1 9e3d
00000040: 8278 d6bd cc30 55bc 3004 0a3d 9366 afbd

encoder.1.weight f4 [20]
1.0 1.0 1.0 1.0 1.0 1.0 1.0 1.0
1.0 1.0 1.0 1.0 1.0 1.0 1.0 1.0
1.0 1.0 1.0 1.0
00000000: 0000 803f 0000 803f 0000 803f 0000 803f
00000010: 0000 803f 0000 803f 0000 803f 0000 803f
00000020: 0000 803f 0000 803f 0000 803f 0000 803f
00000030: 0000 803f 0000 803f 0000 803f 0000 803f
00000040: 0000 803f 0000 803f 0000 803f 0000 803f

encoder.1.bias f4 [20]
0.0 0.0 0.0 0.0 0.0 0.0 0.0 0.0
0.0 0.0 0.0 0.0 0.0 0.0 0.0 0.0
0.0 0.0 0.0 0.0
00000000: 0000 0000 0000 0000 0000 0000 0000 0000
00000010: 0000 0000 0000 0000 0000 0000 0000 0000
00000020: 0000 0000 0000 0000 0000 0000 0000 0000
00000030: 0000 0000 0000 0000 0000 0000 0000 0000
00000040: 0000 0000 0000 0000 0000 0000 0000 0000

encoder.1.running_mean f4 [20]
0.0 0.0 0.0 0.0 0.0 0.0 0.0 0.0
0.0 0.0 0.0 0.0 0.0 0.0 0.0 0.0
0.0 0.0 0.0 0.0
00000000: 0000 0000 0000 0000 0000 0000 0000 0000
00000010: 0000 0000 0000 0000 0000 0000 0000 0000
00000020: 0000 0000 0000 0000 0000 0000 0000 0000
00000030: 0000 0000 0000 0000 0000 0000 0000 0000
00000040: 0000 0000 0000 0000 0000 0000 0000 0000

encoder.1.running_var f4 [20]
1.0 1.0 1.0 1.0 1.0 1.0 1.0 1.0
1.0 1.0 1.0 1.0 1.0 1.0 1.0 1.0
1.0 1.0 1.0 1.0
00000000: 0000 803f 0000 803f 0000 803f 0000 803f
00000010: 0000 803f 0000 803f 0000 803f 0000 803f
00000020: 0000 803f 0000 803f 0000 803f 0000 803f
00000030: 0000 803f 0000 803f 0000 803f 0000 803f
00000040: 0000 803f 0000 803f 0000 803f 0000 803f

encoder.4.weight f4 [10, 20]
0.064503856 -0.2183349 -0.15999256 -0.20261535 -0.06763599 -0.08145937 0.032019008 -0.041348133
0.105113536 0.20500168 0.08022813 -0.08809381 -0.20938219 0.08099081 -0.11078775 0.1137882
0.14947776 0.086249724 0.20981266 0.21238093 0.04734648 -0.16292812 0.19977956 -0.10610048
-0.10562147 0.1871094 0.17325285 0.06756309 0.014016529 -0.18809041 -0.023211304 0.21446717
0.056943443 0.019144772 -0.04643218 -0.07799009 0.13327473 0.013789499 0.14547281 -0.03957809
0.097695865 0.09229816 0.03565726 0.14050847 0.14012228 0.20726635 0.17190352 -0.05717551
-0.18931003 0.040879227 -0.0019516995 -0.05832233 -0.037444014 0.010516861 0.16315019 0.06970746
-0.0794015 -0.0919527 -0.055372044 -0.08642469 0.20107234 0.11843229 0.2019115 0.00071411446
0.04509498 0.07753894 -0.2116557 0.019967321 -0.014957059 -0.12536605 -0.1735071 0.19795337
0.18180709 0.103634745 0.21337673 -0.090741396 -0.03862197 0.08466169 -0.036945786 -0.04387944
-0.18482475 0.060074482 -0.13513167 0.008131735 0.21801117 -0.068829596 -0.07047901 0.13490485
-0.082209766 -0.019202774 0.20879027 -0.09167291 -0.1599706 -0.12514015 -0.06199401 -0.10610115
-0.11603666 0.09032473 0.03799923 -0.07156794 -0.17372267 -0.070404805 -0.09437082 -0.07276589
-0.20172083 0.048171405 -0.16428918 -0.17414479 -0.18269417 0.093329825 -0.13461725 -0.092293896
0.17527209 0.118727215 0.12821417 -0.21231611 -0.16034839 -0.08441403 0.18472104 0.022875065
-0.16723488 0.0014001868 -0.17366888 -0.04899209 -0.061486293 0.19356783 0.069259234 -0.03899057
0.037773613 -0.064547576 0.08785519 0.08845076 0.060048733 -0.08715677 0.1907703 -0.032282103
-0.08705386 0.14004807 0.18225221 0.22252448 0.06624538 -0.07622618 0.113568105 0.19184446
-0.21932118 -0.027701963 -0.1524921 0.04167131 0.09248038 -0.04619446 -0.018706307 0.10064783
-0.037581533 -0.1877804 0.17891584 -0.112544544 -0.02456511 0.021092018 -0.0134380665 -0.21034378
0.10259079 -0.10156925 -0.11597581 0.053423118 -0.116691895 -0.103342034 -0.075344294 -0.08400406
-0.093386576 -0.06030359 0.058109988 -0.18094663 -0.13534479 0.0032627485 0.031096578 0.123496346
-0.15707125 0.0713746 0.12709582 0.12415995 -0.20827217 -0.085329294 -0.19220471 -0.14150093
0.12454516 -0.033388756 0.09496834 -0.1312586 0.033979267 -0.13525034 0.11177925 -0.09780092
-0.056071445 -0.19400826 0.00073869125 0.21231022 0.10853385 -0.11930338 0.003007224 -0.024518142
00000000: 991a 843d 2f93 5fbe 17d5 23be 667a 4fbe
00000010: bd84 8abd 2cd4 a6bd 5d26 033d a95c 29bd
00000020: c445 d73d f6eb 513e a54e a43d 876a b4bd
00000030: 4968 56be 83de a53d b0e4 e2bd ca09 e93d
00000040: b310 193e b2a3 b03d 21d9 563e 637a 593e
00000050: 62ee 413d a1d6 26be 0393 4c3e 354b d9bd
00000060: 1250 d8bd 9b99 3f3e 3269 313e 845e 8a3d
00000070: 95a5 653c c69a 40be a225 bebc 489d 5b3e
00000080: 873d 693d 7fd5 9c3c ab2f 3ebd 45b9 9fbd
00000090: 2c79 083e 5aed 613c d3f6 143e a31c 22bd
000000a0: c514 c83d d106 bd3d 590d 123d 74e1 0f3e
000000b0: 377c 0f3e a13d 543e 7a07 303e de30 6abd
000000c0: 7dda 41be fa70 273d 2bd0 ffba 65e3 6ebd
000000d0: e55e 19bd ea4e 2c3c d810 273e c9c2 8e3d
000000e0: 419d a2bd b251 bcbd cccd 62bd 6eff b0bd
000000f0: e8e5 4d3e a18c f23d e3c1 4e3e 6933 3b3a
00000100: 84b5 383d bccc 9e3d 46bc 58be 8292 a33c
00000110: 740e 75bc f55f 00be d8ab 31be 4ab4 4a3e
00000120: a32b 3a3e 743e d43d 6e7f 5a3e a0d6 b9bd
00000130: 1232 1ebd 1c63 ad3d 7754 17bd edba 33bd
00000140: b342 3dbe a910 763d f55f 0abe f83a 053c
00000150: 523e 5f3e 88f6 8cbd 4d57 90bd 7f24 0a3e
00000160: 985d a8bd 234f 9dbc 1ecd 553e 02bf bbbd
00000170: 55cf 23be bd24 00be 6eed 7dbd 8f4b d9bd
00000180: a1a4 edbd 2cfc b83d 15a5 1b3d 3692 92bd
00000190: 5be4 31be 6530 90bd 7d45 c1bd 4806 95bd
000001a0: e88f 4ebe 614f 453d 6c3b 28be 0353 32be
000001b0: 2e14 3bbe b523 bf3d 1bd9 09be 9504 bdbd
000001c0: 877a 333e 4127 f33d 934a 033e 6569 59be
000001d0: 5e32 24be 43e1 acbd 8327 3d3e 7d64 bb3c
000001e0: 9f3f 2bbe 7986 b73a 41d6 31be eeab 48bd
000001f0: 0dd9 7bbd a536 463e c9d7 8d3d 93b4 1fbd
00000200: 81b8 1a3d 8531 84bd 6ced b33d ac25 b53d
00000210: a9f5 753d 407f b2bd 4a59 433e 3d3a 04bd
00000220: 4b49 b2bd c368 0f3e 53a0 3a3e 75dd 633e
00000230: a8ab 873d 791c 9cbd 6596 e83d e072 443e
00000240: bb95 60be 3aef e2bc e426 1cbe 89af 2a3d
00000250: 5a66 bd3d 6736 3dbd f83d 99bc 7320 ce3d
00000260: 18ef 19bd 8149 40be b735 373e c17d e6bd
00000270: c53c c9bc 2bc9 ac3c 562b 5cbc 5c64 57be
00000280: 1f1b d23d 8a03 d0bd ba84 edbd 33d2 5a3d
00000290: 29fc eebd fda4 d3bd 1c4e 9abd 520a acbd
000002a0: 7641 bfbd e600 77bd bd04 6e3d 134a 39be
000002b0: d397 0abe d6d3 553b 40be fe3c a7eb fc3d
000002c0: 49d7 20be d92c 923d 6825 023e 9247 fe3d
000002d0: 4d45 55be 20c1 aebd 50d1 44be 9fe5 10be
000002e0: 8811 ff3d a6c2 08bd c37e c23d a868 06be
000002f0: d82d 0b3d 117f 0abe 85ec e43d d94b c8bd
00000300: 2cab 65bd 1aaa 46be bba4 413a da67 593e
00000310: ff46 de3d 5555 f4bd d914 453b 45da c8bc

encoder.4.bias f4 [10]
-0.18002006 0.1753281 0.003604692 0.04709093 -0.090298906 -0.10462989 0.036870427 0.08266988
0.050154556 -0.10776619
00000000: 2e57 38be 3689 333e b23c 6c3b 6be2 403d
00000010: a2ee b8bd 3248 d6bd 7205 173d d34e a93d
00000020: dd6e 4d3d 85b4 dcbd

encoder.5.weight f4 [10]
1.0 1.0 1.0 1.0 1.0 1.0 1.0 1.0
1.0 1.0
00000000: 0000 803f 0000 803f 0000 803f 0000 803f
00000010: 0000 803f 0000 803f 0000 803f 0000 803f
00000020: 0000 803f 0000 803f

encoder.5.bias f4 [10]
0.0 0.0 0.0 0.0 0.0 0.0 0.0 0.0
0.0 0.0
00000000: 0000 0000 0000 0000 0000 0000 0000 0000
00000010: 0000 0000 0000 0000 0000 0000 0000 0000
00000020: 0000 0000 0000 0000

encoder.5.running_mean f4 [10]
0.0 0.0 0.0 0.0 0.0 0.0 0.0 0.0
0.0 0.0
00000000: 0000 0000 0000 0000 0000 0000 0000 0000
00000010: 0000 0000 0000 0000 0000 0000 0000 0000
00000020: 0000 0000 0000 0000

encoder.5.running_var f4 [10]
1.0 1.0 1.0 1.0 1.0 1.0 1.0 1.0
1.0 1.0
00000000: 0000 803f 0000 803f 0000 803f 0000 803f
00000010: 0000 803f 0000 803f 0000 803f 0000 803f
00000020: 0000 803f 0000 803f

fc_mu.weight f4 [2, 10]
0.30702484 -0.046550117 -0.19366264 -0.14790373 0.31130117 1.5229704e-05 -0.042926088 -0.13160191
-0.082897656 -0.26633605 -0.25130096 0.18508479 0.27051687 0.3017763 -0.2282982 0.17103599
-0.19573441 0.18864891 0.22817549 0.24471948
00000000: 5c32 9d3e 56ab 3ebd 804f 46be 1374 17be
00000010: de62 9f3e 1583 7f37 44d3 2fbd a7c2 06be
00000020: 3fc6 a9bd 335d 88be 85aa 80be de86 3d3e
00000030: 3081 8a3e 6c82 9a3e 01c7 69be 0f24 2f3e
00000040: 9a6e 48be 2e2d 413e d6a6 693e be97 7a3e

fc_mu.bias f4 [2]
0.2277002 0.19782364
00000000: 3e2a 693e 4892 4a3e

fc_var.weight f4 [2, 10]
0.0061549493 0.1453011 -0.113137096 0.13769658 -0.10163622 -0.005309889 -0.27523795 -0.08268553
-0.16629563 -0.1066702 -0.2019388 -0.28442922 0.020591654 0.20522524 0.28800425 0.18453602
-0.16391267 -0.31275234 0.119949564 0.17718682
00000000: 75af c93b d0c9 143e 6cb4 e7bd 5500 0d3e
00000010: a726 d0bd 94fe adbb fdeb 8cbe 0857 a9bd
00000020: 6749 2abe e875 dabd 0bc9 4ebe b5a0 91be
00000030: d4af a83c 9126 523e 4b75 933e 03f7 3c3e
00000040: b9d8 27be 1321 a0be 1ea8 f53d 7670 353e

fc_var.bias f4 [2]
-0.27148536 0.11339487
00000000: 2100 8bbe 923b e83d

decoder.0.weight f4 [10, 2]
0.5978427 0.042834096 -0.4260027 0.5797401 0.30194584 0.46824694 -0.47820607 0.41149762
-0.483006 0.6996781 -0.29960096 0.42607927 0.14159216 0.1873907 -0.10843836 0.29043376
-0.29470223 -0.6665042 -0.2716726 0.55404544
00000000: 380c 193f ce72 2f3d 071d dabe d969 143f
00000010: a598 9a3e 10be ef3e 6dd7 f4be d1af d23e
00000020: 904c f7be 1b1e 333f 4c65 99be 1027 da3e
00000030: 89fd 103e 59e3 3f3e ee14 debd bcb3 943e
00000040: 36e3 96be 05a0 2abf ac18 8bbe ecd5 0d3f

decoder.0.bias f4 [10]
-0.18615976 0.22225668 -0.26143605 0.5304356 0.4231965 0.24961834 -0.36144587 -0.57779807
0.02662214 -0.41482967
00000000: aaa0 3ebe 4197 633e f2da 85be a1ca 073f
00000010: 36ad d83e f39b 7f3e 6f0f b9be 93ea 13bf
00000020: ad16 da3c 8e64 d4be

decoder.1.weight f4 [10]
1.0 1.0 1.0 1.0 1.0 1.0 1.0 1.0
1.0 1.0
00000000: 0000 803f 0000 803f 0000 803f 0000 803f
00000010: 0000 803f 0000 803f 0000 803f 0000 803f
00000020: 0000 803f 0000 803f

decoder.1.bias f4 [10]
0.0 0.0 0.0 0.0 0.0 0.0 0.0 0.0
0.0 0.0
00000000: 0000 0000 0000 0000 0000 0000 0000 0000
00000010: 0000 0000 0000 0000 0000 0000 0000 0000
00000020: 0000 0000 0000 0000

decoder.1.running_mean f4 [10]
0.0 0.0 0.0 0.0 0.0 0.0 0.0 0.0
0.0 0.0
00000000: 0000 0000 0000 0000 0000 0000 0000 0000
00000010: 0000 0000 0000 0000 0000 0000 0000 0000
00000020: 0000 0000 0000 0000

decoder.1.running_var f4 [10]
1.0 1.0 1.0 1.0 1.0 1.0 1.0 1.0
1.0 1.0
00000000: 0000 803f 0000 803f 0000 803f 0000 803f
00000010: 0000 803f 0000 803f 0000 803f 0000 803f
00000020: 0000 803f 0000 803f

decoder.4.weight f4 [20, 10]
0.2600005 -0.30388722 0.14131217 0.3152519 0.15837584 0.10782695 -0.30425748 0.30417734
-0.05408999 -0.29548588 0.3121683 -0.12868278 -0.02237236 0.2894368 -0.21920931 -0.22372797
0.051424112 -0.042328324 0.07284047 -0.2652219 0.009457307 -0.14064537 -0.15546037 -0.2895498
0.16766977 0.060917005 -0.26735264 0.25094315 0.09538089 0.058680236 -0.18566883 0.047688577
0.30469817 0.21689571 -0.24630038 0.2886594 0.024510738 0.15209453 0.24560662 0.26958707
-0.24651055 0.27690923 -0.21477395 0.023706354 -0.22096846 -0.069327645 -0.014370243 -0.037832018
-0.04995637 0.024941053 0.31193298 0.18373197 0.17691992 0.12656936 0.24481757 -0.0145936
0.025143977 0.06507875 -0.27579188 -0.25473946 0.038769964 -0.12372419 -0.005802706 -0.07256125
0.04922489 0.2057427 -0.10487438 0.25325438 0.24968135 -0.24270421 -0.24419937 -0.25585195
-0.17329922 -0.12309996 -0.023802293 -0.076904126 -0.15977362 -0.10046353 -0.11439366 0.3102315
-0.117203124 -0.22641937 0.13145511 -0.018265806 0.24209258 0.19758943 0.29052755 -0.23159242
0.20329125 0.2653906 -0.15616323 0.29067022 0.23705792 0.0034630613 0.15247 -0.11056004
-0.27580872 0.07993608 0.09427549 -0.20667349 0.15337035 -0.2701289 0.27215323 0.30623192
0.08609567 -0.19841039 0.15389895 0.053890195 0.08598827 0.10392931 0.24076176 -0.13592605
-0.071133874 0.08623718 0.034456525 0.254999 -0.166095 -0.011515955 0.05908816 -0.08398662
0.21557774 0.034589484 -0.29226717 -0.034258805 -0.14342728 0.030728227 -0.036750708 -0.31367713
-0.057624713 -0.030288074 -0.09324876 0.29054388 -0.069000624 0.20315015 0.078335226 -0.26693833
0.07430912 0.2620692 -0.20684479 -0.2044017 0.30953926 0.25409216 -0.17642157 0.19028848
-0.040455673 -0.31177825 0.023759281 0.102171294 -0.09485595 0.11001041 -0.27040663 0.21915089
0.26959503 0.17438908 0.053597853 0.104149275 -0.22880591 -0.07901691 -0.030189496 -0.17597637
-0.23357217 0.21270035 0.21460646 -0.28719434 0.100627445 0.12864214 0.30040637 0.18295473
0.29071978 -0.10352972 0.22148162 0.2572201 -0.29862276 -0.25383815 0.064006224 0.17267232
-0.15710609 0.034827583 -0.00045907756 0.08003967 -0.16992486 0.17836478 0.21029443 -0.21941724
0.0030634324 0.00087740435 0.10154571 0.2945929 0.09273804 -0.07185389 0.28401455 -0.12033506
-0.091823615 0.021590555 -0.24081023 0.034411065 -0.21455279 0.03251474 0.030297007 0.04377247
00000000: c91e 853e 1b97 9bbe 23b4 103e b268 a13e
00000010: 472d 223e 60d4 dc3d a3c7 9bbe 22bd 9b3e
00000020: 778d 5dbd ed49 97be 86d4 9f3e 6bc5 03be
00000030: 3d46 b7bc 0f31 943e 6878 60be f218 65be
00000040: 17a2 523d 7760 2dbd 622d 953d 2acb 87be
00000050: d2f2 1a3c 5705 10be 0131 1fbe df3f 94be
00000060: a0b1 2b3e 1c84 793d 72e2 88be 9f7b 803e
00000070: 0e57 c33d b05a 703d f81f 3ebe 1955 433d
00000080: 6601 9c3e e919 5e3e 2b36 7cbe 2acb 933e
00000090: beca c83c abbe 1b3e 4d80 7b3e 5107 8a3e
000000a0: 436d 7cbe 0cc7 8d3e b4ed 5bbe d433 c23c
000000b0: 8e45 62be a7fb 8dbd 2b71 6bbc bff5 1abd
000000c0: 0d9f 4cbd 2e51 cc3c aeb5 9f3e 3c24 3c3e
000000d0: 7f2a 353e 669b 013e 75b1 7a3e ff19 6fbc
000000e0: befa cd3c 0248 853d 9834 8dbe 366d 82be
000000f0: 41cd 1e3d 1c63 fdbd a024 bebb fe9a 94bd
00000100: 0aa0 493d 37ae 523e 61c8 d6bd 8faa 813e
00000110: 78ac 7f3e 7487 78be 660f 7abe 07ff 82be
00000120: 5a75 31be d51b fcbd 07fd c2bc e97f 9dbd
00000130: b29b 23be d3bf cdbd 3947 eabd aad6 9e3e
00000140: 3108 f0bd 7bda 67be 2b9c 063e 2ca2 95bc
00000150: 1ee7 773e e254 4a3e 07c0 943e 9026 6dbe
00000160: 952b 503e 47e1 873e 41e9 1fbe bad2 943e
00000170: 50bf 723e 87f4 623b 1821 1c3e 4d6d e2bd
00000180: cd36 8dbe 87b5 a33d 8213 c13d 37a2 53be
00000190: 1e0d 1d3e 564e 8abe ab57 8b3e 6eca 9c3e
000001a0: ed52 b03d 182c 4bbe b097 1d3e f7bb 5c3d
000001b0: 9e1a b03d e4d8 d43d 408a 763e 3330 0bbe
000001c0: a3ae 91bd 1e9d b03d 4922 0d3d 3b8f 823e
000001d0: cf14 2abe 6bad 3cbc 6d06 723d 2d01 acbd
000001e0: 69c0 5c3e b4ad 0d3d 0ba4 95be f652 0cbd
000001f0: 9ade 12be c3b9 fb3c e987 16bd 4a9a a0be
00000200: e407 6cbd b21e f8bc 35f9 bebd 2bc2 943e
00000210: 3350 8dbd 9806 503e 386e a03d 24ac 88be
00000220: 612f 983d ef2d 863e 1fcf 53be ae4e 51be
00000230: ee7b 9e3e 5e18 823e dba7 34be fcda 423e
00000240: d9b4 25bd 66a1 9fbe d3a2 c23c 2f3f d13d
00000250: d643 c2bd 234d e13d bd72 8abe 1769 603e
00000260: 5c08 8a3e 0d93 323e 6c89 5b3d 374c d53d
00000270: 194c 6abe 9ed3 a1bd f64f f7bc 2633 34be
00000280: 8b2d 6fbe 1fce 593e ccc1 5b3e 230b 93be
00000290: c315 ce3d c4ba 033e ddce 993e 7c58 3b3e
000002a0: 39d9 943e 6407 d4bd 14cc 623e 5ab2 833e
000002b0: 15e5 98be 13f7 81be b215 833d 03d1 303e
000002c0: 6be0 20be 5ea7 0e3d 59b0 f0b9 d7eb a33d
000002d0: c800 2ebe 42a5 363e 6c57 573e eaae 60be
000002e0: dec3 483b 9c01 663a 32f7 cf3d e1d4 963e
000002f0: 71ed bd3d 2228 93bd 5b6a 913e 3a72 f6bd
00000300: 050e bcbd adde b03c f596 76be 9ef2 0c3d
00000310: bab3 5bbe 2d2e 053d 6e31 f83c c34a 333d

decoder.4.bias f4 [20]
-0.26667348 -0.30034816 0.14550188 0.27119565 -0.28061178 0.11712894 -0.23278207 0.01982474
0.29420492 0.23989645 -0.2312067 0.1956096 0.16517119 -0.000485051 0.30633828 -0.12559782
-0.07359121 -0.15982598 0.045504168 0.08373291
00000000: 6d89 88be 3cc7 99be 72fe 143e 28da 8a3e
00000010: 59ac 8fbe 4ce1 ef3d 6c5e 6ebe 7e67 a23c
00000020: 07a2 963e 6aa7 753e 73c1 6cbe e24d 483e
00000030: a322 293e 714e feb9 5fd8 9c3e b79c 00be
00000040: fdb6 96bd 6ca9 23be 9462 3a3d 297c ab3d

decoder.5.weight f4 [20]
1.0 1.0 1.0 1.0 1.0 1.0 1.0 1.0
1.0 1.0 1.0 1.0 1.0 1.0 1.0 1.0
1.0 1.0 1.0 1.0
00000000: 0000 803f 0000 803f 0000 803f 0000 803f
00000010: 0000 803f 0000 803f 0000 803f 0000 803f
00000020: 0000 803f 0000 803f 0000 803f 0000 803f
00000030: 0000 803f 0000 803f 0000 803f 0000 803f
00000040: 0000 803f 0000 803f 0000 803f 0000 803f

decoder.5.bias f4 [20]
0.0 0.0 0.0 0.0 0.0 0.0 0.0 0.0
0.0 0.0 0.0 0.0 0.0 0.0 0.0 0.0
0.0 0.0 0.0 0.0
00000000: 0000 0000 0000 0000 0000 0000 0000 0000
00000010: 0000 0000 0000 0000 0000 0000 0000 0000
00000020: 0000 0000 0000 0000 0000 0000 0000 0000
00000030: 0000 0000 0000 0000 0000 0000 0000 0000
00000040: 0000 0000 0000 0000 0000 0000 0000 0000

decoder.5.running_mean f4 [20]
0.0 0.0 0.0 0.0 0.0 0.0 0.0 0.0
0.0 0.0 0.0 0.0 0.0 0.0 0.0 0.0
0.0 0.0 0.0 0.0
00000000: 0000 0000 0000 0000 0000 0000 0000 0000
00000010: 0000 0000 0000 0000 0000 0000 0000 0000
00000020: 0000 0000 0000 0000 0000 0000 0000 0000
00000030: 0000 0000 0000 0000 0000 0000 0000 0000
00000040: 0000 0000 0000 0000 0000 0000 0000 0000

decoder.5.running_var f4 [20]
1.0 1.0 1.0 1.0 1.0 1.0 1.0 1.0
1.0 1.0 1.0 1.0 1.0 1.0 1.0 1.0
1.0 1.0 1.0 1.0
00000000: 0000 803f 0000 803f 0000 803f 0000 803f
00000010: 0000 803f 0000 803f 0000 803f 0000 803f
00000020: 0000 803f 0000 803f 0000 803f 0000 803f
00000030: 0000 803f 0000 803f 0000 803f 0000 803f
00000040: 0000 803f 0000 803f 0000 803f 0000 803f

decoder.8.weight f4 [41, 20]
0.017817035 -0.12580948 -0.10066028 0.076060414 -0.19606434 -0.034823302 -0.004953246 -0.0905974
0.081374556 0.01441229 0.15698642 -0.01985886 -0.14112684 0.15798979 0.031226419 -0.06404058
-0.14737986 0.05241096 -0.21326554 0.058893062 0.1105612 -0.196148 -0.14638919 -0.1607567
0.18794298 0.19009276 0.013997976 0.20992336 -0.07475264 -0.21708244 0.07810471 0.07921685
0.21922015 -6.4720785e-05 0.17137139 0.13706286 0.16183963 -0.22189221 0.18413079 -0.19061425
0.20046596 -0.009266401 -0.19816417 0.06218343 -0.04551444 -0.20084214 -0.08106601 0.02305502
0.1741554 -0.06874336 0.13281526 0.02800195 0.007537306 0.042786036 -0.14674614 -0.18586157
-0.07025985 -0.20836888 -0.10427915 0.01028722 -0.1472695 -0.092751205 -0.040179107 -0.02576026
-0.123434216 0.01074453 -0.031385556 0.06395056 0.010099748 -0.11166247 -0.07698423 -0.0025772362
-0.13952735 0.017505053 -0.015787927 0.08675464 0.052920066 0.16734365 -0.0073712924 -0.16522422
0.09995424 -0.15112194 -0.030735282 -0.07240449 -0.08484636 -0.08273092 0.20547687 0.12800524
0.061969806 0.20995708 -0.20263739 0.03608288 0.1431478 0.14853975 -0.17795831 0.07957932
-0.12738565 -0.008737173 -0.046660088 -0.18670374 -0.21330175 -0.14711045 0.10146617 0.10228568
-0.19448508 -0.0839738 0.003652486 -0.19332653 0.12599225 0.20252791 0.03954749 -0.16614316
0.052142054 0.08117231 0.17706148 -0.11897445 -0.20033151 0.09824178 0.0139209395 -0.072857
-0.09369624 -0.1152952 0.18100902 -0.038580917 0.16126679 0.19960253 0.028325632 0.04763218
-0.015228683 0.15357658 -0.20148937 0.088924624 -0.03643199 0.1021025 -0.0009959484 -0.08279401
-0.024138348 0.12074606 -0.1553016 -0.14134167 -0.050087117 -0.081107676 0.08784151 0.15048063
-0.023947971 0.21143673 -0.09342738 -0.12547904 -0.10010743 -0.1540589 -0.15673356 -0.19923712
-0.19817805 0.05836106 0.1363675 0.20993264 0.19046767 -0.012878343 0.043390144 -0.13378836
0.08642875 -0.21440338 0.105469264 0.041012958 0.06871532 0.08187326 -0.10265895 0.19187842
0.1067169 0.14688611 0.029533656 0.14042206 0.1504876 0.1013464 0.17033666 -0.04055733
0.14702955 0.051518813 0.13454331 0.21779269 0.05063287 -0.08299545 -0.02224801 0.06295168
0.037702177 -0.061082695 0.17520005 0.1343446 -0.13889419 -0.018219808 -0.021464856 -0.14014126
0.032614157 -0.06864569 -0.11543957 -0.0719001 -0.07972668 0.2139112 0.0857693 0.2200544
0.06131199 0.050631568 0.09192332 0.0383782 -0.17548023 -0.13223067 -0.054175135 0.0033615357
0.084235914 0.08609941 0.17739026 0.04552025 -0.076315485 -0.16815819 -0.163772 -0.13356872
0.06744061 0.12080852 0.1956364 -0.07072945 -0.01763876 -0.066403046 -0.00081705995 0.071778096
-0.0049129687 0.010351834 0.028328111 0.08327526 -0.0678426 -0.1333362 0.052754343 -0.026476292
-0.10130013 0.09390658 0.002027909 -0.032526888 -0.10824442 -0.029419035 -0.19013847 0.050868377
0.0033555916 0.13569275 0.014438386 0.017877864 0.060913403 0.17015082 -0.10566711 0.1334944
0.054685626 -0.14917184 0.07785694 -0.13410448 -0.07038713 -0.10658639 -0.15212287 0.17610632
00000000: 08f5 913c 33d4 00be fa26 cebd 90c5 9b3d
00000010: 17c5 48be e1a2 0ebd d74e a2bb 218b b9bd
00000020: b4a7 a63d 8721 6c3c 0cc1 203e 0caf a2bc
00000030: 8e83 10be 13c8 213e 8cce ff3c b527 83bd
00000040: bfea 16be e0ac 563d 4862 5abe da39 713d
00000050: e96d e23d 05db 48be 0ce7 15be 689d 24be
00000060: 2074 403e ada7 423e c457 653c 26f6 563e
00000070: ea17 99bd dc4a 5ebe 5df5 9f3d 723c a23d
00000080: 3f7b 603e b5ba 87b8 fb7b 2f3e 355a 0c3e
00000090: 4ab9 253e b637 63be c88c 3c3e 6230 43be
000000a0: f346 4d3e 1ad2 17bc 8ceb 4abe 0db4 7e3d
000000b0: 596d 3abd 90a9 4dbe f005 a6bd e2dd bc3c
000000c0: cb55 323e 52c9 8cbd b900 083e 5864 e53c
000000d0: 81fb f63b 6940 2f3d 9f44 16be 7f52 3ebe
000000e0: 65e4 8fbd a75e 55be 4f90 d5bd ba8b 283c
000000f0: d1cd 16be 58f4 bdbd d992 24bd 2e07 d3bc
00000100: 14cb fcbd d309 303c 248e 00bd 83f8 823d
00000110: 6a79 253c 4baf e4bd e8a9 9dbd d9e6 28bb
00000120: 42e0 0ebe c266 8f3c af55 81bc 6bac b13d
00000130: b6c2 583d 225c 2b3e e28a f1bb 8a30 29be
00000140: cfb4 cc3d b6bf 1abe 8fc8 fbbc ce48 94bd
00000150: eec3 adbd d46e a9bd 8768 523e ce13 033e
00000160: 0dd4 7d3d fdfe 563e 2d80 4fbe a4cb 133d
00000170: 5695 123e ce1a 183e b43a 36be 7cfa a23d
00000180: 6271 02be 5c26 0fbc a61e 3fbd 442f 3fbe
00000190: c66b 5abe 1fa4 16be 7fcd cf3d 287b d13d
000001a0: 1927 47be 75fa abbd 8c5e 6f3b 64f7 45be
000001b0: 1d04 013e 7a63 4f3e 8dfc 213d 6f21 2abe
000001c0: e892 553d ab3d a63d 9b4f 353e e0a8 f3bd
000001d0: b423 4dbe fd32 c93d a714 643c 0d36 95bd
000001e0: d0e3 bfbd e41f ecbd 6e5a 393e 0607 1ebd
000001f0: 1f23 253e 9b64 4c3e 280b e83c f619 433d
00000200: ba81 79bc 2e43 1d3e 3b53 4ebe 1d1e b63d
00000210: b639 15bd 1e1b d13d 7c8a 82ba e88f a9bd
00000220: c9bd c5bc b649 f73d 6207 1fbe dfbb 10be
00000230: 2628 4dbd c81b a6bd 40e6 b33d 9817 1a3e
00000240: 892e c4bc df82 583e db56 bfbd 947d 00be
00000250: 2005 cdbd 9ec1 1dbe c37e 20be d104 4cbe
00000260: 30ef 4abe 020c 6f3d eca3 0b3e 95f8 563e
00000270: f509 433e b0ff 52bc ddb9 313d d1ff 08be
00000280: 8e01 b13d 8f8c 5bbe 4500 d83d 34fd 273d
00000290: 9eba 8c3d 2bad a73d db3e d2bd c77b 443e
000002a0: 648e da3d 5069 163e 91f0 f13c cdca 0f3e
000002b0: 6c19 1a3e b48e cf3d bc6c 2e3e 711f 26bd
000002c0: ea8e 163e 6405 533d b9c5 093e 0c05 5f3e
000002d0: 6a64 4f3d 85f9 a9bd 7541 b6bc cfec 803d
000002e0: 996d 1a3d d931 7abd a467 333e a191 093e
000002f0: 473a 0ebe b541 95bc 11d7 afbc 3181 0fbe
00000300: 6c96 053d 1d96 8cbd 956b ecbd 5c40 93bd
00000310: be47 a3bd 8a0b 5b3e d1a7 af3d f155 613e
00000320: 4822 7b3d 0c63 4f3d 4b42 bc3d 7632 1d3d
00000330: 17b1 33be 7a67 07be bfe6 5dbd 364d 5c3b
00000340: e183 ac3d e354 b03d cba5 353e 7173 3a3d
00000350: 4b4b 9cbd a931 2cbe d9b3 27be 3dc6 08be
00000360: 4d1e 8a3d 756a f73d e954 483e 9ada 90bd
00000370: 297f 90bc 52fe 87bd f72f 56ba 6500 933d
00000380: f8fc a0bb bd9a 293c 5b10 e83c 388c aa3d
00000390: 10f1 8abd 4989 08be f014 583d cfe4 d8bc
000003a0: 7176 cfbd 1852 c03d abe6 043b ea3a 05bd
000003b0: 40af ddbd 3000 f1bc a9b3 42be 5c5b 503d
000003c0: 7ce9 5b3b 0af3 0a3e fb8e 6c3c 9974 923c
000003d0: 5580 793d 043c 2e3e ff67 d8bd c2b2 083e
000003e0: 09fe 5f3d 81c0 18be 7673 9f3d af52 09be
000003f0: 2127 90bd f749 dabd 19c6 1bbe 3755 343e

decoder.8.bias f4 [41]
0.1791882 -0.010460083 -0.19932917 -0.064873524 0.15714966 0.13613306 0.069222294 -0.06559006
-0.20870811 -0.1201499 0.116584204 -0.09019353 0.10695976 0.061053853 -0.085884534 0.13619405
-0.07185215 -0.007428816 -0.08517474 -0.21210705 0.036053956 0.064615496 -0.11258186 0.13717088
-0.2005877 -0.21555172 -0.1381105 -0.077279605 -0.02483335 -0.04321152 0.10205156 -0.19624299
0.032925554 0.0038723447 0.059061315 0.22228305 0.13761847 -0.12381212 -0.18323515 -0.05413542
-0.1121672
00000000: 1d7d 373e c560 2bbc f21c 4cbe 69dc 84bd
00000010: d7eb 203e 7766 0b3e 6bc4 8d3d 1554 86bd
00000020: 94b7 55be 2711 f6bd b3c3 ee3d 63b7 b8bd
00000030: b80d db3d 9b13 7a3d 3be4 afbd 7476 0b3e
00000040: 3827 93bd 6d6d f3bb 1870 aebd 9732 59be
00000050: 50ad 133d 2155 843d 5191 e6bd 8676 0c3e
00000060: dd66 4dbe 97b9 5cbe d76c 0dbe c544 9ebd
00000070: 4f6f cbbc 90fe 30bd 6900 d13d ecf3 48be
00000080: f2dc 063d 2ac7 7d3b 47ea 713d 2b9e 633e
00000090: dbeb 0c3e 3591 fdbd ffa1 3bbe 1abd 5dbd
000000a0: ebb7 e5bd
