VAE/AE2/model.pth (torch, 49322 bytes, 20 tensors)

weight_ih_l0 f4 [80, 41]
000000 c8 9c 16 3f 51 fe 58 bf f6 39 17 3f b5 47 85 3e
       0.5883298 -0.84763056 0.59072816 0.2603127
000010 45 11 02 3f ce 82 e3 3f ff 9f 8a 3d d5 d0 18 3e
       0.508076 1.7774293 0.06768798 0.14923413
000020 85 36 8a 3e 59 cf e8 be 2b 41 90 bf 85 96 fa 3f
       0.2699472 -0.45470694 -1.1269888 1.9577185
000030 b0 00 a2 bd f5 f4 f6 be d8 68 03 be 53 58 c8 3d
       -0.079102874 -0.48233762 -0.12832963 0.097824715
000040 16 8f 89 3e 32 40 31 3e 7e c2 e2 3d e0 39 03 be
       0.26866978 0.17309645 0.11072253 -0.12815046
000050 2f ff 2c 3e bc 52 52 bf dd 94 19 3f f9 db 49 3f
       0.1689422 -0.8215749 0.5999277 0.78851277
000060 5c d1 54 bf d5 9e 6b bf e4 4b 06 3f 7b fc 26 3f
       -0.8313196 -0.92039233 0.5245955 0.65229005
000070 49 eb 01 3f 3c bd 8c bf 5e 82 ae 3f d1 2d 83 3e
       0.5074964 -1.099525 1.3633535 0.25620893
000080 2e 9d e3 3f 75 d1 3a 3f 3c 2c e5 bd 04 63 c6 be
       1.7782342 0.72975856 -0.11190078 -0.38747418
000090 79 8d 89 3c 45 05 23 3e 5f 23 be be 2e 54 e4 3e
       0.016791092 0.15919979 -0.3713636 0.44595474
0000a0 c0 a5 2f be 4e d6 4c bf bd 3d 82 3e f9 07 9c 3f
       -0.17153072 -0.80014503 0.25437728 1.2189933
0000b0 65 1f 98 bd a9 e8 42 bf 30 61 ee 3f 30 3e bd 3d
       -0.07427863 -0.7613626 1.8623409 0.09240377
0000c0 00 5d d9 3c 58 aa 18 be 49 0c a7 bd e0 cf 18 bf
       0.026533604 -0.14908731 -0.0815664 -0.5969219
0000d0 98 e0 02 40 b7 90 2a 3e 06 ef 0b 3e 94 7d 27 3e
       2.044958 0.16656767 0.13665399 0.16356498
0000e0 e4 4a 5b be 52 78 7c be 33 50 07 bf 14 f3 76 3e
       -0.21415287 -0.24655274 -0.5285675 0.24116164
0000f0 08 1e 80 bd 71 c1 c4 bd e2 5a cd bf 26 7a eb 3e
       -0.06255728 -0.096072085 -1.604336 0.4599163
000100 0b fc aa 3e 89 cd 9b bf 66 36 82 bf 3f a7 0d 40
       0.3339542 -1.2172099 -1.0172851 2.213333
000110 91 aa a6 3f 4a 7e 84 be 9a d2 a9 3e 99 93 5d bf
       1.3020803 -0.258776 0.3316849 -0.8655334
000120 fb 68 13 3f ca 6a 9e 3f f3 d5 79 3f 74 61 c3 be
       0.5758206 1.237634 0.97592086 -0.38160288
000130 11 b8 9f bf c1 13 16 bf 87 91 9b 3d 00 ec b7 3e
       -1.2478048 -0.5862389 0.075961165 0.3592224
000140 5f 5f 6d 3f 60 7f 0a 3f db 80 0d bf 04 26 fe 3e
       0.9272365 0.5410061 -0.5527474 0.4963838
000150 f4 ae 91 be fc 2a 46 bf 29 f4 50 bf 6c fb 54 3f
       -0.2845379 -0.7740934 -0.8162256 0.8319614
000160 3b 7e 63 be f7 79 34 3e f1 8a 99 bd c2 6d 05 bd
       -0.22216122 0.17624651 -0.07497204 -0.032575376
000170 1f a1 f4 be 63 1d 68 3f cd 9f 41 3e a4 91 1d 3f
       -0.47779176 0.9066984 0.18908615 0.61550355
000180 b3 a7 13 3f c6 17 30 3f b7 ca 11 bf 48 42 4f 3e
       0.57677764 0.68786275 -0.56949943 0.20240128
000190 42 63 56 3e da 64 e7 bc a6 b9 33 be 22 f1 6c be
       0.20936301 -0.028246332 -0.17551288 -0.2313886
0001a0 44 49 a8 bf 38 11 01 c0 30 c3 fa 3f 34 63 d9 3f
       -1.3147359 -2.016676 1.9590816 1.6983399
0001b0 10 4b a4 3f 2b cb 98 3f 11 c5 0a bf c6 20 cb be
       1.2835407 1.1937002 -0.5420695 -0.39673442
0001c0 37 a5 c7 bd 53 27 eb 3f 05 3e 8f 3f e2 35 ce 3e
       -0.09748309 1.8371376 1.1190802 0.40275484
0001d0 45 ed 29 3f 35 3b da 3f 2c 25 2b 3f f8 c5 2a 3f
       0.6637767 1.7049319 0.66853595 0.66708326
0001e0 29 66 0d 3f a0 1e d2 3e f1 15 3d 3f 66 f9 ce be
       0.5523401 0.4103899 0.73861605 -0.4042465
0001f0 c9 87 04 40 20 99 ca bf 68 f7 e4 3e 51 b5 57 3f
       2.0707877 -1.582798 0.44720006 0.8426104
000200 48 74 91 bd b2 b0 70 3e eb da da 3c 7d f5 7d 3b
       -0.07102257 0.23504904 0.026715716 0.0038751059
000210 3f 06 13 bf 2c 0b ba b9 1f 32 78 bd 3b dd 2a bf
       -0.57431406 -0.00035485008 -0.060594674 -0.6674382
000220 ac 1b 25 be b8 79 5c 3d 5a 46 1c 3d b7 5a e6 3d
       -0.16123837 0.053827018 0.03815303 0.11247771
000230 33 16 a1 3e 82 d3 8a be b6 f8 8b bd 12 1d e5 3c
       0.3146225 -0.27114493 -0.06834547 0.027967963
000240 dd 00 2b 3f b8 65 ad 3f 3e 18 37 3e 84 5a 8a bf
       0.6679819 1.3546667 0.17880341 -1.0808873
000250 8d 4d 0d bf d6 03 df 3d b3 bf ab 3e 5a 8e 87 bf
       -0.5519646 0.108894035 0.33544692 -1.0590317
000260 06 29 c8 3f 05 05 f0 be 75 b0 c5 3f a9 69 4f 3f
       1.5637519 -0.4687883 1.5444475 0.810206
000270 79 3d 25 3e d5 ca 77 bf 4e 74 59 40 92 c5 07 3f
       0.16136731 -0.9679387 3.3977237 0.53035843
000280 b6 70 ab 3f 80 78 c3 be b7 1c 8a 3f 1b c6 05 3f
       1.3393772 -0.38177872 1.0790013 0.5225541
000290 5b df a6 bf 32 c2 9e 3f e5 c7 05 bf 7c e9 9b 3e
       -1.3036913 1.2403014 -0.5225814 0.30451572
0002a0 e7 d6 b2 3e dc c5 b2 3f 55 d7 7d bd 24 62 ca 3b
       0.34929582 1.3966632 -0.061972935 0.00617625
0002b0 eb c2 c1 3e ab c2 a5 be 59 c0 c0 bd f9 fe 09 3f
       0.37844023 -0.32375082 -0.094116874 0.5390468
0002c0 ac ea f7 3d 92 30 2d 3e df bc 0c 3e cc 30 4a be
       0.12105307 0.1691306 0.13743924 -0.19745177
0002d0 65 94 80 3e 65 a1 27 3e 31 e9 55 be 68 9f 1a 3e
       0.25113216 0.16370161 -0.20889737 0.15099871
0002e0 1d 5c 29 be 3e ed b9 bf b2 db 1e 3f bd 35 fb 3e
       -0.16539045 -1.4525526 0.6205398 0.49064437
0002f0 da f2 46 bf ac 68 26 be 31 1d 2f 3e f1 91 15 3d
       -0.7771431 -0.16250867 0.1710098 0.036516134
000300 6a d1 b9 be 48 77 08 3f dd 4e 4e 40 60 56 69 bf
       -0.36292583 0.5330701 3.2235634 -0.9114742
000310 88 2d 8b bf 01 3b 5c 3f bf 79 b6 bf 32 b9 2a 3f
       -1.087327 0.8602753 -1.4255904 0.66688836
000320 2e e6 20 be 29 d7 03 3f 9d 56 96 3e e6 61 4e 3e
       -0.15712807 0.51500183 0.29362956 0.20154533
000330 4d 06 6b be 95 af 06 3f 97 55 1d bf df b6 5e bf
       -0.22951622 0.52611667 -0.61458725 -0.8699779
000340 72 45 92 be d0 44 09 bf 18 2a 98 3f 75 67 87 3d
       -0.28568608 -0.53620625 1.1887846 0.0661153
000350 38 95 04 3e 71 e6 a8 bd 1a 46 97 bf b2 9e bc be
       0.12947547 -0.08247078 -1.1818268 -0.36839825
000360 fe aa 1e 3f f1 7e c4 3e b6 e3 99 3d f3 9a de 3d
       0.61979663 0.383781 0.075141355 0.10869398
000370 ac 0d 27 3f 02 5d 6b be 97 3a 64 bb 24 40 c4 3e
       0.65255237 -0.22984698 -0.0034824961 0.38330185
000380 b0 f6 57 3e 4e 83 49 be 75 6e 8c bf 82 5e 9f 3f
       0.21090198 -0.19678995 -1.0971209 1.2450716
000390 74 e0 9a 3f da c3 e3 be b9 50 6b be e5 0a ef 3d
       1.2099748 -0.4448536 -0.22980012 0.11672
0003a0 a2 ef 41 3e 4b 2c dc 3e d6 87 39 3e 6e 78 05 bf
       0.18939069 0.43002543 0.18118224 -0.52136886
0003b0 20 2a 01 3f d1 07 aa 3f e3 8d be be 5f f1 73 3e
       0.504549 1.3283635 -0.37217626 0.23822545
0003c0 3b 8b 9f bf 8a 37 a0 bf b1 24 94 3c de b8 ea be
       -1.2464365 -1.2516949 0.018083902 -0.45844167
0003d0 63 26 2a bf 34 5d 88 be 0c 24 4d 3d 07 22 0a be
       -0.66464823 -0.26633608 0.050083205 -0.13489543
0003e0 f2 49 9f 3e 01 88 b4 be 83 7f 0b be 52 75 1b 3f
       0.31111103 -0.35260013 -0.1362286 0.6072589
0003f0 f1 6a a6 3e d2 89 9e 3d 45 79 b6 3d 9a 07 fb 3e
       0.32503465 0.07741131 0.08909849 0.49029237

weight_hh_l0 f4 [80, 20]
000000 3d 73 2f 3e f1 19 a1 3d d4 3d 9a bb 7d a9 44 be
       0.17133804 0.07866276 -0.0047070775 -0.1920528
000010 27 5a 07 be 2c 2d 67 bd ea 6b 2a be 0e 46 cb bd
       -0.13217984 -0.056439564 -0.16642728 -0.09925471
000020 e5 b1 11 be d0 c4 04 3e b0 6a fb bd a1 19 0d 3e
       -0.14228018 0.12965703 -0.122762084 0.13779308
000030 9a e2 e0 3d ac 96 cf 3c 31 fa 07 3e fe e0 b9 bd
       0.10980721 0.0253404 0.13279034 -0.09076117
000040 98 c3 56 3e 74 a3 97 bd 21 34 f4 3d ba 6d 32 bd
       0.2097305 -0.07404223 0.11924005 -0.043561675
000050 d6 5a db bd f6 72 18 3d 84 47 9a bd a0 d4 0b 3e
       -0.10710685 0.03721901 -0.07533172 0.13655329
000060 4c 8d 23 be ac d4 b5 bd 2c 9c 51 be 02 06 11 be
       -0.15971869 -0.088784546 -0.20469731 -0.14162448
000070 40 a6 65 3b 59 aa 24 be c1 10 3d 3e a0 fc 49 3a
       0.003504172 -0.16080607 0.18463422 0.00077051856
000080 77 0e 19 be 57 1d 3b be 3b 42 92 bc e5 08 0c bd
       -0.14946924 -0.18272911 -0.017853847 -0.03418817
000090 84 44 25 be f8 ea 1c 3e 9b 93 46 3d ff 4b d4 bd
       -0.16139418 0.15324008 0.04848061 -0.103660576
0000a0 9b a6 2f be 7c b2 2e 3e 5c 4f 2f be 87 6e ad 3c
       -0.17153399 0.17060274 -0.17120117 0.021170868
0000b0 3d 40 5a 3e 58 d6 38 be 45 37 31 3e 65 66 f3 3d
       0.21313567 -0.18050516 0.1730624 0.118847646
0000c0 c0 65 7a 3d 57 24 aa 3d 55 b0 26 be 3c f3 3e 3e
       0.061132193 0.083077125 -0.16278203 0.18647474
0000d0 52 b2 3b 3e e1 07 e4 bd 8b 1b f2 bd 03 e1 b4 3d
       0.18329743 -0.11134315 -0.1182166 0.0883198
0000e0 ed e5 25 3e 45 7c cf 3d 99 8c e7 3d cf 61 86 bd
       0.16200991 0.101311244 0.11306114 -0.06561624
0000f0 10 4a 27 be 8d 12 d2 3d e0 8d 07 bc b7 73 b6 bd
       -0.16336846 0.102574445 -0.008273572 -0.089087896
000100 ed 26 05 bd 24 cf 27 3d 90 cd 13 be 4b 11 8d bd
       -0.032507826 0.04096903 -0.14433885 -0.06888064
000110 ca 45 db 3d 19 cf db 3d 02 e9 54 3e 17 52 4a 3e
       0.107066706 0.1073286 0.2079201 0.19757877
000120 a6 6a d8 bd 84 9d ae 3c ef b4 31 be 26 4e f4 3b
       -0.105672166 0.021315344 -0.17354177 0.007455605
000130 72 3a f5 3c da 7d 3c be 82 5b 13 be af 7f 0c 3d
       0.029935095 -0.18407384 -0.14390376 0.034301456
000140 78 ae 4d 3e c6 e1 4f be 86 15 a8 3d 04 d8 08 3e
       0.20086086 -0.2030097 0.0820723 0.13363653
000150 30 30 b7 bd 84 f3 61 be 31 9d a5 3d 48 a6 b8 3d
       -0.08944738 -0.2206555 0.080866225 0.09016091
000160 51 f4 f3 bd ba 35 68 3d 78 52 64 3e eb b2 b9 bd
       -0.11911834 0.056691863 0.22297084 -0.09067329
000170 9e 44 89 3d 12 86 2e 3e 91 a1 36 be 31 29 5c be
       0.06702541 0.17043331 -0.1783507 -0.21500088
000180 d8 01 23 3e 88 3a d0 bd c9 e1 f4 bc e6 93 90 3c
       0.15918672 -0.10167414 -0.029892819 0.017648648
000190 02 12 29 be 73 85 0c be 45 1f ac 3d bf c6 02 be
       -0.16510776 -0.13722782 0.08404402 -0.12771128
0001a0 6b 13 70 3d 14 2a 2e bd 4b e6 4d 3e b0 e2 e9 3c
       0.05861227 -0.042520598 0.20107381 0.028550476
0001b0 c7 59 74 bd e8 b4 f2 3d 14 19 f7 3d 7a a3 20 3e
       -0.05965593 0.118509114 0.1206533 0.15687361
0001c0 e0 aa 2e bd 19 7d 0b 3e 2c 07 50 be 29 4d 3f 3d
       -0.042643428 0.1362194 -0.20315236 0.046704445
0001d0 6e 71 c9 bd c9 85 0c 3e dc 4a 94 3d a6 7f 60 3e
       -0.09836088 0.1372291 0.07240841 0.21923694
0001e0 ad 26 2b 3e 14 d4 30 be b1 20 41 be 9e 99 65 3d
       0.16713972 -0.17268401 -0.18860127 0.056054704
0001f0 3c 8c 0d 3d c5 78 0a 3e fd ba 0c be e8 24 64 3e
       0.034557566 0.13522632 -0.13743205 0.22279704
000200 cb b2 23 bd 70 a8 45 be 33 14 f6 bd 46 14 8f 3d
       -0.039965432 -0.19302535 -0.120155714 0.06986289
000210 cc 1b 7d 3d e5 75 d4 bc c5 5b 43 3e 32 10 90 bd
       0.061794087 -0.025935123 0.19077976 -0.07034339
000220 ce 6e 53 3e cb 66 0b be 1b aa f3 3d 91 d2 2e be
       0.20647737 -0.13613431 0.118976794 -0.17072512
000230 83 57 08 3e 18 d4 48 be 67 36 dc 3b ec a1 8a bc
       0.13314633 -0.19612157 0.0067203525 -0.016922913
000240 1d 9c 15 3e 60 69 74 bd 8d 62 bc 3d 13 bc 4e be
       0.14610334 -0.059670806 0.091984846 -0.20188932
000250 db 56 fb bd c6 a9 c7 bc 45 a3 11 be b8 13 e5 3d
       -0.12272426 -0.024372946 -0.14222439 0.11185402
000260 68 ed 3e 3e e3 14 bb 3d 77 04 37 3e c3 9d f8 3c
       0.18645251 0.09134843 0.17872797 0.030348664
000270 34 0c 21 be ed 93 2d be a1 96 3d 3e d2 48 2d 3e
       -0.15727311 -0.1695096 0.18514492 0.1692231
000280 d2 38 1e be 62 19 9b 3d 83 ad e8 bd e4 c3 be 3d
       -0.15451363 0.07573201 -0.1136122 0.09314707
000290 fd 36 26 be 6e 65 a6 bc 3b 7a 0e 3e 80 78 9a bd
       -0.16231914 -0.020312037 0.13913815 -0.07542515
0002a0 a3 c2 4f be 3a 34 03 be c8 3f 32 3e 14 c1 f0 bc
       -0.20289092 -0.12812892 0.17407143 -0.029388942
0002b0 e7 77 4e 3e e7 e8 30 be ff 5d 9f bd 1b 6a 8b bd
       0.20162927 -0.17276345 -0.077816 -0.068073474
0002c0 2e dc cc 3d 4d 1d ad 3d 5b 0e de 3d c8 11 e1 bd
       0.100029334 0.08452854 0.10842582 -0.1098972
0002d0 ad e7 9c bd f9 32 b1 3d f6 85 1c be 37 cf 3c be
       -0.07661376 0.086523004 -0.15285477 -0.18438421
0002e0 a1 46 d4 3d eb fa 31 be 52 8d 91 bd 97 94 93 bd
       0.10365034 -0.17380874 -0.07107033 -0.07206076
0002f0 f8 76 07 3e c7 58 4e be 44 c3 37 bd 60 95 01 3e
       0.13228977 -0.20151053 -0.044863954 0.12654638
000300 e8 1f 19 3e d0 27 c5 3d 83 da 32 bd ec 9b 3b 3e
       0.14953578 0.09626734 -0.04366542 0.18321198
000310 9a e7 dd 3d e2 bf 8a 3d 8c a1 0f 3e 95 af 0e be
       0.1083519 0.0677488 0.14026469 -0.13934167
000320 2d 10 5e 3e b2 8c 33 be 20 99 f9 3d 40 e6 ca bd
       0.21685858 -0.1753414 0.121874094 -0.09907198
000330 f0 90 eb 3d e9 e0 1e 3e ff 17 a1 bd bb 46 f5 bd
       0.11502254 0.15515484 -0.07865905 -0.119763814
000340 3e d7 43 bd 32 7d 3e 3e cb 3f a6 bd a5 da 3e 3e
       -0.047812693 0.18602446 -0.08117636 0.18638094
000350 a7 62 7b 3d ae 4e 97 3d b4 32 dd bd 09 39 12 be
       0.06137338 0.07388054 -0.108006865 -0.1427957
000360 96 1f bf 3d 1a 6c 5f bd 69 b3 61 bd 18 92 29 3e
       0.093321964 -0.054546453 -0.05510274 0.16559637
000370 e0 c7 08 3e 9d 64 7e 3d e5 f8 18 be 64 fe e4 bd
       0.13357496 0.06210767 -0.14938696 -0.11181334
000380 2e c9 1b 3e e7 4f e7 3d 0c 5e 94 3d 17 a6 ac 3d
       0.15213463 0.11294537 0.072445005 0.084301166
000390 c2 0a 31 3e 19 c7 c8 3c ab 30 9b ba 9e 73 00 3d
       0.1728926 0.024509 -0.0011840066 0.03136026
0003a0 3a 1c f2 3b 22 00 e9 bd d8 53 27 3e 90 58 42 3e
       0.007388619 -0.113769785 0.16340578 0.18979096
0003b0 7c 78 84 bd c0 4c 36 3c 26 e6 61 3e 97 e3 20 3c
       -0.06468293 0.011126697 0.22060451 0.009819887
0003c0 aa d9 1e 3d a2 39 18 bc e5 32 f3 bc 57 e6 eb 3d
       0.0387818 -0.0092910845 -0.029687354 0.11518543
0003d0 10 5e cb bd 9b 08 80 bd ef 75 cb bd 5e eb 29 3e
       -0.099300504 -0.06251641 -0.099346034 0.16593692
0003e0 98 30 19 3e 78 ce 1f 3e 0b 46 b6 3c 45 64 2e bd
       0.14959943 0.15606105 0.022250196 -0.042576093
0003f0 f3 b9 5a 3e 1f d5 3c be 7f 7e 61 bd de 81 07 be
       0.21359996 -0.18440674 -0.055052277 -0.13233134

bias_ih_l0 f4 [80]
000000 a6 6e 85 3e 85 e5 b3 3a 79 8e ae be f6 f4 b3 bd
       0.2606098 0.0013725018 -0.34093073 -0.08786957
000010 90 0f 69 be e3 be 08 be 86 99 48 bf ea 24 b2 be
       -0.22759843 -0.13354068 -0.7835926 -0.34793788
000020 2a 31 21 3d bb 4e e1 3e 6e 46 74 be 82 96 12 be
       0.039353527 0.4400538 -0.23854992 -0.14315227
000030 bd d7 18 bf d9 3c 8a 3e 22 87 f4 be c1 98 54 3e
       -0.5970419 0.26999548 -0.47759348 0.20761396
000040 7c de ff be 42 01 04 3f 41 1f 08 bf b9 ed 3b bf
       -0.4997443 0.5156442 -0.5317269 -0.7340961
000050 1e 87 b1 3d 55 9c d7 bd 60 b9 ff 3d 58 6e 4e 3e
       0.0866835 -0.10527865 0.12486529 0.2015928
000060 a4 4b d1 bd 4d de 1a be 21 5b 0a be 65 cb 54 3e
       -0.102195054 -0.15123864 -0.13511325 0.20780714
000070 51 14 b6 3d e3 2a f2 3d a8 a6 7c 3d 07 d5 2c 3e
       0.08890594 0.11824586 0.061682373 0.16878138
000080 35 36 4d 3e 79 40 42 bd b0 32 3b 3e c0 39 84 bd
       0.2004021 -0.047424767 0.18281054 -0.064563274
000090 3c e5 ae 3a b4 7b 09 be 8f 0b fd 3d d5 45 6b bd
       0.0013343464 -0.13426095 0.1235572 -0.057439644
0000a0 3f 1b bc be 03 e5 17 be ef 4d b1 bc ba ac 94 be
       -0.36739537 -0.14833455 -0.021643607 -0.2903803
0000b0 45 05 ff be 05 d3 c7 3e 6d e6 6f be fa 21 1b bf
       -0.49808708 0.39028183 -0.23427744 -0.6059872
0000c0 64 b8 50 be a7 2d f8 3e 64 5d 9a be 51 60 46 3e
       -0.2038284 0.4847233 -0.30149376 0.1937268
0000d0 37 61 48 3f 73 97 06 bf 82 45 51 3e b5 ce 4d be
       0.7827334 -0.52574843 0.20436671 -0.20098384
0000e0 9f 7c b2 be fb b4 d0 3e e2 44 53 be 84 fe 80 be
       -0.34860703 0.40763077 -0.20631745 -0.2519418
0000f0 14 b6 48 bd c7 03 77 3e 32 cc 06 bd 34 c5 98 be
       -0.04900177 0.24122535 -0.03290958 -0.29837954
000100 7e 3b a2 3c e4 c8 e1 bd e1 eb 73 bf c6 c0 b5 3d
       0.019803759 -0.11024645 -0.952818 0.08874659
000110 9e 20 9c be 88 c0 2f 3f d0 5b f8 be 91 4d 00 3e
       -0.30493635 0.68653154 -0.48507547 0.12529589
000120 80 15 40 bf e6 4c b3 3e 76 fc f2 be c8 2b e9 bb
       -0.75032806 0.35019606 -0.47458237 -0.007115815
000130 2b fc 48 bf c1 f1 0a 3f 69 52 a3 be 23 f6 43 bf
       -0.7850978 0.5427514 -0.3189881 -0.7654745

bias_hh_l0 f4 [80]
000000 e6 b7 02 3f d3 6b fe 3d 2d 9f 3a be a4 17 8a bd
       0.51061857 0.124229096 -0.18224783 -0.0674279
000010 62 11 3e be e9 9e 9a be c4 d1 63 bf f8 a2 85 be
       -0.18561319 -0.30199364 -0.8899195 -0.26100898
000020 12 05 9b 3e c0 4b 23 3f da 25 97 bd e0 05 15 be
       0.30277306 0.6378746 -0.073802665 -0.14553022
000030 00 e4 7b be 26 cc 93 3e 2e 52 2b bf 9e a6 b4 3e
       -0.24598694 0.2886669 -0.6692227 0.3528337
000040 85 a9 03 bf 92 75 de 3e a3 22 99 be cf 30 45 bf
       -0.5143054 0.43449074 -0.29909238 -0.770276
000050 bb f4 34 3c 15 8e ac 3c eb a2 4f 3e 9f c7 a7 bc
       0.011044676 0.021063844 0.20276992 -0.020480929
000060 3c 7c 47 3e 88 6d 86 bd 84 02 c0 bd 2e 1a 94 bd
       0.19480985 -0.0656386 -0.0937548 -0.07231556
000070 da 0a 9c 3d ac 66 5a be f0 c9 3c be 6c 47 2d be
       0.07619257 -0.21328229 -0.18436408 -0.16921777
000080 eb 83 2f 3e 42 48 8c 3d 5f eb 36 3d 0e 77 24 be
       0.17140166 0.068497196 0.04465806 -0.16061041
000090 2a 37 5b be 56 19 af 3d 6f bc 50 bc 3f 27 c9 bc
       -0.21407762 0.08549754 -0.012740239 -0.024554847
0000a0 97 70 d5 be de ab f1 be 7b c6 02 be 50 ab ac be
       -0.41687462 -0.47201437 -0.12771027 -0.3372445
0000b0 ff 93 c4 be 91 d0 e3 3e 42 b0 bb be 86 e7 2c bf
       -0.38394162 0.4449506 -0.36657912 -0.67540777
0000c0 2c 05 9f bd a3 de b1 3e 84 cd 2b be 60 33 6e 3e
       -0.07764658 0.3474017 -0.16777617 0.23261786
0000d0 d1 29 3d 3f 66 4b 0b bf 5e bc d6 3e 87 e1 39 be
       0.7389193 -0.54411924 0.41940588 -0.18152438
0000e0 8d 06 9a bd 4c c3 04 3f 03 72 92 3c 8f c1 13 bf
       -0.07520781 0.518605 0.01787663 -0.5771722
0000f0 57 f4 95 3e b9 3d 12 3d 34 5e 10 be 50 68 d5 be
       0.2928798 0.035703395 -0.14098436 -0.41681147
000100 bf d8 89 bd d5 26 a9 be cf 27 6b bf 52 e0 89 3e
       -0.06730794 -0.3303744 -0.9185762 0.26928955
000110 9a 4a 1b be 4e af 01 3f de 8b df bd 14 31 8d be
       -0.15165177 0.5065812 -0.109153494 -0.27576506
000120 6e b5 20 bf c1 86 0f 3e e2 85 91 be 68 73 28 3e
       -0.6277684 0.14016248 -0.28422457 0.16450274
000130 1d 56 46 bf 3d 54 28 3f 24 6a 08 bf 67 09 2f bf
       -0.7747515 0.6575354 -0.5328696 -0.6837372

weight_ih_l0 f4 [40, 20]
000000 c3 ec 10 3e f8 0e 46 3f 71 43 04 be b4 7c da 3f
       0.14152817 0.7736659 -0.12916352 1.7069306
000010 49 f5 49 3f b6 57 50 be 7d 34 8a 3f 59 a1 60 3f
       0.788899 -0.20345959 1.0797268 0.87746197
000020 8f 0b 5a bd a3 ac 00 bf 31 21 14 bf b6 f7 95 3e
       -0.05323368 -0.5026342 -0.57863146 0.2929055
000030 1b 34 61 3e 63 f7 a6 bf 03 7c c4 3e 12 92 e9 bf
       0.21992533 -1.3044246 0.38375863 -1.8247702
000040 8b 90 bc 3f c8 1f 4e be d3 cc 99 3f 87 38 7b 3d
       1.4731611 -0.20129311 1.2015632 0.061333206
000050 d9 b2 7a bf 83 67 19 3f a2 70 dd be 39 03 84 3f
       -0.9792915 0.5992357 -0.43249995 1.0313483
000060 45 c3 1b be 0f d9 36 3e 1d 54 86 3f b0 da a0 bf
       -0.15211208 0.17856239 1.0494419 -1.2566738
000070 fc e2 2c bf a0 16 6a bf 19 2e 3f bf 7c 9e 95 bf
       -0.6753385 -0.91440773 -0.74679714 -1.168899
000080 74 5e 61 c0 79 ae 9b bf 16 83 e6 3d 1d 4b 4c 3d
       -3.52139 -1.216262 0.112554714 0.04987632
000090 a8 72 b4 3f 03 91 72 3d e5 5e 61 3e a6 d8 7a 3f
       1.409749 0.059220325 0.22008856 0.9798683
0000a0 30 75 02 3c d6 0d 39 3f 0d b6 0e 40 42 9d 3d bf
       0.00796251 0.72286737 2.2298615 -0.7406808
0000b0 77 d2 0f 3f e6 10 29 3f d8 86 2c 40 62 82 b1 3f
       0.5618052 0.6604141 2.6957302 1.3867915
0000c0 e5 1c a8 3e 52 26 d4 3e 53 cb a0 3f 57 83 b8 3f
       0.32834545 0.41435486 1.256205 1.4415082
0000d0 2b d0 1a 3f 55 be 27 bd 60 0e 55 bf b1 33 12 c0
       0.6047389 -0.040953 -0.8322506 -2.284405
0000e0 be ef 1d bf b2 de 93 3f 40 be be be cd 50 b2 3f
       -0.6169394 1.1552336 -0.37254524 1.3930908
0000f0 c6 c9 71 3f 1a 52 89 bf b9 e4 8a 3f 0f 5a 74 bf
       0.94448507 -1.072818 1.0851051 -0.9544992
000100 15 bd 9e 3f 2f 93 6c 3f 56 57 2e 3f 11 8a 90 bf
       1.2401453 0.92412084 0.68102014 -1.1292135
000110 10 f2 0c 3f 50 11 66 3f cf 8f df 3f df bb 0e 3f
       0.5505686 0.89870167 1.7465762 0.5575542
000120 6e 76 2b 3f 6b ab e1 3f b9 4b fe bf d6 23 7a 3f
       0.66977584 1.7630438 -1.9866859 0.9771093
000130 00 19 7d 3f 4c 3b 38 bf b0 1f 68 bf b8 46 68 bf
       0.9886627 -0.7196548 -0.9067335 -0.9073291
000140 d9 af 96 3e 51 d6 13 bf 1c 83 6b 3f 67 41 d7 3e
       0.29431036 -0.57748896 0.9199693 0.42042086
000150 54 5a 71 3f 57 8a bd 3e 61 6f 1b bf 7c b2 3d 3f
       0.94278455 0.37019607 -0.60716826 0.7410047
000160 c8 60 aa be fb a8 45 3f 2a 39 0b be d9 e5 b1 bd
       -0.33276963 0.7721097 -0.13596025 -0.08686418
000170 44 b6 38 bf 67 32 ae 3d e9 6e 7e bf f3 5a 7a 3e
       -0.72153115 0.08505707 -0.99387985 0.24448757
000180 f7 21 c0 3f 4c 63 65 3e d9 47 29 3f 02 17 bb 3f
       1.5010365 0.2240116 0.66125256 1.4616396
000190 93 f4 9e 3e c2 0f 8e bf 9a d0 b5 3f 0f 16 ee 3e
       0.3104597 -1.1098559 1.4204285 0.46501204
0001a0 c7 c3 88 3f a5 5c cf be 27 51 4e 3f 23 7c 8e 3f
       1.0684747 -0.4050037 0.8059258 1.1131634
0001b0 1b d2 b0 bf 23 b9 dd 3d f2 3f 81 bf 64 ee c1 3f
       -1.3814119 0.10826328 -1.009764 1.5150876
0001c0 53 bd 53 bf 07 11 9f bf 46 d5 f8 be 6f ca c5 bf
       -0.8271076 -1.2427071 -0.48600215 -1.5452403
0001d0 a2 b0 93 3f 43 c5 7b 3d c3 fa 30 bf 3a 46 32 40
       1.1538279 0.06146742 -0.6913263 2.7855363
0001e0 5b b9 36 3f 28 ad d5 be 39 f3 06 bf 38 d7 4d be
       0.7137658 -0.4173367 -0.5271488 -0.2010163
0001f0 39 91 05 40 d1 10 ae 3e 94 29 61 3f a6 4f e2 3e
       2.0869887 0.33997205 0.8795407 0.44201392
000200 82 ab 11 b9 8d de 9c be 16 1d 2a 3e b8 d0 df 3d
       -0.00013892169 -0.30638543 0.16612658 0.10928482
000210 44 cd 87 3d 0c c7 ff 3c 8d 4c a3 bf 10 02 02 3e
       0.06630948 0.031222843 -1.2757736 0.126961
000220 bf 8c 6a 40 39 26 08 bf 12 12 63 bd da 34 ae 3e
       3.6648405 -0.53183323 -0.055437155 0.34024698
000230 ac d0 df 3f b6 db b9 3e 47 43 01 bf bc 4c 9d bf
       1.7485557 0.3630044 -0.5049328 -1.2289042
000240 9d 0a cf 3f 98 f4 4a 3f 30 4d 23 3e db bb e8 be
       1.6175114 0.7927947 0.15947413 -0.45455822
000250 9e c3 1a bf 44 6e 32 3e df 74 9b 3f 41 e8 c1 bd
       -0.6045474 0.17424875 1.2145041 -0.09468127
000260 36 a3 c4 3f 08 60 4b be 8f 8b 19 3f 9c 9f 2e bf
       1.5362308 -0.19860852 0.59978575 -0.68212295
000270 5e 72 16 40 aa 03 70 3f 9c 29 6d bf 2a 51 00 c0
       2.3507304 0.9375559 -0.92641616 -2.0049539
000280 92 b7 13 be ba c1 cc 3e 7b e6 32 40 c3 3b 0c c0
       -0.14425495 0.39991552 2.7953174 -2.1911476
000290 4a 48 50 bf c8 fe 83 bf c4 20 bf 3f 26 17 04 40
       -0.81360304 -1.0312128 1.4931874 2.0639129
0002a0 56 3b ad c0 03 15 62 bf 8a 9f 97 3f 86 f1 15 40
       -5.413493 -0.8831331 1.1845562 2.3428664
0002b0 d9 d5 6f bf cb 26 32 3e 8b c8 aa bf e6 af c1 be
       -0.9368568 0.17397611 -1.3342451 -0.37829512
0002c0 a2 7f 37 3f 99 a8 42 3f d5 99 06 c0 bf 0d 69 be
       0.7167913 0.7603851 -2.1031392 -0.2275915
0002d0 56 82 92 bf 01 87 df 3f 3a 51 51 3e c4 94 07 bf
       -1.1446025 1.7463075 0.20441142 -0.52961373
0002e0 b1 e1 18 be a2 a9 f2 3f 8f 39 c1 3f 8a 71 43 3c
       -0.14929844 1.8958018 1.509569 0.011928925
0002f0 04 cd 25 be 6d 61 57 bf 5e 10 c4 3e 5d 8e c6 bf
       -0.16191489 -0.84133035 0.38293737 -1.5512196
000300 d8 14 bf bf 5c db 21 bf b1 3b cc bc 76 f3 2c bf
       -1.4928236 -0.6322534 -0.024930807 -0.6755899
000310 b7 b5 9a 40 90 95 15 3f 54 f1 54 3f c3 cb 0d bf
       4.834682 0.5843134 0.8318074 -0.5538904
000320 f6 60 85 be 04 92 87 be 79 1f 39 be 9c 51 35 bd
       -0.26050538 -0.2647859 -0.18078412 -0.044267282
000330 2c 0c 51 be 76 cd 40 3b 94 97 02 be 2a 63 81 be
       -0.204148 0.002941934 -0.12753135 -0.2527097
000340 86 73 26 be 39 b4 8f be 4a c7 54 be 0d 96 48 3d
       -0.16255006 -0.28067186 -0.20779148 0.048971225
000350 32 73 73 be f2 8f 3b be 7f fb 8d bd fa 01 4b bd
       -0.23774412 -0.1831663 -0.06932735 -0.049562432
000360 c0 63 5e bb 20 52 ef bc 94 2b 6b 3e b8 a7 94 3e
       -0.0033933967 -0.029213965 0.22965842 0.2903421
000370 a5 28 9d be 52 c0 7c be 74 76 3f be 2e 05 43 be
       -0.30695072 -0.2468274 -0.1869753 -0.19044945
000380 db 65 09 bc 19 8a 35 bc 5b 6d 99 be c3 20 60 bd
       -0.008386101 -0.011080288 -0.29966244 -0.054718744
000390 69 b4 8e 3e 88 81 8e be ea 42 8e 3e 38 16 98 3e
       0.27872017 -0.278332 0.27785426 0.29704452
0003a0 e4 0c cf 3d ce 96 1d 3e ff 5b 5a be 64 19 cd bd
       0.101098806 0.15389559 -0.21324156 -0.100146085
0003b0 06 41 94 3d 6f b6 d9 3d 39 0a 80 be 29 69 2d bc
       0.07238965 0.106304996 -0.250078 -0.010584154
0003c0 5c d5 85 3d b6 2c 08 bd ce 6f 83 be 7b 01 7e be
       0.06534836 -0.033245765 -0.25671238 -0.24805252
0003d0 7c c8 9d bc ff 05 27 3e 44 48 59 be 01 de 50 3d
       -0.019260637 0.16310881 -0.21218973 0.05099297
0003e0 26 8b 56 bd d1 9e 63 3e 8e ab 81 bd 3b 22 a0 3e
       -0.052378796 0.22228552 -0.063315496 0.31276116
0003f0 86 49 26 be 32 5c a1 be 23 86 47 be 2e 13 ac 3d
       -0.16238984 -0.31515652 -0.19484763 0.08402096

weight_hh_l0 f4 [40, 10]
000000 89 13 31 3e 9a 73 99 3e eb 91 44 bd 8a e5 b7 3d
       0.17292608 0.2997101 -0.04799072 0.08979328
000010 ae 5f 6d 3e 31 ae 9c 3e 46 2a fb bc 50 9e 33 3e
       0.2318103 0.30601647 -0.030659806 0.1754086
000020 66 d6 fe 3d d7 b1 ce bc 7d 2c d4 bd 95 08 95 be
       0.12443237 -0.025231285 -0.10360048 -0.2910811
000030 2f 78 3c 3e 4d 24 16 3d ed c7 78 be ca 55 70 bd
       0.18405221 0.036655713 -0.24295016 -0.058675565
000040 63 3d 1c 3e 58 61 c5 3d bc f3 38 3e a0 93 1a 3e
       0.15257792 0.096377075 0.18061727 0.15095377
000050 58 03 75 be be 8f fe bc 91 6a 0a 3e a1 ff 6b bc
       -0.23927057 -0.031074401 0.13517214 -0.014404208
000060 cb c6 28 3e da e0 87 be 77 b4 de 3d f1 97 77 be
       0.16482083 -0.26538736 0.10874265 -0.24179055
000070 5d 83 3e 3e e2 1e f0 3d e0 6a 43 bd 5d ba 88 be
       0.18604799 0.117246404 -0.047709346 -0.26704684
000080 1d bf 81 3e 9b e6 9a 3e ad 43 7a be bb 2e 56 bc
       0.2534112 0.30254063 -0.24439879 -0.013072665
000090 6b 1c 2f be 9d c2 30 be 02 22 6d bd 35 c8 05 3e
       -0.17100684 -0.17261739 -0.05789376 0.13064654
0000a0 1e 51 00 be c0 03 90 bd 35 a5 e4 3c 09 74 49 3e
       -0.12530944 -0.07031965 0.027910808 0.1967317
0000b0 07 c1 95 be 08 ac e2 3d 1f 9c 30 be ef 73 9a 3c
       -0.2924883 0.110679686 -0.17247055 0.01885411
0000c0 71 fd 9f be a0 fb 51 3e 77 f8 19 3e de 07 14 bd
       -0.31248048 0.20506144 0.15036188 -0.036140315
0000d0 04 14 91 be 44 ec 62 be b5 0f 0b 3e f1 2e 55 3d
       -0.28335583 -0.2216044 0.1358021 0.05204672
0000e0 58 22 8c 3e 45 6a 79 be 6a 39 93 be 8b d2 2d 3e
       0.27369952 -0.24356945 -0.2875474 0.16974847
0000f0 56 b8 f4 bd 04 fd a0 3c 1d 14 d0 3d be c2 72 3e
       -0.11949222 0.019651897 0.10160086 0.23707101
000100 4a 97 b3 bd 7b 82 57 3d 28 4b f7 3d 20 ef 22 be
       -0.087690905 0.05261467 0.12074882 -0.15911531
000110 fc 11 ee bd 8e 98 38 be fb 4e d8 bd 42 a0 53 be
       -0.11624524 -0.18026945 -0.10561939 -0.20666602
000120 ae 61 25 bc 4b 69 0c bc 61 1f 5a bd 5b 60 72 bd
       -0.010094089 -0.008570026 -0.05325258 -0.059173923
000130 8a eb 99 3d c7 ab 82 3e b0 95 43 be 8f a1 45 3e
       0.07515629 0.2552168 -0.1910007 0.19299911
000140 7f 84 47 3e 80 f3 c5 3b ee fd 79 3e a9 de 4c 3e
       0.19484137 0.0060409904 0.24413273 0.20006813
000150 6a 78 19 bd 42 09 63 3e a4 11 8c be bb f2 32 be
       -0.03746835 0.221715 -0.2735721 -0.17475407
000160 06 4c b3 bd 82 a7 a1 3e 92 b9 08 3e 4a 0c bd 3c
       -0.08754735 0.3157311 0.1335204 0.023077149
000170 c3 80 47 3d 98 dd a4 bd 68 5d 19 be 05 0b a6 3b
       0.04870678 -0.08050078 -0.14977038 0.0050672316
000180 1b bf 9d be 71 3a d4 3d ef a1 9d 3e 5d 73 ee bd
       -0.30809864 0.10362709 0.30787608 -0.116430975
000190 96 fa 92 3e f4 3e 95 bb 5a a8 84 3d 9b 45 3a 3d
       0.28706807 -0.0045546237 0.06477423 0.045476537
0001a0 cf 1f 90 be 77 10 09 be a4 cc 68 3d 44 54 5e 3e
       -0.28149268 -0.13385187 0.056835786 0.21711832
0001b0 70 66 93 be 53 3c df bd 62 97 8c bc 37 18 f2 3b
       -0.2878909 -0.10900178 -0.017162029 0.0073881405
0001c0 00 cc 45 3e ec d9 9f 3e f4 1c 41 bd a6 d6 49 be
       0.19316101 0.3122095 -0.047146752 -0.19710788
0001d0 be 28 ac 3d 06 db da bc 4c 44 3e be 5b e2 77 be
       0.084062085 -0.026715767 -0.1858074 -0.24207442
0001e0 82 03 29 3e 31 ac 95 be c8 32 82 bd 37 13 c5 bc
       0.16505244 -0.29232934 -0.06357342 -0.024057014
0001f0 b2 27 f9 3d 7e 02 58 be 59 fd 66 3e 18 d6 02 3d
       0.121657744 -0.210947 0.22557582 0.031942457
000200 09 5c 30 be e6 ff 9c bd 50 8e 53 be b8 f5 76 bd
       -0.17222609 -0.07665996 -0.20659757 -0.06029293
000210 62 c4 6f 3e f1 cc b5 bd 00 b0 97 3d e2 45 42 be
       0.23414758 -0.0887698 0.07406616 -0.1897197
000220 66 32 51 be 32 18 65 bd 6b 85 04 3e f9 d7 91 be
       -0.20429382 -0.055931278 0.1294152 -0.28485087
000230 05 01 43 bd da 7c 58 bd 0a 57 87 3d f8 20 21 3e
       -0.047608394 -0.052853443 0.06608398 0.15735233
000240 4f d0 dd bc 23 2c 35 bd b4 eb 9a bb 4c d7 c5 3d
       -0.027076868 -0.044231545 -0.004727805 0.09660205
000250 84 06 86 be 06 de e3 bd 35 b0 cc bd 3a f8 7e 3e
       -0.26176846 -0.11126332 -0.09994546 0.24899378
000260 40 77 97 3e 35 ca 19 be 4d 55 79 3e 0c 61 4a be
       0.29583168 -0.15018542 0.24348946 -0.19763583
000270 be c7 df bc 85 d2 29 3e 96 41 46 be 71 76 1b be
       -0.027316924 0.16584213 -0.19360957 -0.151819
000280 0e e7 c0 bd ee 6a b2 3d 84 69 06 be 59 80 90 be
       -0.0941907 0.087118015 -0.13126189 -0.28222921
000290 93 cb 8e 3d b9 90 d9 bd be 37 15 3e bb 9f a0 b9
       0.069724225 -0.10623307 0.14572045 -0.00030636587
0002a0 77 e7 f9 bd ac 33 f6 3b bc ed 36 be 0d 0b 68 be
       -0.122023515 0.007513484 -0.17864126 -0.22660466
0002b0 47 f6 72 3e 59 0d b2 bd 57 84 2c 3e 64 51 40 3e
       0.2372676 -0.08693952 0.16847359 0.18781048
0002c0 46 2c 9b 3e 8f 0f fc bd c1 4c 9f 3d 37 4c ef bd
       0.30307215 -0.12307655 0.077783115 -0.11684459
0002d0 4d 79 41 3e 2f d1 d1 39 7a 3f 6a 3e 53 a7 a0 3e
       0.18893929 0.0004001944 0.22875777 0.31377658
0002e0 d2 2d 3a be 20 2d c5 3d 11 09 2d 3e 30 25 9e 3e
       -0.18181542 0.096277475 0.1689799 0.30887747
0002f0 fe 39 97 3e 30 6c 88 3e 37 ce ca bd e3 09 8d 3e
       0.29536432 0.2664504 -0.099026136 0.27546605
000300 33 bf 2e 3e ec bd 9b 3e 57 9d b7 bd 95 b7 50 bd
       0.17065124 0.30418336 -0.08965557 -0.050956327
000310 3f 18 25 be 5f 77 1a bd 7e 6d 9b 3e 35 d4 87 3d
       -0.1612253 -0.037711497 0.30356973 0.06632272
000320 8f 9d 61 3e f2 6d 81 3e ce 46 86 be 50 30 e3 3d
       0.2203276 0.25279194 -0.26225895 0.11093199
000330 c9 c7 e6 bd 98 36 57 3e 6e 97 8a 3e 18 f6 5e be
       -0.11268575 0.2101692 0.27068657 -0.21773565
000340 aa b3 93 3e 23 3c 80 be 15 68 8e bd 55 d6 79 bc
       0.2884801 -0.2504588 -0.06953446 -0.015248855
000350 f9 6c e0 bd c6 20 4a 3e 81 11 5a 3e 0c 5b ca bd
       -0.10958285 0.19739065 0.2129574 -0.09880647
000360 30 5f 9b bd 26 37 a5 bd ed e7 45 be 92 46 ea bd
       -0.07586515 -0.08067159 -0.19326754 -0.114392415
000370 1f 40 95 3d 77 d4 36 3e d7 f2 aa bc ef 12 04 3e
       0.07287621 0.17854486 -0.020867748 0.12897848
000380 b5 e3 b8 3d 3c 3f f9 3d 42 cd 5c 3e e2 ff 2f 3e
       0.09027807 0.12170264 0.21562675 0.17187455
000390 a9 49 8e be d8 ac 1d 3e de f1 3d bc ce 28 13 be
       -0.27790573 0.15397966 -0.01159331 -0.14371035
0003a0 ad ac ad 3b 29 f7 8a 3e 2a 53 91 be 63 6f 0d 3e
       0.0053001256 0.27141693 -0.28383762 0.13812022
0003b0 bf c8 81 3e 7f 2c f9 bd c6 90 8a be d2 61 59 3e
       0.2534847 -0.1216669 -0.27063578 0.21228722
0003c0 f8 08 d7 bd 79 9a f4 bc bf 2a 35 3e 63 0e 41 3e
       -0.104997575 -0.029858815 0.17692088 0.18853144
0003d0 74 85 6a 3e 89 3f 89 3e 1c 23 f3 3d 14 49 68 3e
       0.22902471 0.26806286 0.11871931 0.22684127
0003e0 a2 e1 3d be 8e 66 8a 3d 98 7a 64 3e f6 01 8f be
       -0.18543103 0.06757842 0.22312391 -0.27931184
0003f0 66 da 06 be 0a 2a 24 3d 0f e0 96 3b a1 3f cc 3b
       -0.1316925 0.040079154 0.0046043466 0.006233171

bias_ih_l0 f4 [40]
000000 00 e9 3d 3f 75 37 af 3f c0 00 dd 3e 4e 20 4b 3f
       0.74183655 1.3688799 0.43164635 0.7934617
000010 85 32 15 3d fb 81 03 3f 8a 91 21 bf ba 4a 30 bf
       0.036425132 0.5137021 -0.631127 -0.68864024
000020 59 ee d8 3f f6 b4 b7 3e 33 4b 3a be d3 a3 37 be
       1.6947738 0.3588025 -0.18192749 -0.17933588
000030 ce aa 7f be 46 6f 3e 3e c3 a7 e5 3d 3e 1d 29 3d
       -0.249675 0.18597135 0.11213639 0.041287653
000040 c8 3d 1f 3e b7 4b 1c be 3d 6a a8 3d fb 6d 8a be
       0.15550911 -0.15263258 0.08223388 -0.27037033
000050 94 05 7c 3e b0 77 4d bf 2d 69 06 3f 24 f2 df 3e
       0.24611503 -0.80260754 0.52504236 0.43739426
000060 7d b4 03 3f 1d 0a a9 be 9f 4e 6c 3e 15 7a 26 bf
       0.5144728 -0.33015528 0.23076867 -0.6503003
000070 ef 2d 2a 3f e5 65 49 3e 77 c6 80 3e a3 bc a6 3f
       0.6647634 0.19667776 0.25151417 1.3026317
000080 7a dc 98 bd 64 4a d7 3d e1 a9 f2 3e fa 00 c4 3e
       -0.074639276 0.10512236 0.47395232 0.38281995
000090 f8 e0 fe be 44 47 fb be 27 32 42 3f 72 6b 9b 3e
       -0.49781013 -0.4907781 0.75857776 0.30355412

bias_hh_l0 f4 [40]
000000 d2 68 1b 3f 55 77 95 3f db 73 2c 3f b2 6b 2b 3f
       0.6070682 1.1677042 0.6736428 0.66961205
000010 94 40 cc 3e 78 6b 9b 3d 36 77 32 bf 3e bd 10 bf
       0.3989302 0.075888574 -0.6971315 -0.5653876
000020 a9 68 fa 3f 07 c2 dd 3d f7 a0 57 be 84 ef 97 3e
       1.956319 0.108280234 -0.21057497 0.29674923
000030 1b 87 71 bd 26 8e 91 be 77 58 cb bc df 9d 08 be
       -0.058966737 -0.28428763 -0.024822457 -0.13341473
000040 94 18 92 be 86 09 42 3e 8b d0 e0 bd 29 5e ab bd
       -0.28534377 0.18948945 -0.109772764 -0.08367569
000050 c9 0f 4c 3d 2a 06 84 bf 2c af f5 3e 7f d1 4d 3e
       0.04981974 -1.0314381 0.47985208 0.20099448
000060 98 fd 32 3f 10 8b 25 be fa 4a 18 3f 90 5a b7 be
       0.69918203 -0.1616633 0.59489405 -0.3581128
000070 65 b9 06 3f 77 f6 17 be ba 45 0e 3f b9 62 b4 3f
       0.5262664 -0.14840113 0.55575144 1.4092628
000080 34 07 02 3e c5 09 17 3e 03 bf e5 3e b6 61 aa 3e
       0.1269806 0.1474982 0.44872293 0.33277673
000090 35 a4 47 bf 66 ba 12 bf 4c b4 7a 3e fe a5 0a 3f
       -0.77984935 -0.5731567 0.2448284 0.54159534

weight f4 [2, 10]
000000 b8 db 7f 3f 45 0f 9c bd 8b 5c be 3f ee 98 5a 3c
       0.9994464 -0.076201 1.4871992 0.013342125
000010 6e 51 df be e9 9a a2 bf 11 4a 7f bc c3 c5 20 bf
       -0.43616813 -1.2703525 -0.015581624 -0.6280176
000020 e2 c0 58 40 dc 40 48 3e 32 fc 2a bf 2a 7a 0b c0
       3.3867726 0.19555992 -0.6679107 -2.1793313
000030 c6 86 9b be b9 d0 d2 bf a9 9e 32 bf a5 b4 bf 3e
       -0.3037626 -1.6469947 -0.69773346 0.37442508
000040 78 2e ea 3f c1 c8 09 c0 ce b0 8e be 85 2d c0 3f
       1.8295431 -2.152878 -0.27869266 1.5013891

bias f4 [2]
000000 0b f0 ef be 47 c6 04 bf
       -0.46862826 -0.5186505

weight_ih_l0 f4 [40, 2]
000000 97 28 19 3f 1e 8d 29 bf 73 45 40 c0 d1 83 98 3f
       0.5982756 -0.6623095 -3.0042388 1.1915227
000010 89 41 a9 bf 60 81 73 be bc d9 98 3d 74 3b 76 bf
       -1.3223125 -0.23779821 0.074634045 -0.9618447
000020 ce 59 83 3c 65 35 81 3f d8 bf 8f 3e bb 86 98 3f
       0.016034033 1.009442 0.28076053 1.1916116
000030 d6 86 bf bf 15 4c 44 3d 5b b9 62 c0 42 7a f5 3d
       -1.4963024 0.04792412 -3.5425632 0.119862095
000040 e9 1b cf bf 88 8f 16 bf 12 fa 50 3f 42 fe 34 bf
       -1.6180393 -0.5881276 0.81631577 -0.70700467
000050 b5 05 30 bd ff 02 43 bd 8d c3 df bc 05 ee 92 3e
       -0.042974193 -0.04761028 -0.027314926 0.2869722
000060 bc ab 06 be 8e 33 b6 3d bd 20 39 3c 2c 91 4a be
       -0.13151449 0.08896552 0.011299309 -0.19781941
000070 b9 1a 72 3e 8a ed 55 3e da 55 8a 3e b4 1f 9e be
       0.23643006 0.20891395 0.27018625 -0.30883563
000080 3d 9f 96 be 72 6a 6c 3e 59 3e 16 be 6c 5a ee 3d
       -0.29418364 0.2308748 -0.14672221 0.1163834
000090 43 0a 25 3e 99 fa 2c 3d 3a d7 9b be 56 3f 92 3e
       0.16117196 0.042231176 -0.30437642 0.28563946
0000a0 8e a4 b6 3f f3 e2 d6 bd 97 8e 90 be a1 c1 c1 bf
       1.4268968 -0.10492506 -0.28233787 -1.5137216
0000b0 57 28 46 c0 cb 27 db 3e df a1 27 be 1c 4a 8f bf
       -3.0962121 0.42803797 -0.16370343 -1.1194491
0000c0 4f dc 1a 3f 65 44 01 40 80 03 5a 3e 4f 37 fe bf
       0.60492414 2.0197995 0.21290398 -1.9860629
0000d0 72 4e a7 3f 7e f3 4a be 50 ed 19 3f e9 6c 65 be
       1.3070815 -0.19819447 0.60127735 -0.22404827
0000e0 4f 9e 6d bf e0 46 ea be 51 79 88 3e 57 12 c9 3f
       -0.92819685 -0.45757198 0.26655057 1.5708722
0000f0 e5 f4 75 3f cd 8c b1 be a2 f5 4b 3d f4 75 69 3f
       0.96076804 -0.34677735 0.0497948 0.9119561
000100 8c 39 cd bf 94 a1 3c be 1d 1b 87 be 05 2f 5f bf
       -1.6033187 -0.18421012 -0.26387873 -0.8718112
000110 24 9d da 3c 0b bb 67 3f 1c cb 4d bf 44 d9 82 3f
       0.026686259 0.9051978 -0.80388045 1.0222554
000120 51 f6 16 40 cb 05 11 be 72 65 15 c0 7b bb b4 bf
       2.358784 -0.14162366 -2.3343167 -1.4119714
000130 e6 5b d0 bf 80 ed 15 bf 50 b7 b4 bf d7 65 b5 bf
       -1.6278045 -0.5856552 -1.4118443 -1.4171704

weight_hh_l0 f4 [40, 10]
000000 2d 02 9a 3e 87 da 2d bd 57 f6 97 ba 1f 78 62 be
       0.30079785 -0.042444732 -0.0011593801 -0.22116135
000010 52 93 9e be 29 bb 8f 3e 8b b5 5c 3e 77 71 07 3e
       -0.3097177 0.2807248 0.21553628 0.13226877
000020 e7 fc 8f be da 8b d1 3c 78 41 87 be 45 93 df 3d
       -0.28122637 0.025579382 -0.26417136 0.10916761
000030 bf 6f 71 bd d6 00 9f bb 59 20 b0 bd 92 57 62 3e
       -0.05894446 -0.0048523946 -0.0859992 0.22103718
000040 28 6a 3d 3e 9f 90 4c be 88 65 1b bd a3 f7 89 bd
       0.18497527 -0.19977044 -0.037938625 -0.06736686
000050 a5 f4 c8 3d e2 ed 14 3e 24 3a 8d be 5d 2f 66 3e
       0.09812287 0.1454387 -0.2758342 0.22479005
000060 db 64 97 3d ef 1b 6c bc 05 ad 8e 3e 6c 0a 1f 3e
       0.073922835 -0.014410957 0.27866378 0.1553132
000070 d4 b5 17 3c 39 fd 0b bd 9b 3c 8f be a7 00 cb 3d
       0.00925966 -0.03417704 -0.27975926 0.09912234
000080 28 a4 20 bd ec ca 96 3e b8 38 77 3e 33 bc 7c bd
       -0.03921905 0.29451692 0.2414273 -0.06170292
000090 f1 40 95 be ed 90 2d be 10 74 a2 3c 75 9e 4f be
       -0.2915111 -0.16949816 0.019830734 -0.2027529
0000a0 d7 92 4e 3e f2 c2 89 3e 61 69 15 3e c1 7c db bd
       0.20173202 0.26906544 0.1459098 -0.10717154
0000b0 67 f7 48 3e 40 e4 c3 3d 48 2d 26 3e 56 7c 2c 3e
       0.19625627 0.095650196 0.16228211 0.16844305
0000c0 d6 18 23 3e ca 06 26 be f6 50 57 be 87 a3 17 3e
       0.15927443 -0.16213527 -0.21026978 0.14808474
0000d0 ed 26 c3 b9 c6 94 93 3e 36 db 10 be a2 26 dd 3d
       -0.000372223 0.28824443 -0.14146122 0.10798384
0000e0 7e 8b 6f be da 20 a8 bd 76 f0 78 be d0 a8 a5 bd
       -0.23393056 -0.08209391 -0.24310479 -0.08088839
0000f0 2e fe 11 be 7c 74 42 3e 13 8c 72 3d 6c 2c 3b be
       -0.14257118 0.18989748 0.059215616 -0.18278664
000100 b2 59 1a 3e 14 47 91 be d8 5b 4b be 43 39 7c be
       0.15073279 -0.2837454 -0.19859254 -0.24631219
000110 41 a6 b7 3d 0e 17 73 bd 48 72 25 3b 15 14 72 3e
       0.08967257 -0.05934816 0.002524512 0.23640473
000120 18 c4 7d be 56 08 74 3e 8a 37 33 3e e2 d9 ae 3d
       -0.24781835 0.23831305 0.17501655 0.085376516
000130 e2 ba 28 be f9 2d 99 3e e5 97 cf bc 05 c0 a6 bd
       -0.1647754 0.29917887 -0.025340984 -0.081420936
000140 e3 d7 99 be 1c e4 d0 3d fd 2f 48 3d 0b 41 a7 bd
       -0.3004752 0.101997584 0.04887389 -0.08166703
000150 9f a8 20 3e 12 03 64 3e f3 77 a1 3e 84 05 8a 3e
       0.15689324 0.22266796 0.31536826 0.26957333
000160 d8 96 4a 3e 0a 3d fc 3d 4f 42 7e be 3e 24 a0 3c
       0.19784105 0.1231633 -0.24829982 0.019548532
000170 c9 f9 32 be b9 be 94 bc 5b 06 ed bd ae 69 8b 3e
       -0.17478098 -0.01815735 -0.11573478 0.27229065
000180 f6 eb 62 be 64 6a f8 bd 57 20 77 be a5 01 06 be
       -0.22160324 -0.121296674 -0.2413343 -0.13086565
000190 83 dc ab 3d c5 fc 5f 3e 24 7c 21 3d 52 8f 29 bd
       0.08391669 0.21873768 0.03942503 -0.041396447
0001a0 0f 24 02 bd 55 6b cd 3d 0b eb 92 3d fb 5e 35 3e
       -0.03177267 0.100302376 0.07173737 0.17712013
0001b0 8a 3d 55 be 4b 7d 83 be ca a3 94 3e e2 21 44 3e
       -0.20824257 -0.25681528 0.2903121 0.1915355
0001c0 6a f9 8c 3c 9d 9e 9c 3e a7 c6 9e 3c 79 a4 a0 3c
       0.017208774 0.30589762 0.019381834 0.019609677
0001d0 eb 5a 7d 3e 5e e2 69 3e 85 33 2b 3e f0 f5 e0 bd
       0.24741714 0.22840258 0.16718872 -0.10984409
0001e0 c3 f2 a7 3d eb 2d a1 3e e5 17 be 3d 52 58 00 3e
       0.082006 0.31480345 0.09281901 0.12533692
0001f0 6f 6d 46 be f6 db 55 bd 1d 9e 09 be 51 66 67 bd
       -0.19377683 -0.052211724 -0.13439222 -0.05649406
000200 d7 c8 9d bd 8a c5 f1 3d a1 cd 48 bd 23 c8 fc 3c
       -0.07704323 0.11805256 -0.049024228 0.030857151
000210 4a 3e 8a 3e f4 08 a4 bd 53 4e fb 3c 36 05 8e be
       0.27000648 -0.0800952 0.030676996 -0.2773835
000220 51 b8 28 be 2f 97 5c 3e 08 05 94 be fe 3d 40 3e
       -0.16476561 0.21542047 -0.2891009 0.18773648
000230 21 18 b7 bd 74 6e 99 3e 30 bb db bd 07 bc 75 be
       -0.08940149 0.29967082 -0.107290626 -0.23997508
000240 92 b1 f3 3c f4 20 7c 3e 4d cb 9a be 9e ff 3c 3e
       0.029747758 0.24621946 -0.3023323 0.18456885
000250 21 fd dc 3d e7 f7 84 be 49 28 df 3d 4f 2a 4a bc
       0.10790468 -0.25970384 0.10896356 -0.012339189
000260 81 d6 16 be 68 d9 0f be d8 a0 e5 bb 82 7d 72 3e
       -0.14730264 -0.14047778 -0.0070076995 0.2368069
000270 39 db 87 bd 5e 60 f4 3d 64 27 58 be 4b 44 b2 3d
       -0.0663361 0.11932443 -0.21108776 0.08704432
000280 4c 40 c2 3d 2b 17 e2 3b f8 84 ba bc ce 36 07 be
       0.0948492 0.0068997345 -0.022768483 -0.132045
000290 ea c4 e2 3d ba ad 6b be c6 2b 90 bd ca 34 eb 3d
       0.110727146 -0.2301549 -0.07039599 0.11484678
0002a0 97 1b 93 3e 6f 94 df 3d 6f 1c 35 3e 4f 4d 0e 3e
       0.28731987 0.10916983 0.17686628 0.13896678
0002b0 9a 28 84 3e 7c 01 1b bd b5 e4 ba 3c d6 c6 6e 3e
       0.25812227 -0.037843212 0.022814134 0.23318037
0002c0 97 31 f8 bd fb b9 84 be 4a b6 62 3e b8 aa 1d 3d
       -0.121188335 -0.25923142 0.2213985 0.03849289
0002d0 5c 9c 1b bd 97 18 2d 3e bf e2 09 3e 56 1c b3 bd
       -0.037990913 0.16903912 0.13465403 -0.08745639
0002e0 dd 1d 29 3e a4 cf 93 be e5 a3 d6 3c 35 81 a9 bd
       0.16515298 -0.28869355 0.026201198 -0.082765974
0002f0 26 29 0c 3e bb 4a 33 3e e9 1a 43 be b2 04 4b be
       0.13687572 0.17508976 -0.19053234 -0.1982601
000300 d9 c7 cd bd 0e b1 88 be 3b 7c 58 3e 2f a6 ff bb
       -0.100478835 -0.26697582 0.2114114 -0.007801793
000310 0f f9 78 3e a7 70 74 3e a9 4e 37 3e e8 40 fb 3d
       0.24313758 0.23871098 0.179011 0.12268239
000320 31 36 9a 3e b4 e7 80 be f2 a2 af 3d 3d 66 96 3e
       0.3011947 -0.25176775 0.08576001 0.29374877
000330 08 95 56 3e 00 ef 99 bd 3c 61 72 3e 3d 63 45 3e
       0.20955288 -0.07516289 0.23669904 0.19276138
000340 c0 1d 25 be 67 8d 94 3e 17 1a eb bd e4 a1 f5 bd
       -0.1612463 0.2901413 -0.114795856 -0.11993769
000350 81 48 a9 3d 11 1f 8e 3e dc 9c 96 3c 3b ba 43 3e
       0.08265782 0.27758077 0.018385343 0.1911401
000360 0e 22 9c 3e 05 37 64 be 48 6d 0b 3e bd 90 55 be
       0.30494732 -0.22286613 0.13615906 -0.20855995
000370 fd dc 93 be 4d 4d 87 be fa d3 b2 bc bd 9d ce 3d
       -0.28879538 -0.26426163 -0.021829594 0.1008868
000380 6d 3b 8d 3d 8c 11 5a bd 24 88 3f 3e c6 b0 06 3e
       0.068961 -0.05323939 0.18704277 0.13153371
000390 8a 46 eb 3d 15 fb 42 be a8 9a d8 bd 6a d3 99 3e
       0.11488064 -0.19041093 -0.10576373 0.3004411
0003a0 01 83 79 3d c0 15 19 3d 79 4d 80 3d 1b 3f 41 bd
       0.06091595 0.037374258 0.06264777 -0.047179323
0003b0 69 35 1a be c1 a0 c0 3d f4 16 74 3e 65 27 8b 3d
       -0.15059437 0.094056614 0.23836881 0.06794623
0003c0 b8 b3 8e be b7 6e 8d be c5 c4 84 3e 8b 54 93 3e
       -0.2787149 -0.2762353 0.25931373 0.2877544
0003d0 71 10 6c be 7e dd 95 3e 5e 02 74 39 85 7d 27 be
       -0.23053147 0.29270548 0.00023270535 -0.16356476
0003e0 12 6e 30 3e 1e 83 90 be f2 d5 02 3e 7e 66 94 be
       0.17229488 -0.28225034 0.12776926 -0.28984445
0003f0 31 ec 9c 3d 71 cf 00 bd fc dd 23 3e 63 fb 88 3e
       0.076622374 -0.03144783 0.16002649 0.26754293

bias_ih_l0 f4 [40]
000000 8a a0 01 40 33 2b 17 3f d4 e4 8b 3f 3a 35 d3 3f
       2.0254235 0.5905029 1.0929208 1.6500618
000010 82 14 56 40 f7 e9 06 40 64 c2 0c 40 e0 ef 8b 3f
       3.3450017 2.10803 2.1993647 1.0932579
000020 27 5c b6 bf 20 0a fc 3f 3d 73 9e 3e 67 c0 47 3d
       -1.4246873 1.969059 0.30947295 0.048767474
000030 9b 57 95 3e 47 72 29 be 14 25 41 3e 98 4d 53 3e
       0.291684 -0.165475 0.188618 0.20635068
000040 ea 24 5f 3e e2 63 7c 3e c7 19 10 be c0 a7 92 be
       0.21791425 0.24647477 -0.14072333 -0.28643608
000050 eb 19 93 bf 35 9a a3 3f 22 99 91 bf 2e 4b e0 bf
       -1.1492285 1.2781435 -1.1374857 -1.7522943
000060 f2 48 5e bf c1 00 a0 3f 86 b4 ae be 29 64 de 3e
       -0.86830056 1.250023 -0.34122103 0.4343579
000070 cd 24 08 bf d0 05 55 3f 1e b0 f9 3e af f3 68 3f
       -0.53181154 0.83211994 0.4876718 0.9099683
000080 69 b6 98 3f 77 29 70 3f f7 2d 4a 40 87 d8 01 40
       1.1930667 0.9381327 3.1590555 2.0288408
000090 a3 69 e8 3f 6a c9 29 bd bb b3 39 bf 63 16 27 40
       1.8157238 -0.04145185 -0.7253987 2.6107414

bias_hh_l0 f4 [40]
000000 cf ed bb 3f 18 62 f7 3e 74 df 8e 3f e6 d0 a6 3f
       1.4681948 0.48317027 1.1161942 1.3032501
000010 9c a3 36 40 3b e1 17 40 60 35 11 40 be 09 4e 3f
       2.853736 2.373122 2.2688828 0.80483615
000020 39 cc 87 bf a8 52 03 40 49 90 82 3d ac 6f cf bd
       -1.0609199 2.05192 0.063751765 -0.101287216
000030 2f bd 39 be a9 35 8c be 9b be e1 bd 50 dd ed bd
       -0.18138574 -0.2738469 -0.11022683 -0.11614478
000040 62 5e 8c 3d 63 40 1d 3e 23 b0 14 3e 30 ef 0e 3d
       0.068539396 0.15356593 0.14520316 0.034896076
000050 9b b3 a7 bf 3d 4f b1 3f b5 1e 6d bf 1a c3 f7 bf
       -1.3101686 1.3852307 -0.9262498 -1.9356415
000060 c0 bb 04 bf eb 19 93 3f 64 a2 7b be a7 31 2d 3e
       -0.51848984 1.1492285 -0.24573666 0.16913472
000070 4f 41 ee be 42 60 21 3f ef e4 3b 3f 3e 98 89 3f
       -0.46534202 0.630375 0.733962 1.0749586
000080 30 44 40 3f 86 d8 92 3f df 14 53 40 e1 4c 0d 40
       0.75104046 1.1472328 3.2981489 2.2078173
000090 0f 50 d1 3f 5f 72 a9 3e fd 40 96 bf 17 c1 11 40
       1.6352557 0.3309507 -1.1738583 2.2774103
