VAE/AE4/model.pth (torch, 49386 bytes, 20 tensors)

weight_ih_l0 f4 [80, 41]
0	0x4072b600	3.7923584
1	0xc033d63e	-2.8099513
2	0x3feff2b4	1.8745942
3	0xbf8193fc	-1.0123286
4	0xc06922be	-3.6427455
5	0x40873a48	4.2258644
6	0xbfc58b92	-1.5433218
7	0xbe4463ff	-0.1917877
8	0xbd98d243	-0.07461979
9	0xbf9f3b7b	-1.2440027
10	0xbf64f585	-0.89437133
11	0xc0475242	-3.1143956
12	0xc01d37a8	-2.456522
13	0xbf4efc6d	-0.8085392
14	0xbe6243b4	-0.22096139
15	0xc07bce4d	-3.9344666
16	0x402cead0	2.7018318
17	0x3f350e7a	0.70725214
18	0x3f56acd1	0.83857447
19	0xbe1c9449	-0.15290941
20	0xbd2be30d	-0.04196458
21	0xc013038a	-2.297091
22	0x3eceb8de	0.40375417
23	0xbf8ea601	-1.114441
24	0xbf358b82	-0.70916
25	0xbf530daa	-0.82442725
26	0x3e60cdff	0.21953581
27	0xbf24e8fc	-0.64418006
28	0xbf80997b	-1.0046839
29	0x3ffe882e	1.9885309
30	0xbf8c9444	-1.0982747
31	0x3fb2ce6b	1.3969244
32	0xbfde8656	-1.7384746
33	0xbfbeb1d4	-1.4898019
34	0x3f615865	0.88025504
35	0x3f654812	0.89563096
36	0x3e2555b7	0.16145979
37	0x40903dc5	4.50754
38	0x40620457	3.531515
39	0xbe1b4042	-0.15161231
40	0x409cf041	4.904328
41	0x3f98be37	1.1933049
42	0xbffa663b	-1.9562448
43	0x3f974f6c	1.1821113
44	0xbf908164	-1.1289487
45	0xc057f333	-3.3742187
46	0x3fb94dad	1.447683
47	0xbe95b885	-0.2924234
48	0xbcc72c80	-0.024313211
49	0x3ed81b6d	0.42208424
50	0xbfc896de	-1.5671041
51	0xbf70ee79	-0.9411388
52	0xbfd037b2	-1.6266997
53	0x3e841aef	0.258018
54	0xbf04382d	-0.5164822
55	0xbfc4b0e0	-1.5366478
56	0x3fb6e893	1.4289726
57	0x3f365da7	0.7123665
58	0xbffe045d	-1.9845082
59	0x3f91589d	1.1355168
60	0x3e49c771	0.19704987
61	0xbe45d289	-0.19318594
62	0xc03e5f10	-2.9745522
63	0xc09d9bca	-4.925267
64	0xbf942386	-1.1573341
65	0x3eeec907	0.46637747
66	0xbe1f1096	-0.15533671
67	0x3e8fa9bf	0.28059193
68	0x3f87ed7b	1.0619348
69	0x3eb41ef5	0.35179868
70	0xbf5907e2	-0.84777653
71	0x40521ff3	3.2832
72	0x4010c201	2.261841
73	0x3fe1d122	1.7641947
74	0x400d5e90	2.2088966
75	0x3f60e100	0.8784332
76	0x4085fad9	4.186871
77	0xbfafa727	-1.3722886
78	0xbf7f007e	-0.99610126
79	0x3ffded8d	1.983812
80	0x3f14712c	0.57985187
81	0x3f28d387	0.65947765
82	0x4081c0cd	4.0547853
83	0xbfef2ef8	-1.8686209
84	0xbfe1ab34	-1.7630372
85	0x3f766a0d	0.9625557
86	0xbe880aa4	-0.26570618
87	0xc047bc2c	-3.12086
88	0xbddf3bd6	-0.10900085
89	0xbe62f9dc	-0.22165626
90	0x3ce61b99	0.028089331
91	0x3eab9616	0.33512944
92	0xbf361e74	-0.7114022
93	0x400140c7	2.0195787
94	0x40802e4a	4.0056505
95	0xc01399fd	-2.3062737
96	0xbfa3bdb7	-1.2792271
97	0x3f3e759d	0.74398214
98	0xbf890670	-1.070509
99	0x3ef51034	0.47863925
100	0xbf021d71	-0.50826174
101	0xbd924934	-0.07142869
102	0xbe03e71a	-0.12881127
103	0xbfd72401	-1.6807863
104	0x3ffc4532	1.9708617
105	0x3f6aedb0	0.9176893
106	0xc02a527f	-2.6612852
107	0xc05db9f7	-3.4644754
108	0x3e8b2952	0.27179962
109	0x3d7f416d	0.062318254
110	0x3f28e376	0.6597208
111	0x3feaa9d5	1.8333079
112	0x4009d134	2.1533937
113	0xc02c9631	-2.696667
114	0x3ee4b4a0	0.44669056
115	0x3f830d3a	1.0238411
116	0x3fc3e1a8	1.530324
117	0xbfada7d4	-1.3566842
118	0xc01d71c4	-2.4600687
119	0xbdf9208f	-0.12164413
120	0xbfb1f4fd	-1.390289
121	0xc066cdfd	-3.6063225
122	0xc04d51de	-3.2081218
123	0xbfe48429	-1.7852832
124	0xbf898cb3	-1.0746063
125	0xc083386a	-4.1006365
126	0xbe8e7fc9	-0.27831867
127	0xc11b86c4	-9.720402
128	0x40150622	2.3284993
129	0x3ef5b3c8	0.47988725
130	0x3dd7f13f	0.10544061
131	0x3ea4410c	0.32080877
132	0x3eb189cc	0.34675443
133	0xbf9666e3	-1.1750149
134	0x3fe5b388	1.7945414
135	0xbe1e9b71	-0.15488984
136	0x3d632856	0.05545839
137	0xbf422c9f	-0.75849336
138	0x3f9fb7d0	1.247797
139	0xbe975687	-0.29558203
140	0x3ea63cc4	0.32468235
141	0xbfce21b5	-1.6104037
142	0x3cf55ca8	0.029951409
143	0x3e029dfc	0.12755579
144	0x3f286904	0.6578524
145	0xbf4fe1f5	-0.8120416
146	0xc07ceacf	-3.9518316
147	0xbfb1a041	-1.3877031
148	0xbea0f2d2	-0.31435257
149	0x3f5314ed	0.82453805
150	0x3fa119fc	1.2586055
151	0x3f63f9ec	0.89053226
152	0xbf42065c	-0.75790954
153	0x40110369	2.2658331
154	0x3fe31d9f	1.7743415
155	0xbee13b77	-0.4399068
156	0xc00c2f3a	-2.1903825
157	0x4080ac29	4.0210156
158	0x4079c78d	3.9028046
159	0x3ef62fb7	0.4808328
160	0xbf976779	-1.1828452
161	0xc01ea8b4	-2.4790468
162	0xbe8047ac	-0.2505468
163	0x3edc0d14	0.42978728
164	0xbeff82d1	-0.49904492
165	0x3f5bc8df	0.8585338
166	0xbfdb4dbe	-1.71331
167	0xbd288f85	-0.041152496
168	0xbff18dd1	-1.8871404
169	0xbf821886	-1.0163734
170	0x3f709b11	0.9398661
171	0x3dd2bfb5	0.102904715
172	0x3d950ee2	0.07278229
173	0xbeced5ee	-0.4039759
174	0x3fdd8335	1.7305666
175	0xbe29d87d	-0.1658649
176	0x3e907541	0.28214458
177	0x3c553352	0.013012724
178	0xbeebde22	-0.4606791
179	0x3e7aa3da	0.24476567
180	0x3e984fa4	0.2974826
181	0xbec99008	-0.393677
182	0xbecbdb15	-0.39815584
183	0x3d2632fb	0.040575963
184	0xbe32c9ec	-0.1745984
185	0x40184d80	2.3797302
186	0x401ac4dd	2.4182656
187	0xc0222d40	-2.5340118
188	0xbea58e86	-0.323353
189	0xbe8f5a97	-0.27998802
190	0x3f6f503f	0.9348182
191	0x3eb808e6	0.3594429
192	0xbdbcae12	-0.09212889
193	0x3eeba99a	0.46027833
194	0x3eb8965c	0.36052215
195	0xbf165630	-0.5872526
196	0xbf5eefa9	-0.8708444
197	0x4014129b	2.3136356
198	0xbf0248ae	-0.5089215
199	0x3e6d829b	0.23194353
200	0x3ef8d8a9	0.486028
201	0x40848e04	4.142336
202	0xbf649154	-0.89284253
203	0xbd821182	-0.063509956
204	0x3d56d092	0.052445002
205	0xbfb1168c	-1.3835006
206	0xbd36329f	-0.04448187
207	0x3cdeea9f	0.027211485
208	0xbe4d6440	-0.20057774
209	0xbf17f8f2	-0.59364235
210	0x3ff7f676	1.9372089
211	0xbf861f70	-1.0478344
212	0x3d9f00da	0.07763834
213	0xbe9cbeb2	-0.3061424
214	0xc0393e25	-2.894418
215	0xbf8128af	-1.0090541
216	0x3facdfbc	1.3505778
217	0x3f782026	0.96924055
218	0x3d07f183	0.033189308
219	0xbcbcd7a2	-0.02305204
220	0x3eb8298e	0.35969204
221	0xc0413328	-3.0187473
222	0x40375349	2.8644583
223	0xbdc67801	-0.09690858
224	0x3d08c36e	0.0333895
225	0x3e617eed	0.22021075
226	0xc0023657	-2.0345666
227	0x3ee3650a	0.44413024
228	0xc069c9ae	-3.6529346
229	0xbec87232	-0.39149624
230	0xbda99867	-0.082810216
231	0x4055707a	3.33499
232	0x3fcbbfa9	1.5917865
233	0xbf43782f	-0.7635526
234	0x3e940da8	0.2891667
235	0xc004fc73	-2.0779083
236	0x402d4b12	2.707707
237	0x3f8c0fb3	1.0942291
238	0x3f1d7ca3	0.61518306
239	0xbf19ec65	-0.60126334
240	0xbfd3db5c	-1.6551318
241	0xbb420954	-0.002960761
242	0xbfc30c6b	-1.5238165
243	0x3f26679b	0.6500184
244	0x3fd9a1c5	1.7002493
245	0x3ff01eb3	1.8759369
246	0xc070366d	-3.753322
247	0x3dbbb8bc	0.09166095
248	0x404f280a	3.2368188
249	0xbef82b7c	-0.48470676
250	0xbfe518f1	-1.7898237
251	0xc01d7f48	-2.4608936
252	0x3ec8f109	0.39246395
253	0x3e606697	0.21914135
254	0x3e1f3eb2	0.1555126
255	0x40a4cd1d	5.1500382

weight_hh_l0 f4 [80, 20]
0	0x3c862617	0.016375585
1	0x3da727df	0.08161902
2	0x3dbc880f	0.092056386
3	0xbcc5446c	-0.024080478
4	0xbe377762	-0.17916635
5	0x3e524171	0.20532776
6	0xbe2e9751	-0.1704991
7	0xbde2318d	-0.11044607
8	0xbe0fdc2a	-0.1404883
9	0xbcc7825d	-0.024354154
10	0x3e350603	0.17678075
11	0xbe637e66	-0.22216186
12	0x3c2c7fa9	0.010528483
13	0xbe24d725	-0.16097696
14	0x3e1bbfa6	0.15209827
15	0xbe4336ec	-0.1906392
16	0x3e39264d	0.18081017
17	0xbe164342	-0.14674094
18	0xbe2c3ba6	-0.16819629
19	0x3e1290c6	0.14313039
20	0xbe55e332	-0.2088745
21	0xbc92997e	-0.017895456
22	0xbc97bd07	-0.018522752
23	0xbe5128b7	-0.20425688
24	0x3e3844df	0.17995022
25	0xbc93d2c4	-0.018044837
26	0x3d89e1c2	0.06732513
27	0x3e2b0620	0.16701555
28	0xbe0510e9	-0.12994732
29	0x3e4ac028	0.19799864
30	0x3d9fea28	0.07808334
31	0x3dc958e3	0.09831407
32	0x3e138ca3	0.14409117
33	0x3e2d2f83	0.16912656
34	0x3e21bd23	0.15794806
35	0x3d54f83a	0.05199454
36	0xbe1cc04f	-0.15307735
37	0xbe5c8a97	-0.21537243
38	0xbc340579	-0.010987633
39	0x3dbe9d60	0.09307361
40	0x3d984cc0	0.07436514
41	0x3dd80265	0.10547332
42	0x3e2f5bcc	0.17124861
43	0x3e45e381	0.19325067
44	0x3ddb2533	0.107004546
45	0x3d589f93	0.052886557
46	0xbb291962	-0.0025802483
47	0x3d1e3191	0.03862149
48	0x3dd4b1e7	0.10385495
49	0xbc019247	-0.00790841
50	0x3cbf421e	0.023346957
51	0x3e247533	0.16060333
52	0xbe362c22	-0.17790273
53	0xbd374ae1	-0.044749144
54	0xbcf6b1fe	-0.03011417
55	0xbe038e40	-0.12847233
56	0xbe0ed428	-0.13948119
57	0x3d64749c	0.05577527
58	0x3d8bfe69	0.06835634
59	0x3e2e3d61	0.17015602
60	0xbe55f099	-0.20892562
61	0x3de6944f	0.11258756
62	0x3c1f9484	0.009739999
63	0x3e1f1b5b	0.15537779
64	0xbd9a349b	-0.07529565
65	0xbe3e98a0	-0.1861291
66	0xbda06c53	-0.07833161
67	0x3df4c52a	0.119516686
68	0x3da7f52f	0.08201062
69	0x3d0b0534	0.03394051
70	0x3b800f37	0.0039080638
71	0xbd6dca53	-0.05805428
72	0x3e3863d9	0.18006839
73	0x3e363085	0.17791946
74	0x3c41a7f9	0.011819833
75	0xbe1cad39	-0.15300454
76	0xbdf6f38d	-0.120581724
77	0x3e648634	0.2231682
78	0x3cd79ad2	0.026318941
79	0xbca224a2	-0.019792859
80	0x3e039544	0.12849909
81	0xbe173ad7	-0.1476854
82	0xbdcebc80	-0.10094547
83	0xbdf7fa72	-0.121083155
84	0x3c8f716f	0.017510144
85	0x3e31dd41	0.17369558
86	0xbe0768fc	-0.13223642
87	0x3e15d568	0.1463219
88	0xbd2db004	-0.04240419
89	0x3dc6aca0	0.09700894
90	0xbd04f77f	-0.032462593
91	0xbd929a23	-0.071583055
92	0x3e30a516	0.17250475
93	0x3d9b82a2	0.075932756
94	0x3d86a458	0.06574315
95	0xbbd67e01	-0.0065457826
96	0xbdfe581e	-0.12419151
97	0xbdc418ad	-0.09575019
98	0x3d78f624	0.060781613
99	0x3cb6013a	0.022217382
100	0x3dd611d9	0.10452623
101	0x3b82c3f3	0.003990644
102	0x3cdbea36	0.026845079
103	0xbb92d972	-0.004481488
104	0x3d70197c	0.058618054
105	0xbde10c75	-0.10988704
106	0x3cbb490b	0.022861978
107	0x3e0fff91	0.14062335
108	0xbe448a58	-0.19193399
109	0xbe2dc9b6	-0.16971478
110	0xbe06ec13	-0.13175993
111	0x3db4334c	0.087988466
112	0xbdc29046	-0.09500174
113	0x3c7e7a80	0.015532136
114	0xbe59a49f	-0.21254204
115	0xbd842587	-0.0645247
116	0x3da2cab7	0.07948821
117	0xbdc205f2	-0.0947379
118	0x3e5e640b	0.21717851
119	0x3e411296	0.18854746
120	0xbe034979	-0.12820996
121	0xbe08a273	-0.1334322
122	0xbe5e958b	-0.21736734
123	0xbe2fd2d0	-0.17170262
124	0xbc1c8e80	-0.009555459
125	0x3d79b757	0.060965862
126	0xbd4a9efe	-0.049468033
127	0x3e58736a	0.21137777
128	0xbe2b057c	-0.16701311
129	0x3e216175	0.15759833
130	0x3e41699a	0.1888794
131	0xbe4bf1d1	-0.19916464
132	0x3cd4748d	0.025934482
133	0xbe16acc1	-0.14714338
134	0x3d348aa1	0.04407752
135	0xbe5e1f11	-0.21691538
136	0x3e477318	0.19477499
137	0x3e364c80	0.1780262
138	0xbe13a8b9	-0.14419831
139	0x3e3d6315	0.18494828
140	0xbe45bf3b	-0.1931123
141	0x3d29d678	0.0414643
142	0xbe02397d	-0.12717243
143	0x3d4b840c	0.049686477
144	0x3e118000	0.14208984
145	0x3db457f1	0.08805836
146	0xbe17c696	-0.14821848
147	0xbe30d9e6	-0.17270622
148	0xbe2cfbba	-0.16892901
149	0x3d8ba755	0.068190254
150	0xbd45000e	-0.048095755
151	0x3e4fe6ce	0.20302889
152	0x3b81390f	0.0039435695
153	0x3d16a70f	0.036780413
154	0x3db9f750	0.09080374
155	0x3ddef29d	0.108861186
156	0xbd89bb21	-0.06725145
157	0xbe365976	-0.17807564
158	0x3cfba591	0.030718597
159	0xbd570fcb	-0.052505296
160	0x3de66788	0.11250216
161	0xbe34eff9	-0.17669667
162	0x3addeb55	0.0016931096
163	0xbe17691d	-0.14786191
164	0x3dec71df	0.11545157
165	0x3e02a6d7	0.12758957
166	0xbe5340a5	-0.20630129
167	0x3d63754e	0.055531792
168	0xbcb1232e	-0.02162322
169	0x3e495fb7	0.19665419
170	0x3e1936dc	0.14962333
171	0xbdcdfc2f	-0.10057866
172	0xbe56e0ca	-0.20984188
173	0xbdd02dd8	-0.10164994
174	0x3e2b70eb	0.16742294
175	0x3b462285	0.0030232978
176	0xbc3c4d0b	-0.011492978
177	0xbda2d7be	-0.07951306
178	0x3c96c195	0.018402854
179	0x3dc1a511	0.09455312
180	0xbd21f19f	-0.03953707
181	0x3e5904d2	0.21193245
182	0xbe1f44f0	-0.15553641
183	0x3d277634	0.04088421
184	0xbe4f9090	-0.2026999
185	0xbdecc245	-0.115604915
186	0xbe569743	-0.2095614
187	0x3d30e781	0.04318953
188	0x3cf06d39	0.029348956
189	0x3da04f5e	0.07827638
190	0x3c8ccdeb	0.017188033
191	0x3d29f2f3	0.04149146
192	0xbd0bf138	-0.03416559
193	0x3e4e3c38	0.20140159
194	0xbe335d42	-0.17516044
195	0x3d67b083	0.05656482
196	0x3b1a1f6b	0.0023517262
197	0xbca0ac06	-0.019613277
198	0x3e226f80	0.15862846
199	0x3e16ba8a	0.14719597
200	0xbcdce60c	-0.026965164
201	0xbe2d6cdd	-0.1693606
202	0x3df2f556	0.118632
203	0x3c08a69d	0.008340505
204	0x3ca7034c	0.020387314
205	0x3e3dfbfd	0.18553157
206	0x3e4b2af3	0.19840603
207	0xbe3b7504	-0.18306357
208	0x3e2e0b5a	0.16996518
209	0xbc8243b6	-0.015901428
210	0xbdefc585	-0.11707596
211	0x3e52554e	0.20540354
212	0x3d662a27	0.056192543
213	0x3d03b27b	0.032152634
214	0xbe4fd157	-0.202947
215	0xbd16d52d	-0.036824394
216	0x3e04a447	0.12953292
217	0x3e22a8f5	0.15884764
218	0xbe6225c3	-0.22084717
219	0xbd8df0ea	-0.06930716
220	0x3e549b2a	0.20762315
221	0xbb49f827	-0.0030818076
222	0xbc85e5a3	-0.01634485
223	0xbd93207b	-0.071839295
224	0x3c1879cf	0.009306385
225	0xbe410b9c	-0.18852085
226	0x3df38e5a	0.11892386
227	0xbd104399	-0.035220716
228	0xbe319067	-0.17340241
229	0xbd642a91	-0.055704657
230	0xbe2c9d8d	-0.16856976
231	0x3b3a5da4	0.0028437162
232	0x3e3f45ea	0.18679014
233	0x3d69ff0f	0.05712801
234	0xbe10c67c	-0.14138216
235	0x3e593c23	0.21214347
236	0x3b90b4b7	0.004416074
237	0x3c5c5bf8	0.013449661
238	0xbe60926f	-0.2193086
239	0x3dd20599	0.10254974
240	0x3dbd9133	0.0925621
241	0xbd9dde91	-0.07708467
242	0xbe5650c4	-0.20929247
243	0xbdd121de	-0.10211538
244	0xbe4d274e	-0.20034525
245	0xbe5fef41	-0.21868612
246	0xbdbe7c1d	-0.093010165
247	0x3e21b2d6	0.15790877
248	0x3e2376ca	0.15963283
249	0xbdf366fb	-0.11884876
250	0xbd38e830	-0.045143306
251	0x3e10b082	0.14129832
252	0xbe281dbd	-0.16417594
253	0xbde9b1ea	-0.114108875
254	0xbe36cd21	-0.17851688
255	0xbe27c78a	-0.16384712

bias_ih_l0 f4 [80]
0	0x3fad265b	1.352733
1	0xbe9d10d2	-0.30676895
2	0x3fab4b75	1.3382403
3	0x3f656641	0.8960915
4	0xbf156330	-0.58354473
5	0xbea4c70b	-0.32183108
6	0xbed5e4cc	-0.4177612
7	0xbe0cd535	-0.13753207
8	0xbf3b8ff5	-0.73266536
9	0x3bd8e58d	0.0066191615
10	0x3ee46fd3	0.44616565
11	0xbf9b07f9	-1.2111808
12	0xbf1169a3	-0.56801814
13	0xbf128080	-0.57227325
14	0xbdf7b426	-0.120949075
15	0xbf0719a9	-0.5277353
16	0x3e603adc	0.21897453
17	0xbefe4061	-0.49658492
18	0xbf0fa9c8	-0.5611844
19	0xbcd319d1	-0.025769146
20	0xbd3958c6	-0.045250677
21	0xbe51b659	-0.20479716
22	0xbd3ea400	-0.04654312
23	0xbe50be70	-0.20385146
24	0xbe1aa814	-0.15103179
25	0xbd25b472	-0.04045529
26	0xbe5fa614	-0.21840698
27	0x3e0a2c08	0.13493359
28	0xbcabc28b	-0.020966789
29	0xbb3e54d1	-0.0029042254
30	0x3e32a589	0.17445959
31	0xbd851559	-0.06498212
32	0xbd3e61f4	-0.046480134
33	0xbe541c75	-0.2071398
34	0x3cc016f0	0.023448437
35	0xbd8922f7	-0.06696122
36	0xbe3f38dc	-0.18674034
37	0x3d050cae	0.032482795
38	0xbdee86a4	-0.116467744
39	0x3e526300	0.20545578
40	0xbe78320f	-0.24237846
41	0x3fe904c7	1.8204583
42	0x3f689517	0.90852493
43	0xbf8866ca	-1.0656369
44	0x3fcbde12	1.5927145
45	0x3e81506d	0.25256673
46	0xbeecee57	-0.4627559
47	0xbfc9b31f	-1.5757788
48	0x3f1614a3	0.5862524
49	0x3dc81226	0.097690865
50	0x3fe0d04a	1.7563565
51	0x3fdd6327	1.7295884
52	0xbe2b02bc	-0.16700262
53	0x3e959144	0.2921239
54	0xbf0b3053	-0.5437061
55	0x3f231516	0.6370405
56	0x3f8f9817	1.1218289
57	0x3f8cfaca	1.1014035
58	0xbe1cb5c6	-0.15303716
59	0xbfa5cb9c	-1.2952762
60	0xbdcc4547	-0.09974151
61	0x3e2af637	0.16695486
62	0xbed5b70d	-0.4174122
63	0xbdf24b91	-0.118308194
64	0x3e51d1bb	0.20490162
65	0x401a5534	2.4114504
66	0xbf4d1409	-0.80108696
67	0xbd44f404	-0.048084274
68	0xbfdcb57e	-1.7242887
69	0x3fbfa9f2	1.4973738
70	0x3f4bdc2e	0.7963284
71	0xbc3e62fc	-0.011620279
72	0x3f170db6	0.59005296
73	0x3e2d6bea	0.16935697
74	0xbe7d2c92	-0.24724033
75	0x3d41bf67	0.047301676
76	0xbf0b8726	-0.54503095
77	0xbecd247a	-0.40066892
78	0x3d4e517d	0.050370682
79	0xbfa65fd7	-1.2997998

bias_hh_l0 f4 [80]
0	0x3f955265	1.166577
1	0xbf1b5224	-0.6067221
2	0x3fb3dfcb	1.4052671
3	0x3f582bb1	0.8444167
4	0xbf2b1756	-0.6683248
5	0xbd156a95	-0.036478598
6	0xbeec407d	-0.4614295
7	0x3aecf1fc	0.0018077488
8	0xbf25cfe5	-0.64770347
9	0x3e2a6c50	0.1664288
10	0x3ec834b3	0.39102706
11	0xbfae4bad	-1.3616844
12	0xbf13b89b	-0.5770356
13	0xbf29b438	-0.66290617
14	0xbe34d3c2	-0.17658904
15	0xbf2027c0	-0.62560654
16	0x3eb55ed4	0.3542391
17	0xbe275582	-0.16341212
18	0xbf4263b0	-0.7593336
19	0x3db77dac	0.08959517
20	0xbd899fcf	-0.06719934
21	0xbe22ccd9	-0.15898456
22	0x3d724ee7	0.05915728
23	0xbd0753ef	-0.03303903
24	0x3da4a280	0.08038807
25	0xbcf4e92a	-0.029896338
26	0xb980f385	-0.000245955
27	0x3e34304f	0.17596553
28	0x3e508497	0.20363079
29	0x3c922123	0.017838066
30	0x3e45034d	0.1923954
31	0xbd383852	-0.044975586
32	0xbe1bfdbc	-0.1523351
33	0xbd98a51b	-0.07453366
34	0xbe46d7db	-0.1941828
35	0xbe357fc1	-0.17724515
36	0x3e13b5e8	0.1442486
37	0x3dee30c3	0.11630394
38	0x3e130179	0.1435603
39	0x3e07d3cb	0.13264386
40	0x3d8c4591	0.06849206
41	0x3fbaca47	1.459298
42	0x3f7f172e	0.99644744
43	0xbf7a940a	-0.9788214
44	0x3fbdcc64	1.4828
45	0xbdb9b957	-0.09068554
46	0xbf0088ca	-0.50208724
47	0xbfc86d0b	-1.5658277
48	0x3f2780c5	0.6543086
49	0x3ebaf952	0.3651834
50	0x3fd86132	1.6904662
51	0x3fccdb1d	1.6004368
52	0xbdad1939	-0.084520765
53	0x3e8400ee	0.2578196
54	0xbf5ab381	-0.8543015
55	0x3eb19044	0.34680378
56	0x3fa62c4d	1.298227
57	0x3f9df2b6	1.2339694
58	0xbe0fed44	-0.14055353
59	0xbfc476b4	-1.5348725
60	0x3e215cfb	0.15758125
61	0x3e77b2c7	0.24189292
62	0xbf033141	-0.5124703
63	0xbce95687	-0.028483642
64	0x3da3d6d0	0.079999566
65	0x4001c574	2.0276766
66	0xbf87a72d	-1.0597893
67	0xbe04c1ac	-0.12964505
68	0xbfe974aa	-1.8238728
69	0x3f99375c	1.1970019
70	0x3f455f3a	0.7709843
71	0x3d46ed52	0.04856617
72	0x3f1a0dec	0.60177493
73	0x3ec8992d	0.39179364
74	0xbea6c178	-0.3256948
75	0x3e74730c	0.23872012
76	0xbebf10b7	-0.3731744
77	0xbe9be156	-0.30445355
78	0xbdd073ad	-0.101783134
79	0xbf9b3d21	-1.212803

weight_ih_l0 f4 [40, 20]
0	0x40320b12	2.7819257
1	0x3f4b8787	0.79503673
2	0x40716a1b	3.7721012
3	0x403dccf5	2.9656346
4	0x3f86da71	1.0535413
5	0xc04218bc	-3.0327597
6	0xc0422807	-3.033693
7	0x40365fd5	2.8495991
8	0xbfcd44bb	-1.60366
9	0x3f910a37	1.1331242
10	0x3f1ea96e	0.6197728
11	0x3d1badb8	0.038007468
12	0xbefec007	-0.4975588
13	0x3fff31ac	1.9937034
14	0x3ecfd13a	0.40589315
15	0xbff97718	-1.948947
16	0x3feb3658	1.8375959
17	0xc040ad83	-3.0105903
18	0xc0608773	-3.5082672
19	0x404c4525	3.1917202
20	0x40966458	4.699749
21	0x3fe85dc5	1.8153616
22	0x402673f3	2.600827
23	0x3fc8e2b4	1.5694184
24	0xbfe6fa05	-1.804505
25	0x3f97b81d	1.1853062
26	0x3fbb2a60	1.4622307
27	0x3fbf2edc	1.4936175
28	0xbf847e1c	-1.0350986
29	0x3f1bc48f	0.608468
30	0x3ff3ee7e	1.9057157
31	0x3f8f4e37	1.1195744
32	0xbe861b18	-0.26192546
33	0x3f6d7c73	0.9276802
34	0x3ea48c6a	0.32138377
35	0xc0078df3	-2.118039
36	0xbfb587f9	-1.418212
37	0xc035e779	-2.842253
38	0xc019e44a	-2.4045587
39	0x3f2a621a	0.6655594
40	0x407d2377	3.9552896
41	0xc01e6b09	-2.475283
42	0x3d8ced62	0.06881215
43	0x400c72d1	2.1945078
44	0xc01f5521	-2.4895709
45	0xc01a5f47	-2.4120653
46	0x3fc7dec8	1.5614862
47	0xbc5e2172	-0.013557779
48	0xbf854786	-1.0412452
49	0xbe417465	-0.18892057
50	0xbf299d95	-0.66256076
51	0x3f19ce5d	0.6008051
52	0xbff1a495	-1.8878351
53	0xbe2a29bd	-0.16617484
54	0xbf1d3fbc	-0.61425376
55	0xbf5006c7	-0.8126034
56	0xbf8a882d	-1.0822808
57	0xc0a6306f	-5.1934123
58	0x3f169099	0.5881439
59	0xc09532a7	-4.662433
60	0x3fc38ec9	1.527795
61	0x3e283d10	0.16429543
62	0xc01f082c	-2.4848738
63	0x3fbe34aa	1.4859822
64	0xc001f3e6	-2.0305114
65	0x4011778e	2.272922
66	0xbea2fdff	-0.3183441
67	0x3fbe3806	1.4860847
68	0xc01b9184	-2.4307566
69	0xc0460d22	-3.0945516
70	0x3ee13b85	0.43990722
71	0x3f1f076f	0.6212072
72	0x3e774ad4	0.24149638
73	0x3fdfdd31	1.7489377
74	0x3fff359d	1.9938236
75	0xbe8b3665	-0.27189937
76	0xbf3c3f1b	-0.7353379
77	0xc00b7f7c	-2.179656
78	0xc02c6e29	-2.6942236
79	0x3eda8b68	0.42684484
80	0x3f5d8c8d	0.8654259
81	0x3f10ec05	0.5661014
82	0xc006ae6a	-2.1043954
83	0xbc8e8305	-0.01739646
84	0xbff81eaa	-1.9384358
85	0xbf818883	-1.0119785
86	0x3f952709	1.1652538
87	0x3f7e3896	0.99305093
88	0xbdb33597	-0.08750456
89	0xbfa3f61b	-1.280948
90	0xbf869d4b	-1.0516752
91	0x3da7bb89	0.08190066
92	0xc00ffecf	-2.2499273
93	0xbf05e423	-0.52301234
94	0x3e999cb3	0.30002365
95	0xbfefc62a	-1.873235
96	0xbeb87877	-0.36029407
97	0xbf88d349	-1.0689479
98	0x3f6df734	0.9295533
99	0xbf0a01b9	-0.5390888
100	0x3fd9e42d	1.7022759
101	0x3eed8687	0.463917
102	0xc00811e6	-2.1260924
103	0xbf3de7d6	-0.7418188
104	0xbf34fbe1	-0.70696837
105	0xc059bc10	-3.4021034
106	0xbf3ee65b	-0.74570245
107	0x40146b9a	2.3190675
108	0xbfbc9f18	-1.4736052
109	0x3f6e1b06	0.93009984
110	0xc02884f2	-2.6331143
111	0x3e082e18	0.13298833
112	0x3dd5bf77	0.1043691
113	0x3f328a29	0.69742066
114	0x40217942	2.523026
115	0x3e6fb7c3	0.23409943
116	0xbdf4dfe5	-0.11956767
117	0xc0a84963	-5.2589583
118	0x400bd1fe	2.184692
119	0x3fe7544f	1.8072604
120	0xbf0b8b41	-0.5450936
121	0x3febdd57	1.8426923
122	0xbff5304d	-1.9155365
123	0xbfd4e742	-1.6633074
124	0x3fcbcc07	1.5921639
125	0xc098f6a6	-4.7801085
126	0xc0348755	-2.82076
127	0x3ef9e958	0.4881084
128	0xbf941a5f	-1.1570548
129	0xbf533f3a	-0.8251835
130	0x3fb00c7a	1.3753808
131	0xbfc4e170	-1.5381298
132	0x406a9eb0	3.6659355
133	0xbf4ff30e	-0.8123025
134	0xbe45d1d9	-0.19318332
135	0xc0229918	-2.540594
136	0x3f6a6a63	0.91568583
137	0xc083f29f	-4.123367
138	0x3e81d3f6	0.25357026
139	0xbfa367d6	-1.2766063
140	0x3fd53e62	1.6659663
141	0x3f4c50f3	0.7981102
142	0x3fa1e00c	1.2646499
143	0xbf941391	-1.1568471
144	0xbf99abba	-1.2005532
145	0xbfc2d0c6	-1.5219963
146	0xbe984bbf	-0.2974529
147	0x400df992	2.2183576
148	0x3f999b88	1.2000589
149	0x401d73c8	2.4601917
150	0x3ef0c9d6	0.4702899
151	0xbfd68f16	-1.6762416
152	0xc09e3792	-4.9442835
153	0xc040df39	-3.0136244
154	0xbebf52dd	-0.37367907
155	0x40170e98	2.3602657
156	0xbee9fffc	-0.45703113
157	0xbe2e94fd	-0.17049022
158	0xc078a531	-3.8850825
159	0xbfc387ce	-1.5275819
160	0x3fb6105b	1.4223741
161	0x3f810f6e	1.0082834
162	0x3f13c11f	0.57716554
163	0x3f95a370	1.1690502
164	0x3efce0fb	0.49390396
165	0x3def36fb	0.116804086
166	0x3fd3a374	1.6534257
167	0x3fa19692	1.2624075
168	0xbefd0ca5	-0.4942371
169	0xbe1c02b7	-0.1523541
170	0x3f67c15b	0.9052941
171	0x4029ceab	2.653239
172	0x3e02b8eb	0.12765853
173	0x3f641d9a	0.8910767
174	0x3e5103f6	0.20411667
175	0x3e161fa4	0.14660507
176	0xbe6cb795	-0.23116906
177	0xc02fe800	-2.7485352
178	0xbeb696ad	-0.35661831
179	0xbf5073b9	-0.8142658
180	0x3ff028e6	1.8762481
181	0x3ed6834d	0.4189705
182	0xbf3a4809	-0.72766167
183	0xbe02bb09	-0.12766661
184	0xbf0d2fe1	-0.5515118
185	0x3f92c975	1.146773
186	0xbfe7fc95	-1.8123957
187	0x3f2c2e55	0.672582
188	0xc0c0625a	-6.012006
189	0xc04d1df9	-3.2049544
190	0xbff9d9e5	-1.9519621
191	0xc078e229	-3.8888037
192	0xbe89fa39	-0.26948717
193	0x3f97f2bb	1.187095
194	0xc0090b3b	-2.1413105
195	0xc02d6ade	-2.7096477
196	0xbf3c3221	-0.7351399
197	0x3f03b258	0.51444006
198	0xc05f97f6	-3.49365
199	0xbf22ffb4	-0.6367142
200	0xbdef7e66	-0.116940305
201	0x3dd8c74e	0.10584889
202	0xbe8c567e	-0.27409738
203	0xbd5eb315	-0.054370005
204	0x3e0f0feb	0.13970916
205	0xbe92c843	-0.28668413
206	0x3e8bfd17	0.2734153
207	0xbc9cb493	-0.019129073
208	0x3e95893b	0.2920626
209	0xbd6a81b5	-0.057252605
210	0xbe8f9041	-0.28039744
211	0xbe8256c2	-0.25456816
212	0x3e46f4e6	0.19429359
213	0x3e8082ec	0.25099885
214	0xbe342993	-0.17593984
215	0x3e764193	0.24048452
216	0x3d40e8b2	0.047096916
217	0x3d4f936d	0.050677706
218	0x3e08e804	0.13369757
219	0x3ca05047	0.01956953
220	0x3e526269	0.20545353
221	0xbda1f03c	-0.07907149
222	0xbe8621e2	-0.26197726
223	0x3d40e5bb	0.047094088
224	0x3d43374b	0.047660153
225	0x3d722c19	0.059124086
226	0x3e31b5ee	0.17354557
227	0xbd07d231	-0.03315944
228	0xbd7f322a	-0.0623037
229	0x3d07de35	0.033170898
230	0xbdf1e90f	-0.118120305
231	0x3dd190d5	0.10232703
232	0xbe2b3ce5	-0.16722448
233	0xbe1b9c61	-0.15196373
234	0xbe5447c0	-0.20730495
235	0x3e3fbafc	0.18723673
236	0x3d85a93a	0.06526418
237	0x3d6619cd	0.05617695
238	0xbd6eb9e7	-0.05828276
239	0x3d5db53b	0.054127913
240	0x3cd9374f	0.026515631
241	0xbd1a6003	-0.03768922
242	0x3c4b6c3b	0.012415941
243	0x3e99b463	0.30020437
244	0xbd56505f	-0.05232274
245	0x3d855d97	0.065119915
246	0xbd60c96e	-0.0548796
247	0xbe14a361	-0.14515449
248	0xbe67989d	-0.22616811
249	0xbe7cfe5a	-0.24706402
250	0x3e7f3605	0.2492295
251	0xbe043bae	-0.12913391
252	0xbe95de7e	-0.2927131
253	0x3e5400c7	0.20703422
254	0xbccab16b	-0.024742803
255	0xbe6a90ea	-0.22906843

weight_hh_l0 f4 [40, 10]
0	0x3d295f88	0.04135087
1	0x3c6882eb	0.0141913695
2	0xbe9cce6e	-0.30626243
3	0xbe9e14bc	-0.30875194
4	0x3dad724b	0.08469065
5	0xbbc81f1d	-0.0061072246
6	0x3e13abef	0.14421056
7	0x3dedac0a	0.116050795
8	0xbe0b6900	-0.13614273
9	0x3e9d75c5	0.30753914
10	0x3e363cf7	0.17796694
11	0xbe3f87d6	-0.18704161
12	0xbe8b3e32	-0.2719589
13	0xbe86a1f6	-0.2629544
14	0x3d742596	0.059606157
15	0xbe5625e3	-0.2091289
16	0xbe9b4a69	-0.30330208
17	0x3e2231d2	0.15839317
18	0xbe2d681f	-0.1693425
19	0x3cb41923	0.021984642
20	0xbd02b169	-0.031907473
21	0x3d391148	0.045182496
22	0x3e9d67b2	0.30743176
23	0xbe54cddc	-0.20781654
24	0x3e8a9ada	0.27071267
25	0xbe5dbbb9	-0.21653642
26	0xbd3eeee4	-0.046614543
27	0xbd667660	-0.056265235
28	0xbe32ccb9	-0.17460908
29	0xbe3961af	-0.1810367
30	0xbe90b8d3	-0.2826601
31	0x3d68a34b	0.056796353
32	0xbd1f2c01	-0.038860325
33	0xbd179a51	-0.037012402
34	0xbe1a4ec2	-0.15069106
35	0x3e3553d8	0.17707765
36	0xbe307150	-0.17230725
37	0xbe960229	-0.29298523
38	0x3ea0ae53	0.31383
39	0x3e819781	0.253109
40	0xbcb5174e	-0.02210584
41	0x3e31f5a4	0.1737886
42	0xbe357c99	-0.17723311
43	0xbcaeb705	-0.021327505
44	0xbe42f45c	-0.19038528
45	0x3c5a80bd	0.013336358
46	0x3db3c089	0.087769575
47	0x3e1ee0d9	0.1551546
48	0x3e2bcc90	0.16777253
49	0xbe19c370	-0.1501596
50	0xbe873f12	-0.26415306
51	0x3e74de1b	0.23912852
52	0x3e22a6f2	0.15883997
53	0xbe94e812	-0.29083306
54	0xbe53ac74	-0.20671254
55	0xbd62f491	-0.055409018
56	0xbe69d5f2	-0.2283552
57	0xbca4cfe6	-0.020118665
58	0x3dd9f96a	0.10643275
59	0x3e2bb9f7	0.16770159
60	0x3e4817eb	0.19540374
61	0xbe209c6e	-0.15684673
62	0xbe25f8bf	-0.1620817
63	0x3dc76b56	0.097372696
64	0x3e73752f	0.2377517
65	0xbd4be975	-0.04978319
66	0xbcf43a6b	-0.029813012
67	0xbe9b13a1	-0.30288413
68	0xbe958ea6	-0.29210395
69	0x3ccfa111	0.025345357
70	0x3e4f2b54	0.20231372
71	0x3e839b0e	0.25704235
72	0xbcaeafe7	-0.021324111
73	0xbdb8041d	-0.089851595
74	0x3ddaf021	0.10690332
75	0x3e6b8e69	0.23003544
76	0x3e6ea6d9	0.23305835
77	0x3e3c0f14	0.18365127
78	0x3e124cc0	0.1428709
79	0xbb668b7c	-0.0035178354
80	0x3e5ee426	0.21766719
81	0x3e128da8	0.1431185
82	0x3e5bd466	0.21467742
83	0x3d8f9afb	0.07011982
84	0xbda6e139	-0.081484266
85	0x3cca33a4	0.024682827
86	0x3e9f478e	0.3110928
87	0x3dcb2375	0.09918872
88	0xbdedbee5	-0.11608676
89	0xbc8dcfbd	-0.017310971
90	0xbe849cea	-0.25900966
91	0x3e2b5794	0.16732627
92	0xbd1cd7ea	-0.03829185
93	0xbe787254	-0.24262363
94	0xbe60ccd4	-0.21953136
95	0x3d06d683	0.032919418
96	0xbe0f8f70	-0.14019561
97	0xbd9e757b	-0.07737251
98	0xbde68a93	-0.112569
99	0x3e83adeb	0.25718626
100	0x3d1764e0	0.036961436
101	0xbc8bc10f	-0.017059831
102	0x3e881ee9	0.26586083
103	0x3e85b2b7	0.2611291
104	0x3e95b95c	0.2924298
105	0xbe031758	-0.12801874
106	0x3c06f2ef	0.008236631
107	0x3d95c9ff	0.07313918
108	0xbd55b20f	-0.052171763
109	0xbe83fc24	-0.25778306
110	0x3dc14d5b	0.094385825
111	0x3df4333f	0.11923837
112	0xbe2a25b5	-0.16615947
113	0x3da0f410	0.07859051
114	0x3e8aba32	0.2709518
115	0xbe98e0cb	-0.29859003
116	0x3d33bb1a	0.043879606
117	0x3e3adc68	0.18248141
118	0x3e666dfa	0.2250289
119	0xbe619146	-0.22028074
120	0xbe8acd53	-0.27109775
121	0x3e2b770b	0.1674463
122	0x3e2bab54	0.16764575
123	0x3e224eae	0.15850326
124	0x3e52d6f1	0.20589806
125	0x3d67b2c3	0.056566965
126	0x3e070c76	0.13188347
127	0x3ea17ecf	0.3154206
128	0xbe3792db	-0.17927115
129	0x3c49eb11	0.012324111
130	0xbe8715e8	-0.263839
131	0xbe33c8b3	-0.1755703
132	0x3e5a9ed2	0.21349648
133	0x3e0fe703	0.14052968
134	0xbdecf6fb	-0.11570545
135	0x3c42eef4	0.011897791
136	0xbe8b8931	-0.27253106
137	0x3d07724c	0.033067986
138	0x3e4a44c9	0.19752802
139	0xbe9782dd	-0.29592028
140	0x3e65d695	0.22445138
141	0xbe093ec8	-0.13402855
142	0x3e489851	0.19589354
143	0x3e885ccc	0.26633298
144	0x3e77ec2d	0.24211188
145	0xbe8c1f4d	-0.2736763
146	0xbc8cc4c3	-0.017183667
147	0x3daf49ab	0.08558973
148	0x3e565d9d	0.20934148
149	0x3e008511	0.12550761
150	0xbd3d4cd6	-0.046215855
151	0xbe84ebb7	-0.25961086
152	0xbd2ea8e8	-0.04264155
153	0xbe372f9c	-0.17889255
154	0x3e41ad20	0.18913698
155	0x3c20a8e6	0.0098058935
156	0x3e8cfdb5	0.27537313
157	0xbe75edb2	-0.24016455
158	0xbdecc5c9	-0.11561162
159	0xbe87ec58	-0.26547503
160	0xbe90114e	-0.28138202
161	0x3e7011bd	0.23444267
162	0x3e9d406c	0.30713212
163	0xbe198f04	-0.14995962
164	0x3e65cb4a	0.2244083
165	0x3e710243	0.23536019
166	0xbe84793e	-0.2587375
167	0xbddb046d	-0.106942035
168	0xbe042620	-0.12905169
169	0x3e56f1f1	0.20990731
170	0x3e668418	0.22511327
171	0xbe4d4762	-0.20046762
172	0x3de02406	0.10944371
173	0xbe8f3d5b	-0.27976498
174	0xbdc00133	-0.09375229
175	0xbe70799f	-0.23483895
176	0x3e9da2aa	0.30788165
177	0xbe1da3c1	-0.15394498
178	0xbdd324cb	-0.10309752
179	0xbdd45760	-0.10368228
180	0xbdd3794e	-0.103258714
181	0x3e4ba082	0.19885448
182	0xbe4579da	-0.19284764
183	0x3d40f021	0.047104005
184	0xbe84b13a	-0.25916463
185	0x3e0b2822	0.13589528
186	0x3e8bc9ce	0.27302402
187	0xbe9795be	-0.29606432
188	0xbe619acd	-0.22031708
189	0x3e86744c	0.26260602
190	0xbdd70124	-0.104982644
191	0x3e9e83b6	0.30959862
192	0xbe1a1874	-0.1504839
193	0x3e7aa42a	0.24476686
194	0x3e5df917	0.21677051
195	0xbde7b7be	-0.11314343
196	0xbbabb58e	-0.005240149
197	0xbe9f080c	-0.31060827
198	0xbb9e394c	-0.0048286077
199	0x3e8ffd80	0.28123093
200	0x3d836845	0.06416372
201	0xbdc6b99e	-0.097033724
202	0x3e26ce34	0.16289598
203	0xbde57ecf	-0.112058274
204	0x3e1b6a51	0.15177275
205	0xbd25de1e	-0.04049503
206	0x3e5897d0	0.21151662
207	0x3e672911	0.2257426
208	0xbe92a322	-0.28640085
209	0x3df9934f	0.121863
210	0x3dcc5d32	0.09978713
211	0x3e9712bf	0.2950649
212	0xbd936673	-0.07197275
213	0x3e18ee6e	0.14934704
214	0x3df3c3c1	0.119025715
215	0xbe17c5b1	-0.14821507
216	0x3ea0b6a6	0.3138935
217	0x3e6185da	0.22023717
218	0xbe88eed2	-0.26744705
219	0xbe566bc4	-0.20939547
220	0x3e8beac3	0.27327546
221	0xbe8b6379	-0.2722433
222	0x3e161765	0.14657362
223	0x3e403ad5	0.18772443
224	0x3e988821	0.29791358
225	0xbd6cab58	-0.057780594
226	0xbe4d9152	-0.20074967
227	0xbe88ed3a	-0.2674349
228	0x3dfcdc8e	0.12346755
229	0xbe90a9fa	-0.28254682
230	0xbe9ef6fe	-0.31047815
231	0xbcda18b3	-0.026623106
232	0x3ce4a3c8	0.027910128
233	0x3e8208f2	0.2539745
234	0x3e7139e8	0.23557246
235	0xbe8a2dd1	-0.2698808
236	0x3e44a607	0.1920396
237	0x3e1a0c4a	0.1504375
238	0xbc0b61e0	-0.008507222
239	0xbe762236	-0.24036488
240	0xbe97fb5f	-0.29683968
241	0xbe38e5e7	-0.18056451
242	0xbe27fca0	-0.16404963
243	0x3e65a5f4	0.22426587
244	0x3e97a2f0	0.296165
245	0x3d8c3f92	0.068480626
246	0xbc93e57a	-0.018053759
247	0xbea08897	-0.3135421
248	0xbe80d3e6	-0.25161666
249	0xbd0cb7f5	-0.034355123
250	0x3e20b811	0.15695216
251	0xbe43daf8	-0.19126499
252	0xbe05cd98	-0.13066709
253	0xbe46fb76	-0.19431862
254	0x3e2e98d6	0.1705049
255	0x3d3e5db4	0.04647608

bias_ih_l0 f4 [40]
0	0xbe33b5e1	-0.1754985
1	0xc011ba4e	-2.2769961
2	0x3f39c943	0.72572726
3	0x400a645e	2.162376
4	0xbe07d3db	-0.1326441
5	0x3e0588fa	0.13040534
6	0x3fcc4a4e	1.5960176
7	0x401be94a	2.4361138
8	0x3e41cfc6	0.18926916
9	0x3fd946f7	1.6974782
10	0x3e80f1ca	0.2518447
11	0x3e9301cd	0.2871231
12	0xbe34ce63	-0.17656855
13	0x3e72e16d	0.23718806
14	0x3e62e2e8	0.2215687
15	0x3ba3c2a2	0.0049975673
16	0x3d3a53cc	0.04549007
17	0xbcd35b34	-0.025800325
18	0xbe4a618b	-0.19763772
19	0x3d066465	0.032810587
20	0x3f04112b	0.51588696
21	0x3fc00a3c	1.5003123
22	0xbe615516	-0.22005114
23	0x3e34d6fb	0.17660134
24	0xbf28f115	-0.6599286
25	0x3de4be3f	0.11169099
26	0x3e390d5a	0.180715
27	0x3fbd5d78	1.4794149
28	0xc04247e3	-3.0356376
29	0x3f9c5661	1.2213861
30	0xbfcf7f76	-1.6210773
31	0xbfc5adad	-1.5443627
32	0xbebdf774	-0.37102854
33	0x3fca4d5a	1.5804856
34	0x3f344826	0.7042259
35	0x3e7be01e	0.24597213
36	0x3fe308f6	1.773711
37	0x3f28ec6c	0.6598575
38	0x3f2fce7a	0.68674433
39	0x3f8999a7	1.0750016

bias_hh_l0 f4 [40]
0	0xbd57d088	-0.052689105
1	0xc00f0046	-2.2343917
2	0x3f5eff27	0.8710808
3	0x402f1dce	2.7361941
4	0x3e5dc8f3	0.21658687
5	0x3e611dc4	0.21984011
6	0x4004fbc7	2.0778673
7	0x401b6bb8	2.4284496
8	0x3ad8aa01	0.0016530157
9	0x3fe878d7	1.8161877
10	0xbe4fc31e	-0.20289275
11	0xbe70300a	-0.23455825
12	0x3e2b7845	0.16745098
13	0xbe6bdb02	-0.23032764
14	0x3ea13036	0.31482095
15	0xbe7f6086	-0.24939165
16	0x3e0bd302	0.13654712
17	0x3d5d6924	0.054055348
18	0x3e4c40d3	0.19946603
19	0x3e0489c7	0.12943183
20	0x3ecc68ac	0.39923608
21	0x3fc6e022	1.553715
22	0x3e71b2c7	0.23603354
23	0xbeb668b6	-0.35626763
24	0xbeec640d	-0.46170083
25	0x3eb20058	0.34765887
26	0xbe527a3c	-0.20554441
27	0x3fbbd3d2	1.4674017
28	0xc034a27d	-2.8224175
29	0x3fb06a81	1.3782502
30	0xbf8c15c0	-1.0944138
31	0xbfaac903	-1.3342594
32	0xbde4e030	-0.11175573
33	0x3fd27b8a	1.6443951
34	0x3f276612	0.6539012
35	0x3f0de133	0.5542175
36	0x3ff28e14	1.8949609
37	0x3f8e1bf6	1.1102283
38	0x3f5137c2	0.81725705
39	0x3f593d6a	0.84859335

weight f4 [2, 10]
0	0x3f13e071	0.57764345
1	0x4017c677	2.3714883
2	0x3fdb8a6f	1.7151622
3	0x4030763a	2.757216
4	0xbedc0cc9	-0.42978504
5	0x3e220515	0.15822251
6	0xbdc77764	-0.09739569
7	0x3e4784a2	0.19484189
8	0x3fff1a9b	1.9929994
9	0xbf9a8934	-1.2073121
10	0xbdb99334	-0.0906128
11	0xbefcbc06	-0.493622
12	0x3e43a1cb	0.19104688
13	0xbdaaccce	-0.08339845
14	0xbf9b4626	-1.2130783
15	0xc006210b	-2.0957668
16	0xbf43c1cf	-0.76467603
17	0x40334763	2.801232
18	0xbf32481f	-0.696413
19	0xbd1f3f1b	-0.03887854

bias f4 [2]
0	0x3f21a3ff	0.63140863
1	0x3ee6ab3d	0.4505252

weight_ih_l0 f4 [40, 2]
0	0x3f0a3354	0.5398457
1	0x3e14ff74	0.14550573
2	0xbea4dae3	-0.32198247
3	0xbfe8c535	-1.8185183
4	0x3f5cb93b	0.8622014
5	0xbe7aa574	-0.24477178
6	0x3ffacae7	1.9593171
7	0xc00a50b6	-2.1611762
8	0x3fdaf1fd	1.7105099
9	0x3f356390	0.70855045
10	0x3f50230f	0.81303495
11	0x4066577e	3.59909
12	0xbfed1499	-1.8521911
13	0x3ff025f7	1.8761586
14	0xbfd3cee9	-1.6547519
15	0x403ed6d8	2.981863
16	0xc0503cbf	-3.2537076
17	0x3fd52f9a	1.6655152
18	0xbe5ecd7d	-0.21758075
19	0xc0094ebf	-2.1454313
20	0xbe4a6f84	-0.19769102
21	0xbe8f2e14	-0.27964842
22	0x3c0c0ccc	0.008547973
23	0x3d84f6db	0.064923964
24	0xbe6bb2e8	-0.23017466
25	0xbcc4413d	-0.02395689
26	0xbe3cabd1	-0.18424918
27	0x3e7ddd43	0.24791436
28	0x3db90a81	0.090352066
29	0xbdad960b	-0.08475884
30	0x3c2dfe1b	0.0106196655
31	0xbe84ec06	-0.25961322
32	0xbbb8d3e5	-0.005640494
33	0xbc96c73c	-0.01840555
34	0x3b772e71	0.003771689
35	0x3da124b4	0.07868329
36	0xbe8c44b3	-0.27396163
37	0x3da49a29	0.08037216
38	0xbd1ed4c3	-0.038777124
39	0x3e0e810d	0.13916416
40	0x3f847395	1.0347773
41	0xbffb731a	-1.9644501
42	0x3f8a53fe	1.0806882
43	0xbe304ed3	-0.17217569
44	0xc0418869	-3.0239508
45	0xbe49defb	-0.19713967
46	0x3fb23ccf	1.3924807
47	0xbf960c42	-1.1722491
48	0x3f8a3e35	1.0800234
49	0x3e8d0997	0.2754638
50	0x3e8949c1	0.26814082
51	0x3f9867f5	1.1906725
52	0x3fbfc480	1.4981842
53	0x3e8dd2be	0.27699846
54	0x3efcbb7d	0.49361792
55	0xbf5d5ff2	-0.86474526
56	0xc00a8587	-2.1643999
57	0xba92f282	-0.0011211189
58	0xbe9173ad	-0.28408566
59	0xbfbe525b	-1.4868883
60	0x3fc4fae6	1.5389068
61	0xc02ffaf0	-2.749691
62	0xbfac6583	-1.3468479
63	0x3f039589	0.5140005
64	0x3f05716a	0.5212618
65	0x3f8596bb	1.0436624
66	0x40bed72d	5.9637666
67	0x3e125dee	0.14293644
68	0x408656d1	4.1980977
69	0x408e8041	4.453156
70	0x3fcec666	1.6154296
71	0x3f7190a6	0.9436134
72	0x3e3b510c	0.18292636
73	0x4016ecf8	2.3582134
74	0xc036424d	-2.8477967
75	0x3f3c62b2	0.735881
76	0xbfc0b7a5	-1.5056044
77	0x3e198694	0.14992744
78	0xbec1c527	-0.37845728
79	0xbfbe8d07	-1.4886788

weight_hh_l0 f4 [40, 10]
0	0x3dfccf22	0.12344195
1	0x3e932368	0.2873795
2	0x3e7f9c7d	0.2496204
3	0x3e784231	0.24244
4	0x3e6d3093	0.23163061
5	0xbd970398	-0.07373732
6	0x3e38bb93	0.18040304
7	0xbda01bbe	-0.078177914
8	0x3e265419	0.16243018
9	0xbafe11ba	-0.0019383945
10	0xbe7b42c3	-0.24537186
11	0x3e5e4a34	0.21707994
12	0xbe1689fc	-0.14701074
13	0x3e11c11b	0.1423382
14	0xbdffe9f4	-0.12495795
15	0xbd246b1a	-0.040141203
16	0x3d817687	0.063214354
17	0x3d6edd98	0.058316797
18	0xbd935750	-0.07194388
19	0x3e657b8a	0.22410408
20	0x3e2227ee	0.15835544
21	0xbc2d7921	-0.010587961
22	0xbe000d4c	-0.12505072
23	0x3e951464	0.2911712
24	0x3e91efad	0.2850317
25	0x3e87c286	0.26515597
26	0xbe4f609d	-0.20251699
27	0xbdc05cb5	-0.093926825
28	0xbe573117	-0.2101482
29	0x3ccfc152	0.025360737
30	0x3e6689b5	0.22513469
31	0x3e18ff52	0.14941147
32	0x3c35f7ac	0.011106413
33	0x3e3b3a3d	0.18283935
34	0xbda6d5a5	-0.08146218
35	0xbdb8a06e	-0.090149745
36	0xbdf687ca	-0.120376185
37	0x3d9f851a	0.07789059
38	0xbcec4117	-0.028839631
39	0x3c88f1cd	0.016716862
40	0xbe8b2097	-0.27173302
41	0x3a9b3054	0.0011839964
42	0xbd471f67	-0.048613932
43	0x3e1c7048	0.15277207
44	0x3e0bad3a	0.136403
45	0x3e6a8400	0.22901917
46	0xbde43747	-0.11143356
47	0x3e1e7be0	0.15476942
48	0x3ceb0da3	0.028693026
49	0xbdfca810	-0.12336743
50	0x3e00b152	0.12567642
51	0xbe833fc0	-0.25634575
52	0xbe648111	-0.2231486
53	0xbdae7e37	-0.08520167
54	0x3e1400c8	0.14453423
55	0x3e1e8ed6	0.15484175
56	0xbd012968	-0.03153363
57	0x3dc9f599	0.09861297
58	0x3c62b612	0.013837354
59	0x3dba4a63	0.090962194
60	0x3d12dfe0	0.035858035
61	0x3e382322	0.17982152
62	0xbe90c70f	-0.2827687
63	0x3e2e84de	0.17042872
64	0xbe07d0eb	-0.1326329
65	0xbe022064	-0.12707669
66	0xbdc49c97	-0.0960018
67	0xbe46fe6d	-0.19432993
68	0x3e8528be	0.26007646
69	0x3e810c87	0.2520487
70	0x3e0a3c91	0.13499667
71	0x3e1f8ea5	0.15581758
72	0xbe92b1ee	-0.28651375
73	0x3e7a6acd	0.24454804
74	0x3e564dec	0.20928162
75	0x3e9e8af3	0.30965385
76	0xbe1bf1bb	-0.15228932
77	0xbe923acc	-0.28560483
78	0x3e4b7bc6	0.19871435
79	0x3de4827b	0.111577
80	0x3e8d015f	0.2754011
81	0x3d0ef7ba	0.03490422
82	0x3e55c5a0	0.20876169
83	0xbe4abe6a	-0.197992
84	0xbe08dc51	-0.13365294
85	0x3e40dc0a	0.18833938
86	0x3de8cef4	0.11367598
87	0x3d56c2b0	0.052431762
88	0xbe8d6399	-0.2761505
89	0x3d3aece4	0.045636073
90	0x3dcfb2e9	0.10141546
91	0x3e0a79ad	0.13522978
92	0xbe9af02e	-0.30261368
93	0xbdaa7690	-0.08323395
94	0x3e4e21f7	0.20130144
95	0x3d98db59	0.07463712
96	0x3e1a61f3	0.15076427
97	0xbd3b7ff0	-0.045776308
98	0xbe0fc782	-0.1404095
99	0x3e852446	0.26004237
100	0x3dc13b09	0.09435088
101	0x3e1f4a46	0.15555677
102	0x3e844ba8	0.2583897
103	0xbe989f74	-0.29809153
104	0xbe087c62	-0.13328698
105	0x3e64167a	0.22274199
106	0xbe23c332	-0.1599243
107	0xbe46ca21	-0.19413044
108	0x3e16bd62	0.14720681
109	0x3e83ff50	0.25780725
110	0x3e283b49	0.16428865
111	0xbddd010a	-0.10791214
112	0x3e26583d	0.16244598
113	0xbe278d39	-0.16362466
114	0xbe20d121	-0.15704776
115	0xbd8ad49f	-0.067788355
116	0x3db8e62d	0.090282775
117	0x3e1de184	0.15418059
118	0x3ea145db	0.31498608
119	0xbe768638	-0.24074638
120	0x3e4bef44	0.19915491
121	0xbdf1143c	-0.117714375
122	0x3e9dfdd5	0.3085772
123	0x3e9e16a9	0.30876663
124	0x3e79eb54	0.24406177
125	0x3e2af320	0.16694307
126	0x3e9e951d	0.3097314
127	0xbbe88e4e	-0.007097042
128	0xbdf768ba	-0.12080522
129	0xbd334132	-0.043763347
130	0xbe0c0331	-0.13673092
131	0xbe958bb3	-0.29208145
132	0x3e83551b	0.25650868
133	0xbe1ae38d	-0.15125866
134	0x3e7d3d61	0.24730445
135	0x3e9d7891	0.30756047
136	0x3e968ad8	0.29402804
137	0x3e7bd884	0.24594313
138	0x3e3d9f97	0.1851791
139	0x3e8d5568	0.27604222
140	0xbe3b001c	-0.1826176
141	0x3db297b2	0.0872034
142	0x3e798764	0.24368054
143	0x3e8ef534	0.2792145
144	0x3cedf345	0.029046664
145	0x3b9ff039	0.0048809317
146	0x3e42fd0e	0.19041845
147	0x3e550668	0.20803225
148	0xbe10f8ef	-0.1415746
149	0x3e928a0d	0.2862095
150	0xbe8263c1	-0.2546673
151	0xbe68432c	-0.22681874
152	0x3c4f60f3	0.012657392
153	0x3dad09f5	0.08449165
154	0xbd22da34	-0.039758876
155	0x3e01ede7	0.12688409
156	0x3d2b86a3	0.041876446
157	0x3da743f7	0.0816726
158	0xbd6228e0	-0.055214763
159	0x3e2f0685	0.17092331
160	0xbd9a7505	-0.07541851
161	0x3d7b0977	0.061288323
162	0x3dff0ddc	0.12453815
163	0x3e6cfa39	0.23142327
164	0x3daf3b10	0.08556187
165	0x3d79e66b	0.06101076
166	0x3d564905	0.05231573
167	0x3d8a2101	0.06744576
168	0x3d4fbc43	0.05071665
169	0x3e8c7e32	0.2744003
170	0x3d1ee252	0.038790055
171	0xbd58cb3d	-0.052928198
172	0x3c99a42c	0.018755041
173	0xbd102439	-0.035190795
174	0xbe4ad6da	-0.19808522
175	0xbe8d2bf6	-0.27572602
176	0x3e5ccdaf	0.21562837
177	0xbd5d57e8	-0.054038912
178	0xbc049a43	-0.0080934195
179	0xbe945d0d	-0.28977242
180	0x3e918e68	0.2842896
181	0xbe053450	-0.13008237
182	0x3e00f3ab	0.12592952
183	0xbe8a1d7e	-0.26975626
184	0x3dc24663	0.094860815
185	0x3da59b46	0.08086257
186	0xbe0a053f	-0.13478564
187	0xbde3dbf7	-0.11125939
188	0x3e397a7f	0.18113135
189	0xbe952a5b	-0.29133877
190	0xbe9bf1b6	-0.30457848
191	0xbe9817bb	-0.29705605
192	0xbe3785b4	-0.17922097
193	0xbe4d93a2	-0.20075849
194	0xbcba79be	-0.02276313
195	0x3e1f3dd2	0.15550926
196	0x3e9a04b0	0.300817
197	0xbe8be3ba	-0.2732218
198	0xbe746e69	-0.23870243
199	0x3c106fb9	0.008815699
200	0x3ccdf03a	0.025138963
201	0x3e0b4b83	0.13603024
202	0x3e66e68f	0.22548889
203	0xbd46f020	-0.048568845
204	0xbe613d4e	-0.21996042
205	0xbe98f6bb	-0.2987574
206	0xbe99f43a	-0.30069143
207	0xbe88646d	-0.2663912
208	0x3e30b633	0.17257003
209	0x3e993b66	0.2992813
210	0xbd27e8af	-0.04099339
211	0xbc432f26	-0.0119130965
212	0x3e99965a	0.29997522
213	0xbdb30da6	-0.087428376
214	0x3bc8f533	0.0061327456
215	0xbe8ee7ea	-0.2791131
216	0xbe8e154f	-0.27750632
217	0xbe1ba8ff	-0.15201186
218	0xbd2bdf93	-0.041961264
219	0xbd2760a0	-0.040863633
220	0x3e0686a0	0.13137293
221	0xbe535977	-0.20639597
222	0xbd9b8838	-0.07594341
223	0x3d9f3ae8	0.07774907
224	0xbcb07d47	-0.021544112
225	0xbe896d27	-0.2684109
226	0xbdb565ca	-0.08857305
227	0xbdd81822	-0.10551478
228	0xbbe5c7bd	-0.007012336
229	0xbdde9fda	-0.10870333
230	0x3dc5473c	0.096327275
231	0x3da17b1d	0.0788481
232	0x3e8bf24b	0.27333292
233	0x3e328b2a	0.174359
234	0x3e1428da	0.14468709
235	0x3e6d74bd	0.23189063
236	0x3ea07573	0.31339607
237	0x3e072b71	0.13200165
238	0x3e590b71	0.21195771
239	0x3e9e83de	0.30959982
240	0xbe3b6347	-0.1829959
241	0x3dcc373a	0.09971471
242	0x3c93c9f7	0.01804064
243	0xbe635b85	-0.2220288
244	0x3e8d909e	0.27649397
245	0xbb9e343d	-0.0048280046
246	0xbe2fa34f	-0.17152141
247	0xbe5245e2	-0.2053447
248	0x3d51a07c	0.05117844
249	0xbdb585fc	-0.08863446
250	0x3dea1927	0.11430579
251	0xbd2fd405	-0.042926807
252	0x3e63a69f	0.2223153
253	0xbe00f358	-0.12592828
254	0x3e74a4d4	0.23891002
255	0x3e3a9be0	0.18223524

bias_ih_l0 f4 [40]
0	0x3f8f8a08	1.1213999
1	0x40821940	4.0655823
2	0x4016394b	2.347247
3	0x40676955	3.615804
4	0xbf0fd085	-0.5617755
5	0x4048ab39	3.1354506
6	0x407cc2c0	3.9493866
7	0x3ff41e75	1.9071795
8	0x40823c1d	4.069838
9	0x40817af6	4.04626
10	0x3be275b8	0.006911006
11	0xbde2e855	-0.1107947
12	0xbe8cc76a	-0.2749589
13	0x3d4352e2	0.047686465
14	0x3dd9e889	0.10640056
15	0x3df3f33f	0.1191163
16	0xbd14b6e6	-0.036307238
17	0xbe7c245f	-0.2462325
18	0xbe6849b9	-0.22684373
19	0x3e3cfb09	0.18455137
20	0xbf2c9cf5	-0.67427
21	0x4017cbd4	2.3718157
22	0x3f844492	1.0333426
23	0xbf5effaa	-0.8710886
24	0xbfd6a218	-1.6768217
25	0xbf86652d	-1.0499626
26	0x3fba477c	1.4553065
27	0x3eaa1dfe	0.33226007
28	0xbf7796b6	-0.9671434
29	0x3d3e678d	0.046485472
30	0x3f01ec49	0.5075117
31	0x4048ab79	3.1354659
32	0x3f460112	0.77345383
33	0x408f7d3e	4.4840384
34	0xbf85a5e7	-1.0441254
35	0x40ab146c	5.346243
36	0x400d4e84	2.2079172
37	0x404fb1f6	3.2452369
38	0x3ff14f9a	1.8852417
39	0x40068a22	2.102181

bias_hh_l0 f4 [40]
0	0x3f8e1f1c	1.1103244
1	0x407f5251	3.9893992
2	0x40154437	2.3322885
3	0x4048d76d	3.1381485
4	0xbee992b1	-0.4561973
5	0x40408905	3.008363
6	0x406d9d6c	3.7127333
7	0x4005ade6	2.088739
8	0x4084ff65	4.156176
9	0x40899e34	4.300562
10	0x3e79ec36	0.24406514
11	0x3daaed9f	0.08346104
12	0x3d0ffeca	0.035155095
13	0x3ea14059	0.31494406
14	0x3e11543f	0.14192294
15	0xbda73b64	-0.08165625
16	0xbcb81220	-0.02246958
17	0x3e41f009	0.18939222
18	0x3e214cef	0.15752004
19	0x3dd45668	0.10368043
20	0xbf2e2adb	-0.6803414
21	0x401cbf76	2.4491858
22	0x3faf2d80	1.368576
23	0xbf72dfc0	-0.94872665
24	0xbfe9670c	-1.8234572
25	0xbfa434e1	-1.2828637
26	0x3fb32638	1.3996038
27	0x3eb58b2e	0.35457748
28	0xbf0f09a1	-0.5587407
29	0xbefd00cf	-0.4941468
30	0x3f2a67c8	0.6656461
31	0x403839d1	2.8785288
32	0x3f8a40c8	1.080102
33	0x409b33da	4.8500795
34	0xbf8c5783	-1.0964206
35	0x409f56d2	4.979348
36	0x401d91ee	2.4620318
37	0x40357f94	2.8359118
38	0x3ff49bb8	1.9110022
39	0x3ffdc838	1.9826727
