VAE_LSTM1/model.pth (torch, 50144 bytes, 22 tensors)

weight_ih_l0 f4 [80, 41]
-0.39633676 -0.19258182 -0.46263844 -0.55778295 -0.08278088 -0.27937326 0.31851482 -0.13979429
-0.11065127 -0.1436861 -0.09399376 -0.19633006 -0.10507758 -0.32545313 -0.091366105 -0.18444334
-0.094017714 0.1344689 -0.37209418 -0.11057021 -0.01391918 -0.21972853 -0.0044963667 -0.06139767
-0.14278185 -0.07957818 -0.1588567 -0.45270535 -0.56472546 -0.18526123 -0.24107374 -0.25439253
-0.10955566 -0.19112848 -0.009336468 -0.32101315 -0.29475614 -0.5362379 0.068421505 -0.42501584
-0.2767236 0.087582186 -0.047533974 -0.34139052 -0.41235164 0.21445337 -0.13455397 -0.19500944
-0.17592563 -0.0012162672 -0.13926919 -0.1057579 -0.35228032 -0.030487802 -0.16641329 -0.051414352
0.0030905541 -0.03160887 -0.05148181 -0.09002513 -0.08747459 -0.093396276 -0.13645506 -0.06645371
0.09361526 -0.41099963 -0.17698814 -0.1638052 -0.07012079 -0.52056265 -0.18403381 -0.039587036
-0.3869636 -0.5244139 -0.5909703 0.18811248 -0.10597276 -0.22106053 -0.32113513 -0.22199507
-0.13619952 -0.19173275 0.0008048328 -0.36949915 -0.5106781 -0.50866073 -0.08682447 -0.3508024
0.29962447 0.06513625 -0.023319647 -0.20840964 -0.083184496 -0.30418694 -0.16987415 -0.21985239
0.019847859 -0.1433167 -0.057569068 0.007664087 -0.15853286 0.11964215 0.15369019 -0.19335963
-0.1470296 -0.26758343 -0.28733587 -0.08314402 -0.34877983 -0.08637612 -0.51293266 0.17373796
-0.37481356 -0.3310484 -0.22265002 -0.11798286 -0.2811237 -0.056137588 -0.15467462 -0.120243035
0.11429444 -0.2674691 -0.17850891 -0.2957217 -0.513742 -0.4179784 -0.36247608 -0.20149204
-0.25725865 -0.11049492 0.021300443 -0.21289247 -0.37888658 -0.07147521 -0.47891805 -0.056419324
-0.09236049 0.17347561 -0.07483066 -0.37245828 -0.27645487 0.39018857 -0.13797832 0.16684741
0.01643973 -0.42585155 -0.20566873 -0.65508926 -0.5325025 -0.30646455 -0.20069087 -0.42692053
-0.39537913 -0.44922504 -0.27289602 -0.3162952 -0.31625143 0.11079566 -0.5175109 -0.29811877
-0.21952526 -0.25675416 -0.30446178 -0.26017717 -0.204034 -0.24186797 -0.45478594 -0.42804143
-0.30117106 -0.025507119 0.28803426 0.064786196 0.17472613 -0.10870611 0.2328097 -0.36100113
-0.012623209 -0.41488913 -0.20587373 0.006852966 -0.014475013 -0.15726785 -0.3533886 -0.13533509
0.17852283 -0.076427974 -0.010872185 -0.0016301878 -0.36612764 -0.21179987 -0.2550664 -0.45915988
-0.45716244 -0.14169227 -0.41538683 -0.30925992 -0.31632346 -0.5475677 -0.215039 -0.18032578
-0.7193863 -0.11891798 -0.35800818 -0.19642192 0.12051547 0.09115726 -0.18029447 -0.12124448
-0.27263364 0.21530247 -0.065617874 -0.05362423 -0.10521651 -0.061858438 0.09797902 0.0012916384
-0.15416913 0.12135235 0.5600494 0.35361177 0.079478286 -0.36822945 0.053299207 0.19709584
0.025252089 0.042526353 -0.13313001 0.117396854 -0.20129669 -0.2137182 -0.20158902 -0.024033874
-0.15105878 -0.52709377 -0.34079868 -0.08553042 -0.30886322 -0.38936135 -0.13963878 -0.058647383
-0.22428648 0.1368443 0.091895014 -0.045467008 0.21648815 0.08320034 -0.21992965 -0.09533571
-0.6028911 -0.3981064 -0.15881021 0.0046750978 -0.17405257 0.19562107 -0.020855097 -0.10471239
00000000: a7ec cabe 2b34 45be f2de ecbe ddca 0ebf
00000010: 0689 a9bd 030a 8fbe 6014 a33e 3c26 0fbe
00000020: 229d e2bd 7322 13be cd7f c0bd bf0a 49be
00000030: ea32 d7bd cba1 a6be 271e bbbd b7de 3cbe
00000040: 5c8c c0bd 37b2 093e 2183 bebe a272 e2bd
00000050: 460d 64bc 8400 61be 4256 93bb 207c 7bbd
00000060: 6835 12be e3f9 a2bd 55ab 22be ffc8 e7be
00000070: d991 10bf 1fb5 3dbe 09dc 76be bd3f 82be
00000080: b85e e0bd 2fb7 43be fcf7 18bc d65b a4be
00000090: 47ea 96be e346 09bf 9320 8c3d ad9b d9be
000000a0: b7ae 8dbe 4a5e b33d fcb2 42bd bdca aebe
000000b0: c11f d3be aa99 5b3e 84c8 09be 8eb0 47be
000000c0: d925 34be 286b 9fba 959c 0ebe 9997 d8bd
000000d0: 165e b4be 8ec1 f9bc 3f68 2abe db97 52bd
000000e0: e58a 4a3b 4d78 01bd 97de 52bd 185f b8bd
000000f0: e125 b3bd 8c46 bfbd e0ba 0bbe e218 88bd
00000100: 5cb9 bf3d 8b6e d2be 613c 35be 8dbc 27be
00000110: 7d9b 8fbd 9843 05bf 5c73 3cbe 0426 22bd
00000120: 1820 c6be fd3f 06bf d449 17bf 8fa0 403e
00000130: 3f08 d9bd b15d 62be d36b a4be ad52 63be
00000140: e377 0bbe 9755 44be 6afb 523a fe2e bdbe
00000150: cdbb 02bf 9737 02bf 07d1 b1bd 5f9c b3be
00000160: 6168 993e 2766 853d d808 bfbc 5669 55be
00000170: a25c aabd 64be 9bbe 7df3 2dbe fc20 61be
00000180: fa97 a23c 9dc1 12be 8bcd 6bbd 0623 fb3b
00000190: 7056 22be f206 f53d f660 1d3e 1100 46be
000001a0: ed8e 16be b200 89be b01d 93be 6947 aabd
000001b0: 4593 b2be f7e5 b0bd 8e4f 03bf 5de8 313e
000001c0: 90e7 bfbe 2d7f a9be 5efe 63be ffa0 f1bd
000001d0: 72ef 8fbe 87f0 65bd 0663 1ebe fb41 f6bd
000001e0: 3413 ea3d b6f1 88be 0acb 36be d668 97be
000001f0: 9984 03bf 4401 d6be 7796 b9be ee53 4ebe
00000200: 68b7 83be 294b e2bd 447e ae3c 7c00 5abe
00000210: 6cfd c1be 9861 92bd bf34 f5be f317 67bd
00000220: 7f27 bdbd 97a3 313e d140 99bd dab2 bebe
00000230: 7e8b 8dbe ccc6 c73e 304a 0dbe 0cda 2a3e
00000240: 9dac 863c 3709 dabe d39a 52be eeb3 27bf
00000250: 1552 08bf ece8 9cbe e881 4dbe 5495 dabe
00000260: 226f cabe d300 e6be 07b9 8bbe 72f1 a1be
00000270: b5eb a1be d6e8 e23d 987b 04bf 06a3 98be
00000280: 3bcb 60be 4875 83be 6ae2 9bbe f135 85be
00000290: 4aee 50be 3dac 77be b4d9 e8be 3f28 dbbe
000002a0: 1833 9abe 4ef4 d0bc 3a79 933e a0ae 843d
000002b0: 68eb 323e 4fa1 debd aa65 6e3e 24d5 b8be
000002c0: 93d1 4ebc 596c d4be 90d0 52be d88e e03b
000002d0: 9b28 6dbc d30a 21be 5aef b4be 4895 0abe
000002e0: b0ce 363e 4586 9cbd 4021 32bc 07ac d5ba
000002f0: 1575 bbbe 11e2 58be 1098 82be 0117 ebbe
00000300: 3211 eabe c717 11be 95ad d4be 5157 9ebe
00000310: 26f5 a1be 662d 0cbf 2f33 5cbe 52a7 38be
00000320: b329 38bf 458b f3bd d94c b7be d422 49be
00000330: d1d0 f63d a8b0 ba3d 1d9f 38be 074f f8bd
00000340: a396 8bbe 4078 5c3e aa62 86bd 15a5 5bbd
00000350: c17b d7bd 465f 7dbd 39a9 c83d 314c a93a
00000360: 83de 1dbe 9587 f83d 665f 0f3f 9a0c b53e
00000370: 83c5 a23d 9288 bcbe 4550 5a3d 7ed3 493e
00000380: 78dd ce3c 1d30 2e3d 3c53 08be c36d f03d
00000390: b820 4ebe f2d8 5abe 5a6d 4ebe b0e2 c4bc
000003a0: 27af 1abe 9eef 06bf 2a7d aebe 932a afbd
000003b0: 5223 9ebe 5f5a c7be 78fd 0ebe 3d38 70bd
000003c0: 5bab 65be ea20 0c3e 7433 bc3d 9d3b 3abd
000003d0: 12af 5d3e f164 aa3d 3d35 61be 5e3f c3bd
000003e0: 1257 1abf 9ad4 cbbe 259f 22be 9031 993b
000003f0: d63a 32be e450 483e 4fd8 aabc 7373 d6bd

weight_hh_l0 f4 [80, 20]
-0.095704265 0.015541865 0.096868515 0.16246071 0.058168232 -0.14032778 -0.11322097 -0.089987695
-0.016586727 0.18081836 -0.17751813 -0.1914528 0.06636216 -0.111338995 0.2191735 -0.1496098
0.090727106 -0.04990559 0.07867513 -0.06942504 -0.20313773 0.106011555 0.111219846 0.04030804
-0.21138893 0.20617627 0.1699648 -0.19020541 0.041370388 0.107116766 -0.09476288 -0.19973803
-0.03361757 0.18956737 -0.037508067 0.0059629222 0.15342395 -0.12860212 0.105728224 0.09597442
0.110937476 -0.21869145 0.084958024 -0.08096069 -0.17214191 0.1279624 0.217016 -0.05683354
0.04733174 -0.18779542 -0.2230238 0.049757756 0.015077251 0.010674505 -0.18008254 -0.19775702
0.07496536 0.10222533 -0.12927684 0.1315831 -0.09161041 -0.13468926 0.11866945 0.06527187
-0.14072548 -0.15439655 -0.032887064 -0.19119872 -0.14785053 0.18493703 0.058950987 -0.011346289
-0.023241399 -0.16472672 0.19127111 0.05426249 0.08490901 -0.117432825 0.0029981611 -0.15598522
0.013163723 0.10876936 -0.022653688 -0.04765497 -0.07141211 0.06280859 0.20442204 0.12965196
-0.07020662 -0.03997175 -0.1732842 -0.04230852 0.21917577 -0.08962786 -0.13053235 -0.04707683
-0.22037697 0.10077829 -0.09073542 0.035829566 0.13990101 0.114846125 -0.079140216 0.13119599
-0.06995059 -0.19217414 -0.08810154 0.16402736 0.06186065 -0.13398045 -0.01763916 0.03805638
0.07842496 -0.20197766 -0.08777906 0.1239986 -0.15248558 0.21484323 -0.099974796 0.013145943
0.0967849 -0.17970918 -0.08798687 -0.14860487 0.12950875 0.14825687 -0.09236219 0.06417932
-0.06290258 0.11207321 -0.17578594 0.076514095 -0.106298104 0.18798986 0.22071153 -0.17615518
-0.026772548 0.09937578 0.06922978 -0.025990246 0.18925984 0.20076345 -0.11696205 -0.12938985
0.20646763 0.17516446 0.08418401 0.077458546 0.19498307 0.19974293 -0.16681993 0.022716222
-0.13838248 0.09644714 0.052885413 0.023305587 -0.081433356 -0.15669411 0.16883224 -0.0350704
0.10217165 -0.17946596 0.16060425 0.07902943 -0.16626543 -0.0048590703 0.057257343 -0.1819799
0.19860841 -0.22278713 -0.22314504 0.206443 -0.05494336 0.16255134 -0.055953253 -0.20337099
-0.1352585 0.082922064 -0.09453289 -0.037856273 0.18163128 -0.067910254 0.105330385 0.16929697
-0.20025392 -0.15094244 0.09776571 0.12922873 -0.176637 -0.020648543 0.2072651 -0.1869092
0.075652495 -0.050423115 -0.10518858 -0.15319997 0.15995857 0.115191884 -0.21029955 -0.1596158
0.18680805 -0.10863613 -0.044986438 -0.0692152 0.026265977 0.17455815 -0.19894382 -0.14308617
0.15672736 -0.13056745 -0.014927844 -0.06915179 0.21688436 -0.17446668 -0.012865442 0.02115029
-0.21162236 -0.09154704 -0.09651735 0.028202536 0.0061352 -0.15944803 0.14172791 -0.09686657
0.1882153 0.15243441 -0.18089041 -0.013895083 -0.08474523 0.0031472214 -0.08014241 0.06475811
0.06508091 0.08140291 -0.18044806 -0.01472811 -0.05279958 -0.209413 -0.0367142 0.10862536
-0.2189554 0.13952728 -0.14272368 0.19652925 -0.21425979 0.16946402 0.17246002 0.10518479
-0.07901806 -0.04799033 0.22068727 -0.066824876 0.10140819 0.21923254 0.221916 0.12530082
00000000: 9900 c4bd 4ea3 7e3c 0063 c63d 1a5c 263e
00000010: d041 6e3d 16b2 0fbe 65e0 e7bd 784b b8bd
00000020: e3e0 87bc 7328 393e 50c7 35be 340c 44be
00000030: e2e8 873d b305 e4bd 056f 603e 5033 19be
00000040: 22cf b93d ce69 4cbd 6d20 a13d b72e 8ebd
00000050: 5603 50be 961c d93d 3bc7 e33d 0b1a 253d
00000060: 5776 58be df1f 533e 410b 2e3e 35c5 42be
00000070: ff73 293d 0960 db3d 0a13 c2bd 2088 4cbe
00000080: 94b2 09bd f31d 423e 0fa2 19bd 9e64 c33b
00000090: 2b1b 1d3e 46b0 03be 0a88 d83d 3d8e c43d
000000a0: 3033 e33d a7f0 5fbe 79fe ad3d b8ce a5bd
000000b0: f845 30be 9308 033e 7139 5e3e 49ca 68bd
000000c0: edde 413d 714d 40be 5a60 64be cace 4b3d
000000d0: 9306 773c 1ee4 2e3c 8f67 38be d180 4abe
000000e0: 7087 993d 845b d13d 2661 04be b8bd 063e
000000f0: 3d9e bbbd fbeb 09be f808 f33d 42ad 853d
00000100: 571a 10be 211a 1ebe 96b4 06bd 99c9 43be
00000110: 2166 17be 2260 3d3e 9776 713d c9e5 39bc
00000120: bf64 bebc 1fae 28be 93dc 433e 5842 5e3d
00000130: c6e4 ad3d 9f80 f0bd cc7c 443b 97ba 1fbe
00000140: a8ac 573c 78c2 de3d 3a94 b9bc dc31 43bd
00000150: 8340 92bd caa1 803d 0354 513e 7cc3 043e
00000160: 7dc8 8fbd 6bb9 23bd 6a71 31be b34b 2dbd
00000170: 9d6f 603e d08e b7bd 46aa 05be a2d3 40bd
00000180: 80aa 61be d964 ce3d 7ed3 b9bd 06c2 123d
00000190: 3642 0f3e 7234 eb3d 4414 a2bd 3e58 063e
000001a0: 4142 8fbd 4cc9 44be 956e b4bd caf6 273e
000001b0: 9861 7d3d 2c32 09be 0080 90bc 02e1 1b3d
000001c0: 449d a03d 3bd3 4ebe 82c5 b3bd faf2 fd3d
000001d0: 2e25 1cbe ddff 5b3e 96bf ccbd 1562 573c
000001e0: 2937 c63d af05 38be 7632 b4bd e02b 18be
000001f0: f19d 043e a6d0 173e 6328 bdbd 7370 833d
00000200: 11d3 80bd a486 e53d 3b01 34be 6cb3 9c3d
00000210: d2b2 d9bd 6a80 403e 3402 623e 0662 34be
00000220: 1a52 dbbc 8785 cb3d 58c8 8d3d 7fe9 d4bc
00000230: 55cd 413e ef94 4d3e cd89 efbd c67e 04be
00000240: 406c 533e 505e 333e ab68 ac3d 96a2 9e3d
00000250: a4a9 473e 6989 4c3e d8d2 2abe 5f17 ba3c
00000260: 23b4 0dbe 1486 c53d 609e 583d 5ceb be3c
00000270: 88c6 a6bd 6c74 20be 5ce2 2c3e fba5 0fbd
00000280: 5f3f d13d edc5 37be 7175 243e 2fda a13d
00000290: 7c41 2abe d638 9fbb ad86 6a3d f058 3abe
000002a0: 0160 4b3e 4f22 64be 2280 64be cb65 533e
000002b0: 4a0c 61bd dc73 263e 3d2f 65bd 7c40 50be
000002c0: 3481 0abe 0bd3 a93d 769a c1bd 2e0f 1bbd
000002d0: 8dfd 393e 8814 8bbd 75b7 d73d 2f5c 2d3e
000002e0: 5d0f 4dbe a890 1abe 6339 c83d 8954 043e
000002f0: 54e0 34be 2227 a9bc 4d3d 543e 2065 3fbe
00000300: b2ef 9a3d 7888 4ebd 1c6d d7bd 74e0 1cbe
00000310: 2ecc 233e b9e9 eb3d c458 57be 5372 23be
00000320: 9c4a 3f3e 9f7c debd b343 38bd b3c0 8dbd
00000330: bf2b d73c 5fbf 323e eeb7 4bbe 2e85 12be
00000340: 237d 203e 79b3 05be ea93 74bc 749f 8dbd
00000350: ef16 5e3e 65a7 32be 93c9 52bc 5f43 ad3c
00000360: 88b3 58be 047d bbbd e3aa c5bd 0109 e73c
00000370: ca09 c93b 5846 23be 1f21 113e fb61 c6bd
00000380: 83bb 403e c417 1c3e 563b 39be 34a8 63bc
00000390: e88e adbd 9d41 4e3b b421 a4bd e69f 843d
000003a0: 2449 853d 92b6 a63d 60c7 38be 2c4e 71bc
000003b0: 5f44 58bd 5d70 56be a161 16bd f976 de3d
000003c0: d835 60be 3de0 0e3e 2826 12be f73e 493e
000003d0: eb66 5bbe fa87 2d3e 5c99 303e 206b d73d
000003e0: 38d4 a1bd 8291 44bd d8fb 613e 7bdb 88bd
000003f0: 19af cf3d 7f7e 603e f33d 633e dc4e 003e

bias_ih_l0 f4 [80]
-0.59043354 -0.3795781 -0.593474 -0.5330532 -0.7148271 -0.49085158 -0.47154635 -0.51678175
-0.48418334 -0.6624326 -0.5281376 -0.45670366 -0.6916823 -0.5336326 -0.4576217 -0.48310846
-0.43585563 -0.59000546 -0.38537696 -0.3198802 0.10194267 -0.12664165 -0.05862317 -0.18813854
-0.13356376 -0.09654968 -0.02509402 0.218195 -0.01903532 -0.11443096 0.18054356 -0.043239456
0.18352072 0.18003209 0.13538082 -0.08290738 -0.09767819 0.19909659 -0.10507601 0.0354925
-0.11310611 -0.072368644 -0.22846757 -0.24404515 -0.020113071 0.03409843 0.043800674 -0.1875182
-0.08646027 0.111206114 0.05268809 0.09251414 -0.10074375 -0.07998645 0.018142581 -0.09136426
0.01853986 -0.104562856 -0.10617576 0.43939474 -0.613431 -0.7444101 -0.73346317 -0.4761536
-0.39092883 -0.5197841 -0.57658803 -0.67931074 -0.63216275 -0.4672364 -0.48747477 -0.63009185
-0.51134557 -0.58745086 -0.36529768 -0.46504378 -0.3745573 -0.5311502 -0.56783175 -0.3738682
00000000: a726 17bf 1058 c2be e9ed 17bf 2d76 08bf
00000010: e9fe 36bf e650 fbbe 866e f1be cf4b 04bf
00000020: e1e6 f7be 2f95 29bf 0734 07bf 10d5 e9be
00000030: 1712 31bf 259c 08bf 644d eabe fe59 f7be
00000040: 7828 dfbe 990a 17bf 2150 c5be 56c7 a3be
00000050: 52c7 d03d 59ae 01be d91e 70bd 64a7 40be
00000060: f0c4 08be d7bb c5bd f991 cdbc 836e 5f3e
00000070: f6ef 9bbc c75a eabd 69e0 383e db1b 31bd
00000080: dbec 3b3e 555a 383e 45a1 0a3e 58cb a9bd
00000090: 810b c8bd fadf 4b3e 1732 d7bd 9560 113d
000000a0: 2da4 e7bd 0336 94bd 67f3 69be f9e6 79be
000000b0: 2bc4 a4bc ccaa 0b3d 5668 333d c504 40be
000000c0: 1512 b1bd 08c0 e33d 77cf 573d 0e78 bd3d
000000d0: bd52 cebd f0cf a3bd c09f 943c 2f1d bbbd
000000e0: e8e0 973c 0d25 d6bd ad72 d9bd 59f8 e03e
000000f0: d009 1dbf a991 3ebf 3ec4 3bbf 68ca f3be
00000100: d327 c8be 9210 05bf 469b 13bf 4fe7 2dbf
00000110: 6bd5 21bf 9c39 efbe 4b96 f9be b34d 21bf
00000120: 8be7 02bf 2e63 16bf 4c08 bbbe 381a eebe
00000130: f9c5 bfbe 76f9 07bf 6c5d 11bf a76b bfbe

bias_hh_l0 f4 [80]
-0.57321686 -0.7244407 -0.542873 -0.670931 -0.36394227 -0.5179637 -0.48205948 -0.63708794
-0.6557119 -0.6933724 -0.8291823 -0.67514503 -0.6032215 -0.4845485 -0.6159781 -0.37799442
-0.55073065 -0.46221814 -0.34181324 -0.4915055 -0.092517294 0.11405423 0.08239369 -0.09146758
0.21082333 0.0018162337 -0.17470849 -0.19108745 -0.068646945 0.18901432 -0.03379979 0.10375707
0.08996203 -0.18882473 0.11397655 0.06315864 -0.06982362 -0.13662641 0.08054736 0.1340203
0.061716266 0.17078272 -0.031564813 -0.2052537 0.10198413 0.0137053635 -0.0760662 -0.2697598
0.17771089 -0.31648427 0.17376547 0.100551665 0.059755307 0.09240566 0.30093354 -0.1021461
-0.043599084 0.037437152 -0.26167566 0.20811851 -0.45382765 -0.6071512 -0.70063186 -0.52552617
-0.6485632 -0.4419727 -0.41583496 -0.6006581 -0.5557334 -0.4732526 -0.62189746 -0.62308544
-0.44606882 -0.46073717 -0.66288227 -0.705398 -0.7229945 -0.3490182 -0.5099406 -0.59292406
00000000: 57be 12bf f274 39bf baf9 0abf 22c2 2bbf
00000010: a456 babe 4599 04bf 80d0 f6be 3218 23bf
00000020: bcdc 27bf db80 31bf 4b45 54bf 4ed6 2cbf
00000030: b96c 1abf be16 f8be beb0 1dbf 7c88 c1be
00000040: affc 0cbf dba7 ecbe 2502 afbe 9ca6 fbbe
00000050: b579 bdbd 4495 e93d 06be a83d 5b53 bbbd
00000060: 12e2 573e b10e ee3a c8e6 32be 6eac 43be
00000070: c596 8cbd f88c 413e a671 0abd 967e d43d
00000080: 033e b83d 455b 41be 8a6c e93d 5159 813d
00000090: b0ff 8ebd cbe7 0bbe 04f6 a43d 9e3c 093e
000000a0: 32ca 7c3d aae1 2e3e 1b4a 01bd 072e 52be
000000b0: 0edd d03d 768c 603c 99c8 9bbd f51d 8abe
000000c0: d8f9 353e 3a0a a2be 93ef 313e 08ee cd3d
000000d0: fbc1 743d 2e3f bd3d f613 9a3e f931 d1bd
000000e0: f494 32bd b357 193d 5afa 85be 051d 553e
000000f0: 195c e8be 436e 1bbf 9c5c 33bf e288 06bf
00000100: 3d08 26bf 3f4a e2be 52e8 d4be bbc4 19bf
00000110: 8b44 0ebf 2a4e f2be ac34 1fbf 8782 1fbf
00000120: 2263 e4be bee5 ebbe a7b2 29bf f794 34bf
00000130: 2b16 39bf 83b2 b2be 788b 02bf dfc9 17bf

weight_ih_l0 f4 [40, 20]
-0.14928678 -0.19927578 -0.14158438 -0.10129125 0.2615587 0.1949741 0.32645088 -0.13457558
0.31107008 0.59711725 -0.30111617 0.20034482 -0.46867445 0.094746664 -0.043416608 -0.19676247
0.23560023 0.32028866 0.4454054 -0.45456776 -0.087619536 0.3513278 0.27813601 -0.17578655
0.115891844 0.4940037 0.05193348 -0.1360102 0.040425844 0.2315161 0.2683251 0.45156547
-0.2334407 -0.13222848 0.27561432 -0.03456364 -0.42577437 -0.1591347 0.5454713 -0.6638689
-0.08328471 -0.05036442 0.033501677 -0.17013146 -0.14953017 0.13576894 0.3344893 -0.31007645
0.28279033 0.41937894 -0.27719286 -0.07504152 0.0004337029 0.038625166 0.30601415 0.19831513
0.19294158 0.025417497 0.27796033 0.01625867 -0.03729571 -0.1376286 0.29192686 -0.18463835
0.28548023 -0.08918795 0.113755345 0.15573113 0.20945641 0.42398375 -0.17508371 0.28310573
-0.3927687 0.10608263 0.2287236 -0.05109284 -0.09051532 -0.009067072 0.021544257 -0.26678047
-0.011411008 0.024036953 0.13130568 -0.15304263 0.22749019 -0.028672671 0.32642362 -0.39501992
0.038780726 0.37007 0.3495463 0.092438735 -0.11439933 -0.07109097 0.24202177 0.12950718
-0.5892415 0.037439838 0.6227198 -0.60126954 -0.29428083 0.38627142 0.21477312 -0.22119631
0.14055495 0.10788346 0.45323265 0.11734483 -0.15651658 0.35030273 0.37911516 0.312693
0.028767906 0.23552898 0.37228212 0.017302474 -0.59216666 0.30248103 0.19195236 -0.61229223
-0.19905005 -0.05241777 0.25898805 -0.15242073 0.19677702 0.41927636 0.26509088 -0.05152008
0.3023285 0.22288609 0.06830815 0.23484147 -0.33009914 0.06655668 0.071820535 -0.266646
-0.115495585 0.19083798 0.033037126 0.07166097 0.063731745 -0.014815398 0.3517917 -0.2246251
0.026925981 0.17246227 0.023859639 0.20814388 0.0123000005 0.11892141 0.032488633 0.20978492
-0.4052753 0.038178552 0.10905725 -0.37263852 -0.4380145 -0.03207091 0.24504746 -0.55730814
-0.46865252 0.12506227 -0.18350181 0.004256369 0.23858829 0.542376 0.3311259 -0.45761472
0.32757068 0.5432235 0.2639777 0.15491189 -0.2959969 0.23381433 0.561334 0.018780874
0.0013193958 -0.053938523 0.30873927 -0.27734417 0.2426044 -0.042120907 0.37855035 -0.15934242
0.26257992 0.35065964 -0.059714522 0.13935076 0.010148936 0.16477789 0.5783247 0.3087062
-0.10950302 0.23512013 0.31808814 0.0964035 -0.025976516 -0.07707068 -0.027240891 -0.6736131
-0.20520635 0.13962962 0.30114746 -0.25475883 -0.18496819 0.13796449 -0.27075636 -0.15155275
0.28450543 0.25501814 -0.004398972 0.07824697 -0.21497406 0.15387538 0.15621586 -0.09037989
-0.30706382 0.31211635 -0.034093127 0.17186366 -0.20974854 -0.04907071 0.13076507 0.30539045
0.076281406 -0.104155116 0.1905645 0.14105149 0.16099523 0.062149294 -0.2077778 0.3045252
-0.07420839 -0.083934896 0.17032799 0.19260871 0.033989757 -0.084477775 -0.2501979 -0.21589078
0.23783316 0.1460477 0.1269305 0.14427815 0.041031424 -0.17070346 -0.10782728 -0.1701126
0.049540456 -0.10073111 0.09687641 0.1327412 0.118452154 -0.013622556 -0.12547907 0.08036168
00000000: a2de 18be f30e 4cbe 7ffb 10be c971 cfbd
00000010: 06eb 853e 4aa7 473e 9224 a73e 2ece 09be
00000020: 9444 9f3e addc 183f e62b 9abe 3127 4d3e
00000030: 19f6 efbe 8a0a c23d 9dd5 31bd 1a7c 49be
00000040: 3041 713e e0fc a33e 2d0c e43e 1bbd e8be
00000050: df71 b3bd 3de1 b33e d867 8e3e 6401 34be
00000060: b458 ed3d 0eee fc3e 33b8 543d 4246 0bbe
00000070: 9295 253d 8e12 6d3e e861 893e 9733 e73e
00000080: 140b 6fbe e766 07be 521d 8d3e 9a92 0dbd
00000090: 19ff d9be 35f4 22be 02a4 0b3f 50f3 29bf
000000a0: 2d91 aabd ec4a 4ebd 0e39 093d f136 2ebe
000000b0: 701e 19be 0307 0b3e 2e42 ab3e 57c2 9ebe
000000c0: e5c9 903e d6b8 d63e 39ec 8dbe 5eaf 99bd
000000d0: 9e62 e339 6c35 1e3d e3ad 9c3e 1f13 4b3e
000000e0: 7a92 453e 5b38 d03c d150 8e3e e730 853c
000000f0: 63c3 18bd 83ee 0cbe 7077 953e d611 3dbe
00000100: 772a 923e 2ca8 b6bd 90f8 e83d fb77 1f3e
00000110: be7b 563e 6614 d93e 2549 33be 3cf3 903e
00000120: fb18 c9be da41 d93d 8536 6a3e ba46 51bd
00000130: 1960 b9bd 0e8e 14bc 957d b03c 7397 88be
00000140: 3df5 3abc 25e9 c43c ff74 063e 35b7 1cbe
00000150: 30f3 683e f3e2 eabc ff20 a73e 0d40 cabe
00000160: 8ad8 1e3d d179 bd3e bcf7 b23e 8550 bd3d
00000170: 324a eabd 2498 91bd 8ed4 773e 889d 043e
00000180: 88d8 16bf 845a 193d 916a 1f3f cdec 19bf
00000190: faab 96be 5ec5 c53e 7ced 5b3e 4981 62be
000001a0: a3ed 0f3e 01f2 dc3d 1c0e e83e 7c52 f03d
000001b0: e245 20be e15a b33e 621b c23e 4c19 a03e
000001c0: acaa eb3c 822e 713e c39b be3e ebbd 8d3c
000001d0: 3c98 17bf cbde 9a3e 298f 443e 2fbf 1cbf
000001e0: c7d3 4bbe 04b4 56bd 159a 843e 2e14 1cbe
000001f0: ea7f 493e 64ab d63e feb9 873e b806 53bd
00000200: cdca 9a3e 403c 643e 25e5 8b3d 487a 703e
00000210: c102 a9be de4e 883d a516 933d d385 88be
00000220: f388 ecbd 086b 433e f051 073d fdc2 923d
00000230: ca85 823d 48bc 72bc 0b1e b43e 1f04 66be
00000240: e093 dc3c f399 303e 4a75 c33c ab23 553e
00000250: f185 493c 118d f33d cd12 053d dcd1 563e
00000260: 3e80 cfbe 1d61 1c3d 6859 df3d 7aca bebe
00000270: 7043 e0be c95c 03bd b9ed 7a3e bfab 0ebf
00000280: 39f3 efbe 5310 003e e6e7 3bbe 0379 8b3b
00000290: 7d50 743e 27d9 0a3f 5589 a93e 7a4c eabe
000002a0: 58b7 a73e b210 0b3f 1628 873e 39a1 1e3e
000002b0: e88c 97be 066d 6f3e 96b3 0f3f 59da 993c
000002c0: 94ef ac3a a4ee 5cbd 1313 9e3e 0e00 8ebe
000002d0: 4a6d 783e f986 2cbd 5ad1 c13e a92a 23be
000002e0: e070 863e a989 b33e 3797 74bd f7b1 0e3e
000002f0: b947 263c 89bb 283e 160d 143f bd0e 9e3e
00000300: 1f43 e0bd 55c3 703e 73dc a23e 336f c53d
00000310: b4cc d4bc 3cd7 9dbd 4a28 dfbc e871 2cbf
00000320: 9d21 52be 11fb 0e3e 0030 9a3e c06f 82be
00000330: 4d68 3dbe 9046 0d3e 94a0 8abe a530 1bbe
00000340: b2aa 913e bd91 823e 4025 90bb f33f a03d
00000350: 2922 5cbe 8291 1d3e 0df7 1f3e 1719 b9bd
00000360: 7837 9dbe b7cd 9f3e 3ca5 0bbd 07fd 2f3e
00000370: 52c8 56be 5efe 48bd 47e7 053e 235c 9c3e
00000380: 6d39 9c3d 474f d5bd 5723 433e cd6f 103e
00000390: efdb 243e 4290 7e3d b4c3 54be baea 9b3e
000003a0: 92fa 97bd 0fe6 abbd 766a 2e3e 383b 453e
000003b0: d838 0b3d af02 adbd f019 80be 7912 5dbe
000003c0: 898a 733e 878d 153e 12fa 013e a7bd 133e
000003d0: 9110 283d e3cc 2ebe 8dd4 dcbd ff31 2ebe
000003e0: efea 4a3d 1d4c cebd 2467 c63d 4fed 073e
000003f0: 0b97 f23d 2431 5fbc 967d 00be aa94 a43d

weight_hh_l0 f4 [40, 10]
0.1222393 0.101355374 -0.1355907 -0.16877079 -0.11588308 0.063571766 0.06563143 0.15339452
0.0865371 0.014274228 0.04425077 0.08371063 -0.16665635 0.072009884 -0.25852355 0.15494606
0.29007602 0.2406387 0.21283625 -0.24938662 -0.28893507 -0.031757325 0.20335115 -0.17628372
-0.085709415 -0.12528332 0.013043676 -0.2888436 0.059941363 0.2710446 0.20862089 0.16864009
-0.14239566 -0.19515648 0.072726965 0.16777943 0.0994615 -0.2329171 -0.24469724 -0.15027127
0.20325355 -0.10475903 -0.038553618 -0.28805333 0.08621193 -0.08495389 -0.27541754 0.23568812
0.06142818 0.09307675 0.29484156 -0.11854353 0.22487982 0.1193662 0.060223904 0.043080423
-0.049843844 -0.179553 0.18527377 -0.0168482 -0.12087499 -0.08505375 -0.017131079 0.17053464
-0.25331822 0.18638259 0.2637111 -0.30165896 -0.08843056 0.20766361 -0.14548306 0.07749141
0.22486375 -0.005085251 -0.04769766 -0.16060205 -0.23197113 0.21213646 0.30473238 -0.16762114
-0.27338162 -0.26332214 -0.12486755 -0.059028484 0.16685663 -0.28075472 -0.2093431 0.11940427
0.17231087 0.0076004895 -0.18196869 0.2747064 -0.22170739 -0.18636423 0.25161117 0.22579597
-0.15571404 0.12696326 0.09102515 0.30428344 0.01314987 0.27415347 0.2423081 -0.12877047
0.11956573 -0.012719592 -0.048369955 -0.20332932 -0.025871573 0.005876668 -0.23164938 -0.22743599
-0.06208453 -0.24462305 0.19653334 0.11872218 -0.0692224 0.07403397 0.2942976 0.012906797
-0.23959808 0.19301693 -0.1149696 -0.23377022 0.17644061 0.23474379 0.02804976 0.2746579
-0.14700362 0.26244026 -0.123384506 -0.104032636 0.14226006 0.24862024 -0.08588867 -0.08696531
-0.24595761 -0.07254866 0.12899363 -0.27224767 -0.09479503 -0.117075935 -0.25990066 0.13298792
0.10890479 -0.23706278 -0.28837278 0.24660769 -0.12279937 -0.07722448 -0.11237678 -0.09090346
-0.23370048 -0.16314813 -0.022426644 0.07937775 -0.21543238 0.043552242 -0.10900992 0.016155625
-0.1272285 -0.24361989 0.065272965 -0.27219114 -0.0012191302 -0.14663166 0.25486362 -0.012578152
-0.15593159 -0.21210691 0.16694266 0.19376522 -0.070888504 0.03720628 0.3061307 -0.1478295
0.02937776 -0.3082203 -0.07133616 0.12688556 -0.16360167 0.1679341 0.14013888 0.085000746
-0.23691954 0.14701323 0.26657912 -0.2138388 -0.31489742 -0.2075898 0.28488937 0.19595069
0.015003973 -0.15616587 -0.06736739 -0.15441465 -0.24696465 -0.3147021 -0.013497099 -0.26765382
-0.083613 0.05067782 0.017845368 -0.26328936 0.13966295 -0.061393954 -0.019562328 -0.03155463
0.15891385 -0.27716398 0.12274146 -0.1585474 -0.11360281 -0.21028927 0.16627006 -0.22755077
-0.1739458 0.06843335 0.22886242 0.062748566 0.05026688 0.12427126 -0.0055971425 0.24625196
-0.05821279 0.06687228 0.25070733 -0.18601157 -0.092016436 -0.066756696 0.19898252 -0.13090959
-0.07907345 -0.18005887 -0.111777246 0.08974284 -0.16076495 -0.24907608 0.29416662 -0.21690954
0.26136774 -0.18315385 0.08134475 0.29278743 -0.03176072 0.16532402 -0.19289185 0.10930525
-0.2212798 -0.04002992 -0.20613442 0.030935977 0.059145574 0.21087128 -0.18902235 0.20285103
00000000: 9958 fa3d 6893 cf3d 4ad8 0abe 40d2 2cbe
00000010: 1c54 edbd ea31 823d c569 863d 7413 1d3e
00000020: 5d3a b13d 74de 693c 4c40 353d 7b70 ab3d
00000030: f6a7 2abe eb79 933d 335d 84be 2eaa 1e3e
00000040: d884 943e fe69 763e bff1 593e 355f 7fbe
00000050: 4cef 93be f813 02bd 493b 503e b883 34be
00000060: 6b88 afbd 454a 00be 24b5 553c 4fe3 93be
00000070: 1385 753d 5cc6 8a3e b7a0 553e fdaf 2c3e
00000080: 2bd0 11be 1ad7 47be e0f1 943d 5fce 2b3e
00000090: 79b2 cb3d d281 6ebe ea91 7abe b6e0 19be
000000a0: b321 503e e78b d6bd 66ea 1dbd ba7b 93be
000000b0: e18f b03d 4efc adbd 8703 8dbe 3a58 713e
000000c0: 1e9c 7b3d 069f be3d 79f5 963e f3c6 f2bd
000000d0: e546 663e 4476 f43d 57ad 763d 1975 303d
000000e0: 0f29 4cbd bedc 37be 68b8 3d3e 3c05 8abc
000000f0: 4f8d f7bd a930 aebd 7a56 8cbc a2a0 2e3e
00000100: edb2 81be 14db 3e3e 2405 873e 0b73 9abe
00000110: 151b b5bd c5a5 543e 83f9 14be d1b3 9e3d
00000120: af42 663e 2da2 a6bb 9f5e 43bd dd74 24be
00000130: d789 6dbe 4d3a 593e e205 9c3e e0a4 2bbe
00000140: adf8 8bbe 29d2 86be 8fba ffbd dac7 71bd
00000150: 77dc 2a3e 15bf 8fbe 0a5e 56be 3a8a f43d
00000160: 4372 303e 870d f93b 0056 3abe 51a6 8c3e
00000170: 4307 63be 44d6 3ebe 2ed3 803e 0f37 673e
00000180: 8073 1fbe a802 023e 656b ba3d 0acb 9b3e
00000190: 8d72 573c d85d 8c3e 9d1f 783e 68dc 03be
000001a0: e1de f43d d665 50bc 931f 46bd 9035 50be
000001b0: 9ff0 d3bc 1091 c03b 7f35 6dbe fbe4 68be
000001c0: 594c 7ebd 777e 7abe 0940 493e 9d24 f33d
000001d0: 79c4 8dbd 1f9f 973d 2dae 963e 0877 533c
000001e0: 3359 75be 3ba6 453e 2f75 ebbd 7661 6fbe
000001f0: d9ac 343e ad60 703e 9cc8 e53c f69f 8c3e
00000200: 1e88 16be 925e 863e 04b1 fcbd 100f d5bd
00000210: 9fac 113e 4e96 7e3e 66e6 afbd de1a b2bd
00000220: 50dc 7bbe 6494 94bd e816 043e 0c64 8bbe
00000230: e623 c2bd 82c5 efbd b311 85be fc2d 083e
00000240: 7909 df3d 96c0 72be 99a5 93be ba86 7c3e
00000250: 3c7e fbbd de27 9ebd cc25 e6bd 982b babd
00000260: 2e4f 6fbe 4e10 27be 15b8 b7bc cd90 a23d
00000270: 4e9a 5cbe d663 323d 9840 dfbd cd58 843c
00000280: 3048 02be 7e77 79be d5ad 853d a35c 8bbe
00000290: 39cb 9fba 9c26 16be 7c7d 823e 9814 4ebc
000002a0: 88ac 1fbe 8e32 59be 04f3 2a3e 646a 463e
000002b0: fe2d 91bd 9d65 183d 2abd 9c3e 9e60 17be
000002c0: a1a9 f03c 0dcf 9dbe b118 92bd 4aee 013e
000002d0: 3287 27be ebf6 2b3e 9180 0f3e df14 ae3d
000002e0: 099b 72be a38a 163e 0f7d 883e 8ff8 5abe
000002f0: 3c3a a1be 6c92 54be 05dd 913e 4ca7 483e
00000300: 39d3 753c f2e9 1fbe eaf7 89bd e01e 1ebe
00000310: 4de4 7cbe a220 a1be f022 5dbc ec09 89be
00000320: 4b3d abbd 8c93 4f3d 7330 923c ddcd 86be
00000330: ce03 0f3e 3a78 7bbd 2d41 a0bc 6d3f 01bd
00000340: 50ba 223e 70e8 8dbe e05f fb3d 405a 22be
00000350: 97a8 e8bd 1256 57be b342 2a3e 1203 69be
00000360: d91e 32be c926 8c3d e95a 6a3e 5282 803d
00000370: a5e4 4d3d ee81 fe3d 3c68 b7bb 7929 7c3e
00000380: 8970 6ebd 55f4 883d b65c 803e d179 3ebe
00000390: 1d73 bcbd bcb7 88bd 13c2 4b3e 2a0d 06be
000003a0: 43f1 a1bd 5a61 38be 78eb e4bd 18cb b73d
000003b0: 919f 24be cd0d 7fbe 029d 963e 891d 5ebe
000003c0: fed1 853e af8c 3bbe 1498 a63d 3ce8 953e
000003d0: 8717 02bd b34a 293e 7185 45be 6edb df3d
000003e0: 2c97 62be 6af6 23bd e714 53be 726d fd3c
000003f0: a142 723d a4ee 573e 138f 41be 2eb8 4f3e

bias_ih_l0 f4 [40]
-1.1496916 -1.370001 -1.5583206 -1.151305 -1.2532132 -1.4017732 -1.3669187 -0.7772314
-1.3340404 -1.455901 0.08060517 0.08710271 0.25691107 0.0804477 0.18742134 0.154769
-0.28194776 -0.16189605 -0.043944594 -0.20604885 0.08451534 -0.023216275 0.06368873 0.22481501
0.12046036 0.24525936 -0.08304067 0.047124147 0.1630097 0.10717933 -1.1274273 -1.1250553
-1.6513826 -1.2251372 -1.2524291 -1.150027 -1.084066 -1.3126177 -0.99823654 -1.3948613
00000000: 1829 93bf 315c afbf 0d77 c7bf f65d 93bf
00000010: 4a69 a0bf 4e6d b3bf 31f7 aebf a3f8 46bf
00000020: d6c1 aabf f75a babf 5314 a53d e862 b23d
00000030: d989 833e c4c1 a43d 61eb 3f3e c47b 1e3e
00000040: 755b 90be 14c8 25be 3fff 33bd 78fe 52be
00000050: 6116 ad3d 0f30 bebc 3d6f 823d e835 663e
00000060: ecb3 f63d 4525 7b3e 3a11 aabd 4005 413d
00000070: 04ec 263e d680 db3d 8a4f 90bf d001 90bf
00000080: 8160 d3bf 4cd1 9cbf 994f a0bf 1634 93bf
00000090: adc2 8abf db03 a8bf 6e8c 7fbf d18a b2bf

bias_hh_l0 f4 [40]
-1.1748549 -1.443095 -1.2035973 -1.3759912 -1.3607811 -1.4875323 -1.1798451 -1.1068574
-1.3593802 -1.8462251 -0.25383335 0.090371445 -0.11527796 -0.18661487 0.06381178 0.22300467
-0.22476974 0.108603016 -0.21550548 -0.13770705 -0.08500744 0.021536702 -0.066551976 -0.22542098
-0.12209256 -0.24599509 0.081826314 -0.047112726 -0.16434261 -0.11173619 -1.3470781 -1.0993086
-1.1525866 -1.0192735 -0.9589243 -0.8785317 -1.1788348 -1.32694 -1.16335 -1.1090505
00000000: a561 96bf 56b7 b8bf 7a0f 9abf 7b20 b0bf
00000010: 132e aebf 7567 bebf 2a05 97bf 81ad 8dbf
00000020: 2c00 aebf 1b51 ecbf 72f6 81be aa14 b93d
00000030: da16 ecbd f817 3fbe c0af 823d 565b 643e
00000040: 0a2a 66be 426b de3d 78ad 5cbe 1403 0dbe
00000050: 6118 aebd bd6d b03c 674c 88bd c2d4 66be
00000060: aa0b fabd 23e6 7bbe 8e94 a73d 46f9 40bd
00000070: 6e49 28be f2d5 e4bd 0e6d acbf 25b6 8cbf
00000080: f587 93bf 8e77 82bf 107c 75bf 74e7 60bf
00000090: 0fe4 96bf 2bd9 a9bf a7e8 94bf 5ef5 8dbf

weight f4 [2, 10]
-0.00071157375 -0.0021774513 0.0024501523 -0.00017274701 -0.0010689078 -0.0013023319 -0.00046991344 -0.0005011144
-0.0014599094 -0.0017448049 -0.0020480745 0.0056738774 0.015931342 0.0019113336 0.0024230997 0.004907147
-0.0004290951 0.00130208 -0.00056834426 0.013980653
00000000: e888 3aba 92b3 0ebb bc92 203b 6c23 35b9
00000010: 981a 8cba 02b3 aaba b75e f6b9 385d 03ba
00000020: 6e5a bfba f0b1 e4ba fd38 06bb efeb b93b
00000030: 7282 823c b785 fa3a decc 1e3b 22cc a03b
00000040: 2bf8 e0b9 8eaa aa3a f0fc 14ba 1c0f 653c

bias f4 [2]
1.6143375e-05 -8.640825e-06
00000000: a26b 8737 10f8 10b7

weight f4 [2, 10]
-0.0007691173 -0.0025818713 -0.0011553471 -0.0025201885 -0.0031944737 -6.992418e-05 -0.0029593918 0.0009395751
0.00046242817 -0.004715032 0.0044960026 -0.00095429923 0.0012445771 -0.0013754755 -0.001055031 -0.0024510152
0.0037918563 -0.00081850536 0.004067058 0.0021450522
00000000: 979e 49ba 9d34 29bb 046f 97ba bf29 25bb
00000010: 605a 51bb 42a4 92b8 5bf2 41bb d14d 763a
00000020: 0f72 f239 8e80 9abb 3453 933b f029 7aba
00000030: 1421 a33a 4d49 b4ba f748 8aba 36a1 20bb
00000040: cb80 783b f790 56ba f544 853b 0194 0c3b

bias f4 [2]
-4.6215773e-06 4.9351293e-06
00000000: 0c13 9bb6 7098 a536

weight_ih_l0 f4 [40, 2]
-0.012737592 0.059481878 -0.037948314 -0.022554671 -0.087816805 0.1680604 -0.009373077 -0.16385268
0.03573356 0.13835607 -0.12513122 0.06786057 0.08651474 0.04503262 -0.049259376 -0.007532907
-0.0112138875 0.0757766 -0.29413867 -0.123036236 -0.2730004 -0.17880517 -0.1050793 -0.09020742
-0.07535047 0.17482954 0.071766175 0.27989247 -0.033923525 -0.01194333 -0.2526095 0.12551337
-0.05647815 -0.02261366 0.13039628 -0.0333048 -0.1525572 -0.28301466 -0.15194823 -0.007545904
-0.06755708 -0.0031264734 0.014766588 0.0018606232 0.08272524 0.06256855 0.0014975547 -0.0028200045
0.092034265 0.05196483 -0.028793607 -0.0853977 -0.056854118 -0.013148371 -0.008608729 -0.0047940877
-0.0041053277 0.0061396034 0.07544519 0.05467978 0.06067391 -0.010182745 -0.0746856 0.011658879
-0.15882781 -0.043573797 0.02098752 0.041227557 -0.130243 -0.12550797 0.18774582 0.14974858
-0.04526267 -0.0009650879 0.08268646 0.06524316 -0.013734928 -0.003918025 0.020469004 -0.10548418
00000000: 55b1 50bc 45a3 733d b16f 1bbd 93c4 b8bc
00000010: 4cd9 b3bd 0718 2c3e 8991 19bc ffc8 27be
00000020: 5a5d 123d 37ad 0d3e 6622 00be 7cfa 8a3d
00000030: a42e b13d 2074 383d 33c4 49bd 9bd6 f6bb
00000040: 74ba 37bc c330 9b3d 5899 96be 6cfa fbbd
00000050: b5c6 8bbe b418 37be d133 d7bd abbe b8bd
00000060: 5951 9abd 8406 333e 25fa 923d 114e 8f3e
00000070: 65f3 0abd f5ad 43bc 0856 81be 9486 003e
00000080: a255 67bd 4840 b9bc 9a86 053e 9d6a 08bd
00000090: f437 1cbe 4ce7 90be 5198 1bbe a143 f7bb
000000a0: 5e5b 8abd 85e5 4cbb 8fef 713c 28e0 f33a
000000b0: da6b a93d f123 803d 9949 c43a d3cf 38bb
000000c0: 767c bc3d 13d9 543d 92e0 ebbc fde4 aebd
000000d0: dddf 68bd 446c 57bc a00b 0dbc b917 9dbb
000000e0: fc85 86bb ba2e c93b 0283 9a3d e8f7 5f3d
000000f0: 3585 783d 87d5 26bc c4f4 98bd e204 3f3c
00000100: c2a3 22be 707a 32bd 05ee ab3c 3ade 283d
00000110: 6c5e 05be 2985 00be 7140 403e b157 193e
00000120: 5965 39bd f4fd 7cba 8557 a93d 359e 853d
00000130: 7708 61bc c762 80bb 9dae a73c 1708 d8bd

weight_hh_l0 f4 [40, 10]
-0.021346578 -0.28223166 -0.28468317 -0.26505727 0.31003034 0.037598632 -0.044194378 -0.243789
0.2038086 0.051688332 -0.29122007 0.11402969 -0.0038390916 -0.085200615 -0.10984612 0.03555774
0.29069182 -0.051665038 -0.084270515 0.23408194 -0.27907214 -0.09066737 -0.24981001 -0.18806471
-0.081837304 0.15152097 -0.0057255016 -0.29717916 -0.23939794 -0.301371 -0.25055844 -0.18885033
-0.282317 -0.056115992 -0.01988596 -0.04141669 -0.09816543 -0.112633385 -0.22053587 -0.12575234
0.23079817 0.18998682 0.016509527 0.004351021 0.29312637 0.078815416 0.27089873 -0.035997216
0.030755144 -0.12187197 0.26893705 0.24672619 0.15513037 0.2493259 0.25349432 -0.011908649
0.12412303 0.086616226 -0.102984466 -0.2553192 -0.09974853 0.3137779 0.27673665 -0.104549766
-0.014419777 0.092396125 -0.037887204 -0.29191086 0.2637116 -0.2806977 0.15319307 -0.14146098
0.2565361 0.27399713 0.114659846 0.31361797 0.30925086 -0.20081142 0.2865855 -0.04753726
-0.30078873 -0.23946945 0.27741274 0.22884111 0.10962156 0.20381114 0.06090528 -0.28068233
0.12604205 -0.23437643 -0.029783873 -0.29822662 -0.055966523 -0.13850643 0.13644812 0.2297385
-0.07191274 0.04786564 -0.28993368 0.032295343 0.014757885 -0.08229762 -0.25116327 0.15881999
0.15110467 -0.26031336 0.059579883 -0.018824179 -0.14275922 0.31584543 -0.2407463 0.023214856
0.08885488 0.1278686 -0.070369564 0.14840393 0.13701724 -0.2964254 -0.12716222 0.16010463
0.26086 0.12147853 -0.040412735 0.03277666 0.008172809 0.27661142 0.17147873 -0.05503834
-0.03311718 0.14907497 -0.30027053 0.09683076 0.21428385 0.25545245 -0.13268039 -0.04461278
0.013609399 -0.017766882 -0.16410922 0.02407669 -0.18040772 -0.03212902 0.033926576 0.2033328
-0.24538408 -0.030916639 0.18833347 0.04092376 -0.24214992 0.29217127 -0.24893509 0.0057348884
-0.047919624 -0.27755418 -0.25123864 0.2303815 -0.0940942 0.28190404 -0.25009927 0.26942113
-0.02030949 -0.06987859 0.0037742148 0.22158284 -0.27964154 0.24739535 0.2040872 -0.14786169
-0.109414265 -0.11647527 0.17714977 -0.2048727 0.15591775 0.20644474 -0.015293563 -0.05876189
-0.05153928 0.18638602 0.15310863 0.09760668 -0.19298266 -0.08830654 0.21628562 0.1480959
0.310797 0.25313592 -0.1460011 -0.13453366 -0.24809764 0.31573275 -0.103298105 -0.127612
0.103032 0.09653672 -0.08437052 0.093040526 0.16835368 -0.27933937 0.2387157 0.21686567
0.25233388 -0.100444496 -0.03741746 0.19997111 -0.050073683 0.0069372053 0.21323569 -0.009662757
-0.22932874 -0.10021556 -0.28733233 0.3139004 0.16680537 0.001648917 -0.31049603 -0.15838519
-0.054453127 -0.045706037 -0.06922967 0.0827008 0.0020493 0.005757243 0.1432314 -0.16117543
-0.1801323 0.019733323 0.22511093 -0.2711915 -0.14804702 -0.11205146 0.29861808 -0.21621928
0.040564843 0.107559636 -0.30999625 0.009328194 -0.05397049 -0.061313316 -0.1444303 -0.056069665
0.10206096 0.15535545 0.24651173 -0.09518591 0.15852162 0.0147890225 -0.16697052 0.08451852
0.0029528285 -0.28934878 0.06886359 -0.107635364 -0.15529571 0.19680686 0.07885605 -0.23998326
00000000: 05df aebc ab80 90be fec1 91be 96b5 87be
00000010: 4cbc 9e3e 0601 1a3d 2a05 35bd d3a3 79be
00000020: 34b3 503e 25b7 533d cc1a 95be 6688 e93d
00000030: 4599 7bbb a97d aebd 01f7 e0bd fea4 113d
00000040: 8fd5 943e b89e 53bd 0596 acbd 2db3 6f3e
00000050: 8be2 8ebe d0af b9bd 32ce 7fbe 0994 40be
00000060: 519a a7bd 5028 1b3e fd9c bbbb de27 98be
00000070: bc24 75be 4d4d 9abe 3249 80be fb61 41be
00000080: db8b 90be e2d9 65bd e1e7 a2bc 8ca4 29bd
00000090: f50a c9bd 55ac e6bd 28d4 61be 39c5 00be
000000a0: 5b56 6c3e e88b 423e fd3e 873c 0293 8e3b
000000b0: a914 963e fa69 a13d 3db3 8a3e d171 13bd
000000c0: 36f2 fb3c 0398 f9bd 1eb2 893e caa5 7c3e
000000d0: 7fda 1e3e 4a4f 7f3e 02ca 813e 7e1c 43bc
000000e0: 3734 fe3d d963 b13d 85e9 d2bd 33b9 82be
000000f0: f548 ccbd 7fa7 a03e 6db0 8d3e 301e d6bd
00000100: ee40 6cbc 2e3a bd3d 9d2f 1bbd 5775 95be
00000110: 3505 873e 9cb7 8fbe a5de 1c3e 26db 10be
00000120: b358 833e 5a49 8c3e c8d2 ea3d 8992 a03e
00000130: 2156 9e3e 82a1 4dbe 56bb 923e 6eb6 42bd
00000140: fb00 9abe 7b37 75be 0b09 8e3e 5355 6a3e
00000150: 4581 e03d deb3 503e d177 793d 98b5 8fbe
00000160: 2b11 013e 6000 70be 4ffd f3bc 29b1 98be
00000170: 273d 65bd a1d4 0dbe 0eb9 0b3e 9240 6b3e
00000180: fd46 93bd c30e 443d 3072 94be 1f48 043d
00000190: 0ecb 713c a88b a8bd 7998 80be b5a1 223e
000001a0: 2fbb 1a3e cb47 85be 090a 743d 2a35 9abc
000001b0: 792f 12be 7eb6 a13e 3386 76be 152d be3c
000001c0: 8cf9 b53d fcef 023e eb1d 90bd 33f7 173e
000001d0: 3f4e 0c3e 12c5 97be d036 02be 78f2 233e
000001e0: 718f 853e bcc9 f83d d387 25bd d240 063d
000001f0: 3fe7 053c 03a0 8d3e 1f98 2f3e e26f 61bd
00000200: e1a5 07bd 1ca7 183e 0fbd 99be 354f c63d
00000210: 3a6d 5b3e aaca 823e 5edd 07be e4bb 36bd
00000220: f5f9 5e3c da8b 91bc 3f0c 28be 7b3c c53c
00000230: cdbc 38be b899 03bd 98f6 0a3d 7936 503e
00000240: f745 7bbe e444 fdbc 7dda 403e ac9f 273d
00000250: 26f6 77be 7997 953e d7e8 7ebe bbeb bb3b
00000260: 5e47 44bd 951b 8ebe 5aa2 80be 21e9 6b3e
00000270: 76b4 c0bd ba55 903e 030d 80be 91f1 893e
00000280: 1660 a6bc 821c 8fbd d158 773b 9de6 623e
00000290: 2d2d 8fbe 3555 7d3e 3cfc 503e 0e69 17be
000002a0: 9614 e0bd 968a eebd c066 353e 26ca 51be
000002b0: e7a8 1f3e 4066 533e da91 7abc 4fb0 70bd
000002c0: da1a 53bd fadb 3e3e 82c8 1c3e 03e6 c73d
000002d0: 3f9d 45be 0fda b4bd fa79 5d3e 74a6 173e
000002e0: c920 9f3e 089b 813e 5081 15be 31c3 09be
000002f0: 4f0d 7ebe b9a7 a13e f58d d3bd b8ac 02be
00000300: 7102 d33d 0bb5 c53d 74ca acbd 088c be3d
00000310: e864 2c3e 9205 8fbe e371 743e 0912 5e3e
00000320: e831 813e d8b5 cdbd 0d43 19bd 3ac5 4c3e
00000330: 101a 4dbd 7f51 e33b 755a 5a3e 8a50 1ebc
00000340: 27d5 6abe d13d cdbd 391d 93be 8eb7 a03e
00000350: 07cf 2a3e 7920 d83a 56f9 9ebe ba2f 22be
00000360: 3e0a 5fbd 4136 3bbd 49c8 8dbd 095f a93d
00000370: 8c4d 063b 41a7 bc3b 41ab 123e 2c0b 25be
00000380: 9a74 38be c7a7 a13c 7b83 663e 9dd9 8abe
00000390: a399 17be 3c7b e5bd 78e4 983e 9668 5dbe
000003a0: 5227 263d 3a48 dc3d d4b7 9ebe 48d5 183c
000003b0: 2910 5dbd ac23 7bbd 89e5 13be 4ea9 65bd
000003c0: 5605 d13d 8015 1f3e 926d 7c3e d5f0 c2bd
000003d0: 7e53 223e a84d 723c 52fa 2abe 0c18 ad3d
000003e0: 3e84 413b 8625 94be 5b08 8d3d ee6f dcbd
000003f0: d705 1fbe bd87 493e 487f a13d 2cbe 75be

bias_ih_l0 f4 [40]
1.3801063 1.9676411 -0.35624012 1.5708709 -0.6862836 -0.6982354 0.109618336 1.2369268
1.3618988 -1.0355693 -0.12590928 0.12692304 -0.2874813 -0.021292107 -0.21661416 -0.13223673
0.109174475 0.017048184 0.26305106 -0.29070497 -1.1088967 -1.2367369 -0.51174754 1.133058
-0.27802745 -0.11422339 -0.5881801 -0.985298 0.8167892 -0.027261565 1.4928457 2.3232749
-0.31932876 1.4791002 -0.7970082 -0.18043841 -0.23170978 1.4724795 1.2401302 -0.48447332
00000000: 53a7 b03f aadb fb3f 1b65 b6be 4c12 c93f
00000010: 48b0 2fbf 8ebf 32bf 947f e03d 9e53 9e3f
00000020: b352 ae3f 898d 84bf 5dee 00be 1df8 013e
00000030: c030 93be c96c aebc 1ad0 5dbe 1169 07be
00000040: de96 df3d a2a8 8b3c a1ae 863e 48d7 94be
00000050: 54f0 8dbf 654d 9ebf e301 03bf 0b08 913f
00000060: 9d59 8ebe f4ed e9bd f992 16bf 7d3c 7cbf
00000070: 1919 513f a553 dfbc 9115 bf3f 89b0 1440
00000080: 0f7f a3be 2853 bd3f bb08 4cbf d9c4 38be
00000090: 5445 6dbe 357a bc3f 96bc 9e3f e30c f8be

bias_hh_l0 f4 [40]
1.1047041 1.9475228 -0.1309565 1.5474885 -1.0929167 -0.6591812 -0.19680043 1.4049231
1.0258244 -0.9101082 0.24705113 0.011277407 0.2604101 -0.036152303 0.23187996 0.018766237
-0.06421371 0.18384182 -0.1463173 0.3111698 -1.0295932 -1.4199666 -0.31500077 1.151352
0.19143562 -0.12602329 -0.35492244 -1.0881158 1.2135834 -0.0052281604 1.3139421 2.1472528
-0.3264 1.5995482 -1.2315509 -0.33352146 -0.018240616 1.2468134 1.5764713 -0.96316475
00000000: f266 8d3f 6d48 f93f 7619 06be 1a14 c63f
00000010: b2e4 8bbf 19c0 28bf 0d86 49be 85d4 b33f
00000020: 374e 833f dafc 68bf f9fa 7c3e e0c4 383c
00000030: 7954 853e 7014 14bd f171 6d3e a7bb 993c
00000040: 7a82 83bd 0841 3c3e 34d4 15be a651 9f3e
00000050: b6c9 83bf 77c1 b5bf c847 a1be 815f 933f
00000060: b307 443e 400c 01be 65b8 b5be 6147 8bbf
00000070: b356 9b3f fd50 abbb 412f a83f 976c 0940
00000080: e71d a7be ffbd cc3f 76a3 9dbf 53c3 aabe
00000090: 586d 95bc 9597 9f3f d0c9 c93f f791 76bf

weight_ih_l0 f4 [80, 10]
1.1444739 3.2531016 0.103503935 -1.6393881 -0.14139183 0.024117675 0.33162513 1.3439001
-1.629308 -0.07045892 1.3643371 2.2986987 0.068535216 -1.4033747 -0.25899675 0.2916359
0.5296405 1.1782997 -0.98953784 -0.10791478 1.2255597 2.1529574 0.4042171 -1.5110127
-0.06347933 0.08348449 0.4504377 1.2025409 -0.77228403 -0.06971322 1.5176916 1.9473038
0.276811 -1.5672055 0.20942202 0.15205748 0.28741643 1.5258499 -0.85393703 0.043640047
1.1729895 1.297135 0.49088702 -1.4410553 0.31260034 0.5361769 0.6914302 1.2031364
-0.5480996 -0.061359975 1.1458338 2.72041 0.3779835 -1.5828888 0.14801842 -0.05803659
0.20143764 1.3392935 -0.95797455 -0.03908536 1.1698375 2.2752447 0.2749638 -1.3756287
0.06505136 -0.10273436 0.298127 1.3790925 -1.1196256 0.14411987 1.0962939 0.81946886
0.34061038 -1.1429619 0.27307805 0.41712052 0.22570442 1.005652 -0.49698454 0.18971024
1.1089426 1.0467106 0.34002724 -1.3835843 0.05667081 0.3426497 0.14915197 1.1207854
-0.5284126 0.24590135 1.048471 2.8845003 0.38022026 -1.609378 0.08709747 -0.047686487
0.1827394 1.258682 -1.3848811 0.19848204 0.7568894 1.3011398 0.31854463 -1.3224553
-0.016531764 0.29316288 0.024144003 0.78588825 -0.304796 0.031031715 1.0931922 1.0716178
0.2671787 -1.3160064 -0.0007797277 0.20836152 0.5424905 1.0539331 -0.42448482 -0.19215132
1.1129823 1.2106354 0.44100794 -1.2088412 0.2276169 0.101164944 0.28383625 1.2228022
-0.67348146 0.22929025 0.8366153 1.4023938 0.43944702 -0.99576634 -0.036332615 0.063360706
0.65516734 1.5150838 -0.525418 -0.051384803 1.2324188 1.8531637 0.3135512 -1.2481235
0.25125554 0.18854614 0.13207789 1.1152303 -0.86642927 -0.031732745 1.2523372 1.0881964
0.17962627 -1.2035277 0.114077546 0.50493497 0.16072597 0.87333703 -0.7725263 0.22194095
1.0405347 1.058929 0.5265483 -1.1738638 0.10406364 0.52539796 0.2282805 0.8939822
-0.6066792 -0.0052620424 1.2541264 2.4922507 0.10563134 -1.3869817 -0.13804813 -0.13186964
0.15792406 1.3234334 -1.2176871 0.2900281 1.1404595 1.4310884 0.25698873 -1.2366117
0.25250313 0.03213894 0.041950017 0.8925261 -0.8062884 0.09143293 1.1585852 2.669834
0.24948372 -1.6271656 -0.025154456 -0.0025671956 0.44907796 1.2319741 -1.3970388 -0.14948858
-0.020899083 0.2094398 0.11401321 -0.026589073 0.12232247 -0.106520176 0.17616305 0.15312436
0.21778528 -0.11924514 -0.11416061 0.05357735 -0.17333154 -0.13276896 0.1629543 0.039770443
0.02564721 0.20103452 0.04245425 0.021411784 0.124237835 -0.008262109 -0.18150435 -0.12412125
-0.108006544 -0.10292188 0.055615146 -0.16998318 -0.15713441 0.02697977 0.04828749 0.007596429
0.12194286 -0.07422 0.1904062 -0.1324014 -0.04095541 0.15875393 0.117505275 0.1796025
0.16583408 0.022898763 -0.19349799 -0.1744472 -0.142234 0.16112234 -0.08784082 0.19804592
-0.035258487 -0.19820759 -0.07457122 0.20161977 -0.1608513 0.1240694 0.002112622 0.1800156
00000000: 1f7e 923f d132 5040 dff9 d33d 78d7 d1bf
00000010: 05c9 10be 6e92 c53c c5ca a93e eb04 ac3f
00000020: 2a8d d0bf c44c 90bd 99a2 ae3f e11d 1340
00000030: 315c 8c3d c8a1 b3bf 399b 84be 4d51 953e
00000040: 8596 073f 86d2 963f 5a52 7dbf 6d02 ddbd
00000050: 24df 9c3f 0eca 0940 8bf5 ce3e dd68 c1bf
00000060: 7301 82bd ebf9 aa3d c59f e63e dcec 993f
00000070: 68b4 45bf cec5 8ebd b843 c23f 4041 f93f
00000080: 2cba 8d3e 319a c8bf ba72 563e f5b4 1b3e
00000090: 3f28 933e 0d4f c33f 9e9b 5abf e8bf 323d
000000a0: 8524 963f 8508 a63f 8b55 fb3e 8074 b8bf
000000b0: 270d a03e e442 093f 9201 313f 6000 9a3f
000000c0: 4150 0cbf 9954 7bbd afaa 923f 331b 2e40
000000d0: 0e87 c13e 1a9c cabf 2492 173e c7b7 6dbd
000000e0: ab45 4e3e f86d ab3f d23d 75bf f817 20bd
000000f0: 3cbd 953f 9c9d 1140 0ec8 8c3e 9a14 b0bf
00000100: a639 853d 6466 d2bd 1aa4 983e 1a86 b03f
00000110: e44f 8fbf 2994 133e 5c53 8c3f b6c8 513f
00000120: 7c64 ae3e 934c 92bf e3d0 8b3e d290 d53e
00000130: 0f1f 673e 34b9 803f c274 febe 6743 423e
00000140: d5f1 8d3f 9dfa 853f 0d18 ae3e 4a19 b1bf
00000150: a71f 683d c86f af3e 4bbb 183e e575 8f3f
00000160: 0c46 07bf 90cd 7b3e 4c34 863f a79b 3840
00000170: 3bac c23e 1900 cebf 2960 b23d e852 43bd
00000180: 0a20 3b3e 7e1c a13f c943 b1bf e03e 4b3e
00000190: 81c3 413f c08b a63f 4818 a33e 3746 a9bf
000001a0: 9f6d 87bc 7219 963e a5c9 c53c f92f 493f
000001b0: 390e 9cbe 3936 fe3c b9ed 8b3f c62a 893f
000001c0: a6cb 883e e672 a8bf a466 4cba b95c 553e
000001d0: a8e0 0a3f 48e7 863f 1356 d9be 51c3 44be
000001e0: 3476 8e3f 1af6 9a3f cbcb e13e 4fbb 9abf
000001f0: 6814 693e 912f cf3d fc52 913e c884 9c3f
00000200: 4869 2cbf 10cb 6a3e 6c2c 563f a481 b33f
00000210: 33ff e03e 8bea 7ebf 82d1 14bd 42c3 813d
00000220: 0cb9 273f 44ee c13f cb81 06bf df78 52bd
00000230: e6bf 9d3f 7834 ed3f c889 a03e 83c2 9fbf
00000240: 91a4 803e 3d12 413e 6d3f 073e debf 8e3f
00000250: 4fce 5dbf 32fa 01bd 964c a03f 054a 8b3f
00000260: f3ef 373e 320d 9abf 7da1 e93d 6b43 013f
00000270: 5995 243e 0493 5f3f 49c4 45bf 7d44 633e
00000280: 3e30 853f fc8a 873f dfcb 063f 2b41 96bf
00000290: 511f d53d 7b80 063f 5dc2 693e 04dc 643f
000002a0: 544f 1bbf 366d acbb 3787 a03f 0981 1f40
000002b0: 3e55 d83d 9e88 b1bf 7d5c 0dbe d608 07be
000002c0: d8b6 213e 4466 a93f 2cdd 9bbf 907e 943e
000002d0: 94fa 913f e82d b73f 0794 833e 4b49 9ebf
000002e0: 1748 813e 1fa4 033d c8d3 2b3d 977c 643f
000002f0: eb68 4ebf 3041 bb3d 854c 943f 8fde 2a40
00000300: a978 7f3e f646 d0bf b810 cebc 653e 28bb
00000310: 8ced e53e 54b1 9d3f 2bd2 b2bf 8913 19be
00000320: 8e34 abbc 6377 563e c27f e93d 54d1 d9bc
00000330: 3484 fa3d 4027 dabd 1664 343e a2cc 1c3e
00000340: 1b03 5f3e cc36 f4bd 0acd e9bd ec73 5b3d
00000350: d37d 31be 96f4 07be 7edd 263e 55e6 223d
00000360: 191a d23c fedb 4d3e 82e4 2d3d c467 af3c
00000370: 6870 fe3d cc5d 07bc 47dc 39be 4833 febd
00000380: 8932 ddbd b5c8 d2bd b5cc 633d 1210 2ebe
00000390: d8e7 20be ae04 dd3c 1ac9 453d 77eb f83b
000003a0: 2ebd f93d a800 98bd d8f9 423e 3c94 07be
000003b0: dcc0 27bd 6490 223e 9ba6 f03d b8e9 373e
000003c0: 69d0 293e 3096 bb3c 5624 46be 49a2 32be
000003d0: caa5 11be 41fd 243e e3e5 b3bd 8dcc 4a3e
000003e0: 346b 10bd eef6 4abe ccb8 98bd 6a75 4e3e
000003f0: 34b6 24be 1918 fe3d ea73 0a3b 0256 383e
