VAE/AE5/model.pth (torch, 15698 bytes, 12 tensors)

weight f4 [20, 41]
2.2525356 3.4654489 -0.0443151 -0.023410516 -2.2432952 -1.3638108 -1.0780268 0.1058436
-0.02563924 1.8265043 0.8299926 -2.395091 2.410957 0.7889633 -0.019241504 -0.043116603
0.120938584 0.034445588 -0.73899955 0.13382538 0.13431118 0.7956386 -3.5569303 -0.89909923
-0.476652 0.44543755 1.846133 0.99340445 0.86821824 -0.34449047 1.297287 -0.1890397
-0.12817134 -1.7346544 0.56028754 0.24493362 -0.37316376 0.4638413 1.1324857 -0.096841775
0.5119772 1.5025939 0.025777798 0.48171908 -0.31430325 1.0092461 0.46747136 -0.1440887
0.06904685 -0.024565823 -0.5535014 0.33029354 0.3158855 -0.7294626 0.27498165 -0.32745367
-0.58578944 0.62900877 0.9843663 -0.5269408 0.07508357 -0.07893751 0.33111617 1.8915617
-1.3721277 -0.8208379 0.43076044 -1.0659237 -0.48251063 1.3793184 -0.053020876 0.7359988
-0.8014294 1.1272923 -1.5765432 1.6086783 2.3752818 0.4752982 -0.925092 0.012677599
0.6754901 -0.2025146 0.8478004 -0.36391547 -1.0610838 0.2075848 0.71072334 -1.670982
-0.08734955 0.030866416 -0.19316463 -0.819269 0.559196 1.0372834 0.016354138 0.22830305
-0.46643507 4.2212863 0.41869116 -0.032016385 0.14021839 0.14489771 0.14542654 -3.0892234
1.2107682 3.1628807 0.21845537 -0.20394245 0.87120426 0.42239538 -2.0184379 1.1687073
-0.014462905 -0.5768787 0.8134867 -0.3674244 -0.063606985 -1.6951952 -0.47348532 -2.127721
1.3430281 0.6344777 0.8323384 -1.2062876 2.8423245 0.8698557 1.4810122 -1.270126
3.4030027 -0.17922226 -0.06351567 0.099751964 -1.1276184 -0.023333786 -3.7718475 0.46393222
-0.64018047 -0.4065122 0.93573797 -0.043729145 -0.45264107 -0.04129562 -0.08045287 0.06650228
0.24946797 1.5072838 3.769522 -0.43893 0.5370654 -0.1946831 0.26194113 -0.80545586
1.6800058 0.102098644 1.2910984 0.2870027 0.30660447 -0.57369685 -2.5753736 0.25500363
-0.35668114 -0.3796995 -0.38300288 -2.2957025 -0.1196331 -0.08504773 -0.19240578 -0.17502536
-0.14031935 -0.033355296 -0.102662675 0.089325555 0.13222927 -0.055180497 -0.13957207 0.11068597
0.045012616 0.007801811 0.049701676 0.029589098 -0.05459469 0.015090602 -0.056636646 0.06373848
-0.0685719 0.052267335 -0.06537278 -0.16641444 0.0912881 -0.0048769806 0.11865762 -0.11544231
-0.01422481 -0.004323033 -0.03037757 -0.096569315 0.0937606 -0.11506261 0.043317292 -0.054649312
0.0071560973 0.120878495 0.042321313 -0.17576213 -0.09726443 0.92852783 0.892044 -0.5125745
-1.5246868 -6.996703 -3.4912555 0.19593473 0.09696044 0.10000775 0.34130186 -0.6594958
-5.649938 0.13631597 -0.008447811 -0.012268415 -1.0919572 0.00011835428 0.13785739 -0.082570925
-0.12774207 -0.11410748 -0.06939328 5.967503 8.312757 -10.112249 -2.644446 2.063189
0.5992153 0.27384564 -0.24468301 1.3871322 0.14391269 -0.3692562 3.0369189 0.35145015
-2.1151743 0.33155632 -2.0153682 -1.4909052 -0.8493258 0.5597371 0.11963318 2.5138369
-1.8437215 -0.21289004 -1.833241 0.36437505 0.14337684 -0.07323304 -0.1038551 -1.8064878
00000000: 8b29 1040 eac9 5d40 c083 35bd 69c7 bfbc
00000010: 2692 0fc0 5a91 aebf c8fc 89bf 88c4 d83d
00000020: 6209 d2bc e5ca e93f 657a 543f 2c49 19c0
00000030: 1f4d 1a40 80f9 493f 5ca0 9dbc 099b 30bd
00000040: a6ae f73d d116 0d3d 132f 3dbf 8509 093e
00000050: df88 093e f9ae 4b3f bfa4 63c0 5e2b 66bf
00000060: bb0b f4be 6410 e43e 164e ec3f c14f 7e3f
00000070: 8d43 5e3f 0e61 b0be 800d a63f a093 41be
00000080: 593f 03be 2809 debf 016f 0f3f e1cf 7a3e
00000090: 520f bfbe 9b7c ed3e 4bf5 903f fb54 c6bd
000000a0: f010 033f ff54 c03f f62b d33c e2a3 f63e
000000b0: 5bec a0be fa2e 813f 6858 ef3e fd8b 13be
000000c0: 6f68 8d3d 443e c9bc 45b2 0dbf 3c1c a93e
000000d0: bfbb a13e 10be 3abf 65ca 8c3e 02a8 a7be
000000e0: 4cf6 15bf b806 213f 6eff 7b3f 98e5 06bf
000000f0: 6ac5 993d fda9 a1bd 0f88 a93e b21e f23f
00000100: e1a1 afbf 6f22 52bf a28c dc3e 3070 88bf
00000110: a20b f7be 818d b03f 6b2c 59bd 6b6a 3c3f
00000120: 7a2a 4dbf 1d4b 903f 2bcc c9bf 2ce9 cd3f
00000130: 9e04 1840 495a f33e d4d2 6cbf b4b5 4f3c
00000140: ebec 2c3f fd5f 4fbe 7209 593f 2153 babe
00000150: 98d1 87bf 1c91 543e f7f1 353f bde2 d5bf
00000160: 52e4 b2bd 91db fc3c f3cc 45be 9dbb 51bf
00000170: 7827 0f3f b4c5 843f 1df9 853c 46c8 693e
00000180: 94d0 eebe c714 8740 b05e d63e 9d23 03bd
00000190: 6995 0f3e 1160 143e b2ea 143e d6b5 45c0
000001a0: 74fa 9a3f a36c 4a40 c4b2 5f3e 4ad6 50be
000001b0: 3e07 5f3f 3544 d83e 162e 01c0 3398 953f
000001c0: d2f5 6cbc 53ae 13bf aa40 503f 0d1f bcbe
000001d0: 6144 82bd 28fc d8bf ab6c f2be 952c 08c0
000001e0: 58e8 ab3f 216d 223f 2114 553f a267 9abf
000001f0: a5e8 3540 ddae 5e3f cf91 bd3f 7d93 a2bf
00000200: ccca 5940 0a86 37be 8114 82bd c24a cc3d
00000210: cd55 90bf 7f26 bfbc f365 71c0 8688 ed3e
00000220: dee2 23bf 5e22 d0be 868c 6f3f 551d 33bd
00000230: 92c0 e7be 9925 29bd 79c4 a4bd 5932 883d
00000240: 8874 7f3e adee c03f d93f 7140 6fbb e0be
00000250: 1e7d 093f 025b 47be 261d 863e 5b32 4ebf
00000260: 6e0a d73f 1819 d13d b642 a53f 05f2 923e
00000270: 43fb 9c3e ccdd 12bf ecd2 24c0 d68f 823e
00000280: e99e b6be f967 c2be f418 c4be caec 12c0
00000290: 3302 f5bd 812d aebd 0506 45be d939 33be
000002a0: e0af 0fbe 909f 08bd cf40 d2bd 51f0 b63d
000002b0: 1c67 073e f204 62bd fbeb 0ebe 53af e23d
000002c0: 265f 383d 56a6 ff3b fc93 4b3d d664 f23c
000002d0: af9e 5fbd 933e 773c d4fb 67bd 5289 823d
000002e0: 6d6f 8cbd 4616 563d 2ae2 85bd 8c68 2abe
000002f0: 41f5 ba3d 14cf 9fbb c402 f33d 056d ecbd
00000300: 2d0f 69bc 3ba8 8dbb 62da f8bc 22c6 c5bd
00000310: 8f05 c03d f2a5 ebbd 796d 313d f5d7 5fbd
00000320: b27d ea3b 258f f73d 1d59 2d3d fdfa 33be
00000330: 9332 c7bd 00b4 6d3f ff5c 643f 1538 03bf
00000340: f028 c3bf fee4 dfc0 bb70 5fc0 1da3 483e
00000350: 3293 c63d ddd0 cc3d 1ebf ae3e b7d4 28bf
00000360: 4bcc b4c0 6a96 0b3e b068 0abc 7601 49bc
00000370: 41c5 8bbf f834 f838 7d2a 0d3e f21a a9bd
00000380: d1ce 02be 2fb1 e9bd 101e 8ebd c9f5 be40
00000390: 0d01 0541 c6cb 21c1 9a3e 29c0 4a0b 0440
000003a0: 2d66 193f 7f35 8c3e 2f8e 7abe 8c8d b13f
000003b0: d95d 133e 260f bdbe e15c 4240 46f1 b33e
000003c0: 045f 07c0 c0c1 a93e cbfb 00c0 fbd5 bebf
000003d0: 6a6d 59bf ee4a 0f3f 3e02 f53d b4e2 2040
000003e0: 11ff ebbf d9ff 59be a4a7 eabf 5e8f ba3e
000003f0: 61d1 123e 34fb 95bd fcb1 d4bd fe3a e7bf

bias f4 [20]
-0.028506514 -0.79003495 1.3962947 0.7224685 -0.08428099 0.012203254 -0.3562989 0.7325806
-1.5943441 0.6249353 0.20833771 -0.6253275 -0.11087036 1.5857294 -1.1622045 -0.35907212
-3.0381103 -1.51682 -0.7922007 -1.3946656
00000000: 7e86 e9bc bb3f 4abf c9b9 b23f b2f3 383f
00000010: 839b acbd 28f0 473c cf6c b6be 678a 3b3f
00000020: 7813 ccbf c3fb 1f3f 7b56 553e 7715 20bf
00000030: 0010 e3bd 2ef9 ca3f 1ec3 94bf 4dd8 b7be
00000040: 6670 42c0 2827 c2bf aacd 4abf 6784 b2bf

weight f4 [10, 20]
-1.4339415 -1.8193316 -1.374378 1.4982091 0.09431345 -0.15501615 0.33934563 -0.5208745
-0.36922187 0.6146317 0.77701944 -5.882533 0.008156509 0.150281 -0.36956742 -2.4014142
0.049876552 -0.81354797 -0.07602726 0.30082917 -0.37080368 -0.3160549 -0.3490195 0.56422675
-0.20114191 -4.0578337 0.17668366 0.75298554 4.2309346 0.22938949 0.3145462 0.14832981
0.011748404 -0.38055602 -11.836014 -0.9627587 0.50463593 -0.813734 -0.2962594 -2.4653153
-10.009817 0.12010421 -0.806431 -0.5192085 -0.07653877 -0.4178136 0.078398384 0.30717272
-0.16277741 0.5129474 0.24381202 0.7918212 -0.07834771 -0.09097287 0.1671842 0.07732938
1.8693104 -0.47665885 -0.26965496 -0.0402459 -0.19773847 0.36654705 -1.1652431 -0.55144054
0.11945717 0.4290209 1.2022326 0.5392751 -0.92904687 0.028279085 0.7310678 -1.2915008
0.17203137 -0.028339025 1.502506 -0.016076911 0.10689624 -1.4572157 -0.6356458 -0.17101377
-0.22349837 -0.13346748 -0.087800555 0.35536912 -0.12173812 -0.23041815 0.49011198 0.042646542
-0.17207472 -0.5768728 0.90187967 -1.2979584 -0.19213913 0.07546205 0.020671278 0.018149074
-1.0921478 -0.20643458 1.946144 0.32627156 -0.1787697 -0.01980794 0.007830662 -0.13719861
-0.19659904 -0.09283342 -0.05817017 -0.016906602 0.046506654 -0.28666967 -0.2877226 -0.1908788
-0.047385745 -0.019887663 -0.06537337 0.098273896 0.012688597 0.1338385 -0.107449725 -0.1380478
1.1118555 1.1766509 -2.802431 0.33659366 0.20603934 0.614794 -1.5341547 0.9465142
1.4829146 -1.0537404 -0.6751385 -2.3864524 -0.11498698 -0.2412993 -0.6768578 1.6119901
-0.80224335 -0.8548083 -3.2686796 -0.81909746 -0.06308254 -0.2927435 -0.16942424 -0.11404658
0.04076069 -0.092391476 -0.06864856 -0.04835723 -0.05329536 -0.09988297 0.017113449 0.030210018
-0.053640764 -0.0116799185 -0.01899956 0.029047135 0.07553136 -0.14728665 -0.3243127 -0.18920876
-0.5072228 -1.7267948 0.6141341 1.1744725 -0.052906472 -0.16785415 1.1216489 -1.0561022
-0.19530793 1.5856361 -0.8934966 -6.056146 0.08561058 -1.3252141 -0.50133795 -0.5173523
0.8940213 0.43582213 -0.44510192 -0.4884065 2.350821 -5.610247 -0.78847605 0.73282486
0.15440889 -0.6501791 -0.39284587 -0.570418 1.0898107 0.7684527 -2.559222 0.29774404
0.06662389 -3.0365262 2.5047538 0.17847988 0.12011484 -2.6615808 2.2869325 0.69060105
00000000: 658b b7bf dcdf e8bf 9eeb afbf 51c5 bf3f
00000010: 6927 c13d 8ebc 1ebe b6be ad3e 0858 05bf
00000020: a60a bdbe 8158 1d3f bfea 463f b63d bcc0
00000030: e1a2 053c 43e3 193e f137 bdbe c5b0 19c0
00000040: 5b4b 4c3d ae44 50bf 2eb4 9bbd 4806 9a3e
00000050: fbd9 bdbe f3d1 a1be afb2 b2be 2a71 103f
00000060: 25f8 4dbe c6d9 81c0 90ec 343e a9c3 403f
00000070: d163 8740 14e5 6a3e 330c a13e c5e3 173e
00000080: 617c 403c 3dd8 c2be 5060 3dc1 5b77 76bf
00000090: d22f 013f df50 50bf 50af 97be bac7 1dc0
000000a0: 3628 20c1 32f9 f53d 4372 4ebf d9ea 04bf
000000b0: 5cc0 9cbd aaeb d5be 558f a03d be45 9d3e
000000c0: 1faf 26be 8550 033f dca9 793e cbb4 4a3f
000000d0: c474 a0bd fc4f babd 5632 2b3e de5e 9e3d
000000e0: 9045 ef3f a10c f4be 3710 8abe e3d8 24bd
000000f0: f47b 4abe 0eac bb3e b026 95bf 352b 0dbf
00000100: f6a5 f43d a1a8 db3e c2e2 993f ef0d 0a3f
00000110: 04d6 6dbf 8aa9 e73c 4227 3b3f e64f a5bf
00000120: fe28 303e 3e27 e8bc 1e52 c03f bab3 83bc
00000130: 6aec da3d 0b86 babf afb9 22bf 3c1e 2fbe
00000140: c2dc 64be b3ab 08be c7d0 b3bd f1f2 b53e
00000150: d651 f9bd bcf2 6bbe f5ef fa3e 24ae 2e3d
00000160: 5b34 30be f0ad 13bf 96e1 663f 8023 a6bf
00000170: 1fc0 44be d98b 9a3d d056 a93c 5ead 943c
00000180: 80cb 8bbf 9663 53be 3f1b f93f 110d a73e
00000190: 670f 37be 4344 a2bc 2d4c 003c cb7d 0cbe
000001a0: 4251 49be 731f bebd d843 6ebd b77f 8abc
000001b0: c37d 3e3d 5ec6 92be 6050 93be bb75 43be
000001c0: 8e17 42bd 74eb a2bc 79e2 85bd d343 c93d
000001d0: d5e3 4f3c f60c 093e 9a0e dcbd 675c 0dbe
000001e0: 4851 8e3f 7f9c 963f 085b 33c0 0156 ac3e
000001f0: fafb 523e 2463 1d3f 2e5f c4bf c14e 723f
00000200: 25d0 bd3f f7e0 86bf e0d5 2cbf a3bb 18c0
00000210: 4b7e ebbd 2a17 77be 8e46 2dbf b155 ce3f
00000220: d25f 4dbf b7d4 5abf 0c32 51c0 5fb0 51bf
00000230: 6b31 81bd 7ae2 95be 8c7d 2dbe 4191 e9bd
00000240: aef4 263d be37 bdbd 9e97 8cbd 3b12 46bd
00000250: 3c4c 5abd 718f ccbd 8131 8c3c 007b f73c
00000260: 6bb6 5bbd 215d 3fbc f7a4 9bbc 42f4 ed3c
00000270: 30b0 9a3d 50d2 16be 500c a6be f1bf 41be
00000280: 5ad9 01bf 9d07 ddbf e437 1d3f 1d55 963f
00000290: 75b4 58bd f5e1 2bbe 3192 8f3f 5b2e 87bf
000002a0: cdfe 47be 20f6 ca3f 31bc 64bf f3cb c1c0
000002b0: 9a54 af3d 9ea0 a9bf af57 00bf 3371 04bf
000002c0: 94de 643f 1424 df3e 66e4 e3be 6b10 fabe
000002d0: da73 1640 2587 b3c0 91d9 49bf 699a 3b3f
000002e0: 5d1d 1e3e 2372 26bf 1823 c9be ea06 12bf
000002f0: eb7e 8b3f 51b9 443f 4bca 23c0 e871 983e
00000300: 1b72 883d 7256 42c0 e34d 2040 6ec3 363e
00000310: c5fe f53d 5757 2ac0 1a5d 1240 3bcb 303f

bias f4 [10]
-1.1709074 0.98300683 2.0952046 -0.37358415 2.2260196 -0.319855 -2.98574 -0.31442136
-0.41327846 -2.5586226
00000000: 4be0 95bf 56a6 7b3f d517 0640 6c46 bfbe
00000010: 1b77 0e40 09c4 a3be 5d16 3fc0 d6fb a0be
00000020: 3c99 d3be 79c0 23c0

weight f4 [2, 10]
-0.007995199 -0.138054 -0.95201313 0.20411454 -0.22244814 -0.11758597 0.27774018 0.049508266
-0.12458944 0.011764762 0.327739 -1.34525 0.47328353 0.12443207 0.21112698 0.19578296
-0.9758924 0.004953888 0.41040415 0.8645177
00000000: 4cfe 02bc 075e 0dbe 22b7 73bf 6703 513e
00000010: 72c9 63be ead0 f0bd f633 8e3e 2ec9 4a3d
00000020: c028 ffbd fdc0 403c 68cd a73e 2731 acbf
00000030: 3852 f23e 3ed6 fe3d ac31 583e 547b 483e
00000040: 16d4 79bf 3954 a23b 7e20 d23e 0851 5d3f

bias f4 [2]
0.90488905 0.17769918
00000000: cfa6 673f c6f6 353e

weight f4 [10, 2]
0.0063365973 0.079538114 -0.55371445 -0.0038216251 1.101004 0.3390259 -0.41251096 -0.06483233
0.03583022 -0.0024549302 0.2776954 0.97905326 0.13829751 -0.16399474 0.8503444 1.9237645
-0.62839645 0.43072692 0.048517846 0.38078704
00000000: 3ba3 cf3b e1e4 a23d 3bc0 0dbf 3b74 7abb
00000010: b3ed 8c3f ce94 ad3e a334 d3be d0c6 84bd
00000020: b5c2 123d e5e2 20bb 172e 8e3e 3ca3 7a3f
00000030: dd9d 0d3e 3dee 27be 2cb0 593f ea3d f63f
00000040: 97de 20bf 3d88 dc3e a6ba 463d 85f6 c23e

bias f4 [10]
0.5543148 -0.48274434 -0.3272826 0.47133824 -0.36944088 -0.4312077 -0.6091242 -2.3519487
-0.72764134 1.564392
00000000: 93e7 0d3f 442a f7be 9691 a7be 3f53 f13e
00000010: 5b27 bdbe 41c7 dcbe 90ef 1bbf 5486 16c0
00000020: b446 3abf ff3d c83f

weight f4 [20, 10]
0.18554604 -3.3891408 -2.958965 0.6565844 -0.11890209 1.871841 0.03614844 -0.37646553
-1.5072042 -0.12195993 1.0510912 0.047445375 -1.7838211 0.31916478 0.25886554 -0.8428686
0.90112066 -0.30783036 -1.7653607 1.6511114 0.65089947 -0.37254572 -0.77519935 -1.0551344
0.043659784 -1.1169283 -0.633683 -1.1621346 0.8886191 2.2245176 1.4183267 -0.41643798
-0.40998197 0.09508098 0.050661113 -1.2134416 -0.51880044 -2.4680805 0.1619966 -0.08935987
-0.2264517 -0.15391539 2.6271832 -5.5503383 -0.419613 -0.33117038 -3.4299715 -1.1200186
-1.064574 -0.26745123 -0.07403155 -0.20612913 -0.13606708 0.17063546 0.17074051 -0.17017938
-0.26075664 -0.0013486204 -0.070755646 0.006695754 -0.7934212 -0.6110044 -0.9001617 -1.0462819
0.2799711 0.16335298 -0.18438996 0.7987059 0.85415256 -0.65725374 0.20862675 -0.16768791
0.8416966 1.0037777 0.2381447 -0.29402855 0.21473844 -0.8664358 -0.42298707 -0.8887712
-0.25779518 0.25288323 -2.965427 1.318411 0.047940113 0.26375228 -0.0028089322 1.1341718
-0.6677951 -0.44123936 0.5812959 0.07776176 -2.2446284 -0.39022794 0.04426483 -0.9285186
1.2658569 0.5740668 -0.6840297 0.4659524 0.4854631 -0.3782684 2.7163196 -0.8874467
0.034705915 -1.6511368 -1.4379027 -1.158273 0.68017966 0.6387474 0.9539909 0.6753604
-2.2150025 1.0561339 0.23766367 -0.45438665 -0.4111818 -0.20652418 0.044280816 0.2798306
-0.03298566 -0.31241533 -0.121208526 -0.093203306 -0.051800996 0.113499485 -0.112154074 -0.019015154
-0.008043544 -0.22658351 1.19104 -0.16949926 0.5346866 0.1557537 0.011167017 1.2108359
-0.60407937 -1.2508337 -0.44847137 0.7075731 0.1823956 -0.0860378 -1.2025634 0.595743
0.2927828 0.404981 0.53050256 0.8578289 0.36066648 -0.20694119 2.388998 0.024607116
3.3025331 1.1148838 -0.07824156 0.062945835 0.40826732 -0.3486667 -1.7592708 -6.053372
-0.14502804 0.5110772 1.163336 -0.74235004 0.14179721 1.8560791 -0.3887017 -3.1580925
-0.18064867 -0.32851627 0.32311085 -4.1011825 -1.3180636 0.41843927 -0.04684355 0.5201475
-1.7609322 0.20727885 -0.2503149 0.5622899 -0.14506847 0.00070119184 1.074871 0.03024885
0.10302517 -2.239038 -0.18308319 1.244625 -0.41433078 0.4990546 0.47171852 -0.91159
-0.34208852 1.766701 0.3850703 -0.8534495 -0.36181208 -0.018622736 -1.9674269 1.4602151
00000000: c8ff 3d3e afe7 58c0 af5f 3dc0 ea15 283f
00000010: f082 f3bd 7c98 ef3f 6310 143d 17c0 c0be
00000020: 11ec c0bf 21c6 f9bd 288a 863f 1556 423d
00000030: 4054 e4bf 9169 a33e 068a 843e 3dc6 57bf
00000040: d8af 663f f19b 9dbe 57f7 e1bf 9e57 d33f
00000050: 59a1 263f 50be bebe 7773 46bf a50e 87bf
00000060: 9ad4 323d 82f7 8ebf 0d39 22bf d4c0 94bf
00000070: 8b7c 633f 7f5e 0e40 bb8b b53f 5c37 d5be
00000080: 28e9 d1be d1b9 c23d 0782 4f3d 0e52 9bbf
00000090: 1bd0 04bf 08f5 1dc0 70e2 253e 4f02 b7bd
000000a0: f4e2 67be ff9b 1dbe c523 2840 5f9c b1c0
000000b0: 84d7 d6be 2a8f a9be a784 5bc0 c55c 8fbf
000000c0: f643 88bf 5eef 88be da9d 97bd 8413 53be
000000d0: 2b55 0bbe 10bb 2e3e 9ad6 2e3e 8143 2ebe
000000e0: e581 85be 31c4 b0ba 56e8 90bd 0e68 db3b
000000f0: a71d 4bbf c96a 1cbf ff70 66bf 91ec 85bf
00000100: 5f58 8f3e 0146 273e b9d0 3cbe fd77 4c3f
00000110: bea9 5a3f c841 28bf 40a2 553e 61b6 2bbe
00000120: 6e79 573f ca7b 803f 34dc 733e e98a 96be
00000130: 65e4 5b3e bdce 5dbf c391 d8be 8286 63bf
00000140: bbfd 83be e979 813e 8ec9 3dc0 b1c1 a83f
00000150: da5c 443d 8a0a 873e 1016 38bb 8b2c 913f
00000160: 9ff4 2abf 20ea e1be cfcf 143f 8f41 9f3d
00000170: fea7 0fc0 f5cb c7be 0a4f 353d 65b3 6dbf
00000180: 9907 a23f 0bf6 123f 921c 2fbf 5091 ee3e
00000190: 9f8e f83e 65ac c1be 2ed8 2d40 b52f 63bf
000001a0: ca27 0e3d 7358 d3bf 320d b8bf 4a42 94bf
000001b0: 4120 2e3f f384 233f bf38 743f 6be4 2c3f
000001c0: 9ac2 0dc0 652f 873f 1b5e 733e 5ea5 e8be
000001d0: 6c86 d2be 137b 53be cd5f 353d f545 8f3e
000001e0: f91b 07bd e7f4 9fbe 2d3c f8bd 60e1 bebd
000001f0: 482d 54bd 6b72 e83d 09b1 e5bd abc5 9bbc
00000200: 12c9 03bc 8205 68be 0074 983f 3791 2dbe
00000210: 39e1 083f e67d 1f3e ddf5 363c acfc 9a3f
00000220: f2a4 1abf 521b a0bf 0a9e e5be 8323 353f
00000230: eac5 3a3e 9634 b0bd 99ed 99bf 9d82 183f
00000240: a1e7 953e ab59 cf3e 04cf 073f ad9a 5b3f
00000250: 47a9 b83e 64e8 53be 58e5 1840 dd94 c93c
00000260: b45c 5340 83b4 8e3f 1c3d a0bd bfe9 803d
00000270: 6a08 d13e 7184 b2be c92f e1bf 39b5 c1c0
00000280: 3b82 14be f5d5 023f 32e8 943f a70a 3ebf
00000290: 4a33 113e 0094 ed3f e903 c7be 301e 4ac0
000002a0: f7fb 38be 4933 a8be c96e a53e e33c 83c0
000002b0: 4fb6 a8bf ac3d d63e 06df 3fbd 6328 053f
000002c0: 3a66 e1bf e840 543e 4629 80be 3bf2 0f3f
000002d0: d48c 14be 30d0 373a 5f95 893f 70cc f73c
000002e0: dcfe d23d 664c 0fc0 297a 3bbe df4f 9f3f
000002f0: 2a23 d4be 1684 ff3e 1785 f13e f65d 69bf
00000300: 3a26 afbe 4223 e23f ef27 c53e ab7b 5abf
00000310: 6f3f b9be b58e 98bc a5d4 fbbf 54e8 ba3f

bias f4 [20]
2.5017889 1.5432454 1.2858855 3.257325 -0.7194307 -0.31889948 -2.2270286 -0.1125885
-0.21626347 3.5625775 1.1293222 -1.6981097 -0.28888243 0.67350763 -0.36656138 0.34358662
1.9174631 -0.7629004 1.2876326 -0.92325056
00000000: 4f1d 2040 1189 c53f e597 a43f 0378 5040
00000010: 9c2c 38bf cb46 a3be a387 0ec0 cd94 e6bd
00000020: 2c74 5dbe 4501 6440 a18d 903f a95b d9bf
00000030: 66e8 93be ff6a 2c3f efad bbbe 96ea af3e
00000040: 6e6f f53f 714d 43bf 25d1 a43f 265a 6cbf

weight f4 [41, 20]
-1.9198998 1.1176263 0.22392227 -0.3252784 -14.885963 0.103130944 8.5099404e-05 -0.16813314
-0.06091691 0.35457176 -0.019097282 -22.098183 -0.18273492 -1.3510127 -1.5256289 -0.25285846
0.20366934 -25.24302 -0.42296904 -0.2923328 0.14488082 0.20308009 -1.245464 -0.37229246
-4.5610337 0.09469629 0.1430971 -1.0862669 -0.019535352 -0.12883686 -0.9142731 -14.807457
-0.0926519 -0.07677283 -0.31098765 0.7989389 0.5696257 0.42967886 0.15870108 2.062821
0.5743875 -0.21808273 0.26995003 0.061619464 -0.63362676 0.012625336 -0.1742835 0.09583932
0.7579674 -0.029666279 0.26253366 0.13569361 -0.20135471 -0.17703688 -0.43331558 0.12844023
0.038998187 -0.15270787 0.39517307 -1.0531229 -0.23694132 0.2032624 0.24358681 0.17091067
1.0682749 -0.17664549 0.046953008 2.6220546 27.616568 -0.006145307 -0.6716187 7.5080414
0.053647716 -0.6367625 21.915453 12.423314 -0.26157868 8.509106 0.2393481 0.88309526
-16.851433 1.5052676 -0.6607084 0.6161974 -9.6993885 -0.10295416 0.17071776 -7.987341
-1.5192987 0.26179656 -1.4712902 -0.67638576 0.030334722 -0.625359 -1.275336 -3.782028
-1.1683047 -14.046085 -0.7306196 -2.3682559 -12.392475 1.182133 -0.21146317 -0.41204056
-10.037693 -0.07920049 -0.13568053 -4.8673544 -0.10438293 0.2727855 -0.7592806 -0.19552323
-0.18278024 -0.97089285 -0.5794696 -3.6987936 -1.0853893 -13.175361 -0.38713813 -7.146125
-0.9037544 1.0087948 -0.9367273 -1.4802371 -0.2203203 -0.22289631 -0.24207532 -0.47116965
-0.7211801 -1.0073844 -0.2515317 -1.0232772 0.11307817 -0.9134308 -1.120874 -1.139109
0.29730093 -0.14176777 -4.131226 0.19024296 -0.4479732 -0.28419527 -1.0048294 -1.7584186
-0.059683904 -0.14429419 0.006007526 -0.94302565 -0.61228013 -1.3733402 -0.66958994 -0.18575895
-0.07507337 -1.434916 -1.0987221 -0.19235179 -0.5557893 -0.5159532 -1.4596921 -0.10925421
-0.5959209 -0.7164245 -0.93308777 -1.6688777 -0.03141874 -0.20028657 -0.25497386 -0.8063556
-0.57239914 -1.2249382 -0.66886544 -0.32824606 0.21418017 -1.4379877 -1.0841554 -0.020838156
-0.6686538 -0.5666788 -1.4252956 -0.16891395 -7.0349216 1.2014756 0.57077324 -0.29294252
-24.461525 0.094902225 0.08968493 1.1304469 -0.049196593 -0.07020521 -1.045173 -3.0032837
-0.1583752 -0.4680299 -1.7139529 -0.90640277 -0.2226078 -15.475306 -0.8269145 1.7134217
-1.4272985 0.4358115 0.8423322 0.5535948 -7.535811 -0.17549284 0.16217853 -6.5319037
-8.903232 -1.085095 -2.361745 -12.374016 0.10879825 -0.6487473 -8.903764 -7.8536897
-0.3755214 -12.606646 -0.3592987 1.3509152 -6.5985155 -0.57032645 1.111119 1.8094931
-14.420481 -0.018355647 -1.5430899 0.11661683 0.87904674 -2.8095546 2.0641537 4.8915176
0.10246988 -1.5129496 1.8414917 -1.0439321 0.82841855 -4.9492006 -0.8063862 1.3425859
-6.669765 0.7567854 -0.6503636 0.9204595 -4.896269 0.06602949 0.07371042 -4.4708276
-3.8793175 0.74212503 -1.2569634 -0.013044305 0.02707 -1.7072859 -1.3452538 -3.1884785
00000000: 47bf f5bf 610e 8f3f e14b 653e e48a a6be
00000010: e82c 6ec1 5136 d33d 6577 b238 182b 2cbe
00000020: 0384 79bd 6e8a b53e e771 9cbc 14c9 b0c1
00000030: dd1e 3bbe fced acbf cf47 c3bf aa76 81be
00000040: b28e 503e b4f1 c9c1 668f d8be a5ac 95be
00000050: a35b 143e 3af4 4f3e 5d6b 9fbf 1e9d bebe
00000060: fdf3 91c0 21f0 c13d 0c88 123e cb0a 8bbf
00000070: 9a08 a0bc cfed 03be cd0d 6abf 58eb 6cc1
00000080: 48c0 bdbd 133b 9dbd c639 9fbe 4287 4c3f
00000090: fdd2 113f defe db3e 8982 223e 4205 0440
000000a0: 0f0b 133f 1451 5fbe e436 8a3e b164 7c3d
000000b0: 5d35 22bf 7fda 4e3c 6077 32be 6847 c43d
000000c0: 270a 423f b206 f3bc d06a 863e 44f3 0a3e
000000d0: ee2f 4ebe 2849 35be 8adb ddbe d685 033e
000000e0: 90bc 1f3d 745f 1cbe 2054 ca3e bbcc 86bf
000000f0: bfa0 72be 0524 503e d26e 793e 3503 2f3e
00000100: 3bbd 883f 8ee2 34be cc51 403d becf 2740
00000110: bbee dc41 925e c9bb 34ef 2bbf e041 f040
00000120: b5bd 5b3d de02 23bf d952 af41 e5c5 4641
00000130: a4ed 85be 4c25 0841 ab17 753e 8812 623f
00000140: bccf 86c1 9cac c03f 3024 29bf 1dbf 1d3f
00000150: b230 1bc1 a1d9 d2bd a3d0 2e3e 4c98 ffc0
00000160: 6178 c2bf 330a 863e 3d53 bcbf 9e27 2dbf
00000170: 8680 f83c 8717 20bf 363e a3bf bf0c 72c0
00000180: 028b 95bf c4bc 60c1 e309 3bbf 8191 17c0
00000190: 9447 46c1 2250 973f cd89 58be fbf6 d2be
000001a0: 649a 20c1 de33 a2bd d6ef 0abe 5ec1 9bc0
000001b0: b8c6 d5bd 8baa 8b3e 3760 42bf 3e37 48be
000001c0: be2a 3bbe 6f8c 78bf 1f58 14bf 09b9 6cc0
000001d0: 09ee 8abf 47ce 52c1 f836 c6be 0ead e4c0
000001e0: 735c 67bf 3020 813f 5ccd 6fbf 6978 bdbf
000001f0: a59b 61be ee3e 64be 98e2 77be 263d f1be
00000200: 429f 38bf f9f1 80bf c3c8 80be bffa 82bf
00000210: 8795 e73d 9ad6 69bf cd78 8fbf 53ce 91bf
00000220: d437 983e 922b 11be 0133 84c0 0dcf 423e
00000230: be5c e5be 0b82 91be 409e 80bf dc13 e1bf
00000240: 1c77 74bd dbc1 13be c8da c43b 216a 71bf
00000250: 64be 1cbf 9dc9 afbf 3f6a 2bbf 9837 3ebe
00000260: 11c0 99bd 54ab b7bf eda2 8cbf def7 44be
00000270: 3548 0ebf 8215 04bf 31d7 babf acc0 dfbd
00000280: 468e 18bf 9967 37bf d7de 6ebf c99d d5bf
00000290: f0b0 00bd ec17 4dbe ef8b 82be 526d 4ebf
000002a0: c088 12bf c6ca 9cbf c43a 2bbf de0f a8be
000002b0: 0c52 5b3e fb0f b8bf 9bc5 8abf c8b4 aabc
000002c0: e52c 2bbf dd11 11bf 1670 b6bf c7f7 2cbe
000002d0: 141e e1c0 f4c9 993f 321e 123f 90fc 95be
000002e0: 34b1 c3c1 195c c23d bcac b73d 7cb2 903f
000002f0: 5e82 49bd c0c7 8fbd 3bc8 85bf cd35 40c0
00000300: 1c2d 22be 9da1 efbe cf62 dbbf 030a 68bf
00000310: 4df3 63be da9a 77c1 abb0 53bf 6751 db3f
00000320: b8b1 b6bf af22 df3e 15a3 573f 64b8 0d3f
00000330: 5d25 f1c0 65b4 33be 2112 263e 5b05 d1c0
00000340: a373 0ec1 65e4 8abf d526 17c0 f8fb 45c1
00000350: 9ed1 de3d 4e14 26bf d175 0ec1 6d51 fbc0
00000360: 5744 c0be d2b4 49c1 00f6 b7be caea ac3f
00000370: 0a27 d3c0 ea00 12bf 2639 8e3f 789d e73f
00000380: 4aba 66c1 955e 96bc f883 c5bf ced4 ee3d
00000390: 3509 613f becf 33c0 181b 0440 5087 9c40
000003a0: badb d13d 55a8 c1bf 00b6 eb3f 919f 85bf
000003b0: 3d13 543f da5f 9ec0 536f 4ebf dbd9 ab3f
000003c0: b76e d5c0 b0bc 413f 3b7e 26bf 3ca3 6b3f
000003d0: 3cae 9cc0 783a 873d 7df5 963d 0511 8fc0
000003e0: bd46 78c0 e8fb 3d3f 2de4 a0bf c8b7 55bc
000003f0: e8c1 dd3c 5888 dabf 4731 acbf 0810 4cc0

bias f4 [41]
-0.068392545 -0.108275 -1.2697482 -0.37358066 0.011910332 -1.1293563 1.8607938 -0.4438798
-0.5475561 -1.0484447 0.01167834 -3.2197998 -0.5457666 2.2036858 -0.55432117 -0.008631811
-0.8323008 1.0270046 0.2561395 -0.4939691 -0.5861129 -0.97176474 -2.8463147 -1.6050637
-1.2868168 -1.1319063 0.78872395 1.1415132 0.6164102 -0.32851845 -5.233292 1.104639
-2.0493286 -2.6517935 -1.3084263 0.49976858 -1.9752034 -1.3424301 -1.6374397 -0.3221884
-0.32301155
00000000: 6411 8cbd 48bf ddbd 1c87 a2bf f745 bfbe
00000010: 8e23 433c bf8e 90bf 7e2e ee3f 3744 e3be
00000020: a32c 0cbf 7033 86bf 8256 3f3c 3311 4ec0
00000030: 5cb7 0bbf 3009 0d40 fee7 0dbf 706c 0dbc
00000040: aa11 55bf e374 833f b724 833e 85e9 fcbe
00000050: 7f0b 16bf 93c5 78bf 052a 36c0 ba72 cdbf
00000060: 6ab6 a4bf 4ee2 90bf d0e9 493f 1b1d 923f
00000070: 0fcd 1d3f 9233 a8be 2177 a7c0 d064 8d3f
00000080: 3328 03c0 fcb6 29c0 837a a7bf abe1 ff3e
00000090: 77d3 fcbf c0d4 abbf a097 d1bf e1f5 a4be
000000a0: c561 a5be
