VAE/VAE2/model.pth (torch, 16584 bytes, 14 tensors)

weight f4 [20, 41]
000000 d6 b4 5c bc 1c f4 03 3d b3 5c 96 3d b4 99 18 bc
       -0.013470849 0.032215223 0.073419 -0.009313989
000010 41 e7 14 bd 53 2b 0f 3e 04 b5 0f 3e cc 7e c5 bc
       -0.036353353 0.1398137 0.14033896 -0.024108313
000020 63 b1 0f 3d 46 fa 8b bd 3b 20 d3 3c 16 3e 3b 3e
       0.03508128 -0.06834845 0.025772205 0.18285403
000030 9d 92 3d bd a4 7d 1e bd 25 87 83 3d 91 10 d6 bd
       -0.0462824 -0.03869404 0.06422261 -0.104523785
000040 f3 23 96 bd 11 05 8d 3d 2d fa c6 bd 21 ee f8 bd
       -0.073310755 0.06885732 -0.09715686 -0.121547945
000050 8d 59 14 be ec b3 02 be af 14 85 bd 5c 2f f3 3d
       -0.14487286 -0.12763947 -0.06498086 0.118742675
000060 7a 8d 33 3d d3 7e 54 3d 9c 8e 43 bd a7 84 f3 3c
       0.043836094 0.05187876 -0.047743425 0.02972634
000070 cf e3 94 bc e0 3b 86 bc ef fa 06 3e 41 a3 68 bd
       -0.018175034 -0.016385972 0.13181661 -0.056796316
000080 f1 fe a7 3d 30 da 42 3e fa 8f 0f 3e 84 c3 09 bc
       0.08202923 0.19028544 0.14019766 -0.008408431
000090 ea a4 82 3d 5b 83 ce 3d c6 06 5e bc 91 ab df bd
       0.06379111 0.10083648 -0.01355142 -0.109213956
0000a0 b7 3f 3d 3d 2d 7d 1e 3e 76 e3 80 3c cf bd ca 3d
       0.04620334 0.15477438 0.015733462 0.09899484
0000b0 6c 45 38 bd a2 a2 46 3e 65 55 13 3e 27 9d ce bd
       -0.04498808 0.19397977 0.14388044 -0.10088568
0000c0 8a bd 12 be 9e 85 33 bd 7b 2c 14 3d 9d e5 b8 bd
       -0.14330116 -0.0438286 0.036175232 -0.0902817
0000d0 9b ff 24 3e 8d e3 d5 bd cc 1a e6 3c 74 40 c5 bd
       0.16113131 -0.104437925 0.02808895 -0.09631434
0000e0 de 4e a5 3d 3e 7b c0 3d 03 b3 39 3e 29 11 30 3d
       0.08071683 0.093985066 0.18134694 0.042985115
0000f0 4b ee 19 be af fc 1e be 19 9e 66 bc 5d 8a 05 3e
       -0.15032308 -0.15526079 -0.014075779 0.13041063
000100 22 b3 f9 3d 87 ee 37 be db 93 01 3e 1a 0e 8d bd
       0.1219237 -0.17962085 0.12654059 -0.06887455
000110 b0 4e 71 bb 20 bf 87 3d 34 40 ff bc 91 a3 15 bd
       -0.0036820583 0.06628251 -0.031158544 -0.036532942
000120 b0 00 b1 bd d8 f8 fd 3d 99 91 1a 3d 22 b8 13 3e
       -0.08642709 0.12400979 0.03773651 0.1442571
000130 2a a7 dc bb dd 2e f1 3c 43 3c 33 3e 02 6f 6e bc
       -0.0067337947 0.029441291 0.17503457 -0.0145528335
000140 0e 94 85 bd 97 65 35 bc 2a d5 12 3d 67 01 c5 3d
       -0.0652238 -0.011071584 0.03584782 0.09619408
000150 63 71 a7 3d a8 b7 fd 3d b0 d8 72 bd 62 ae 97 bd
       0.08175924 0.12388545 -0.05928868 -0.07406308
000160 23 ca 86 bd df c6 1f 3e a7 6f 98 3d 1f 99 07 3e
       -0.06581523 0.15603207 0.07443171 0.13242005
000170 52 7a b5 bb 52 88 88 bd a1 6a f1 bd 01 bf e2 3d
       -0.0055382634 -0.06666626 -0.11787916 0.11071587
000180 9b 72 95 bd 51 ce c4 3d a6 4e a4 bd f2 29 f4 3c
       -0.0729725 0.09609664 -0.080228135 0.029805157
000190 39 33 87 3d 3e 28 10 3e bc 0e 17 3c 4a ee 04 3e
       0.06601567 0.14077851 0.009219822 0.12981525
0001a0 fe 8b 23 3d 76 7c 0f 3d 55 8c 00 bd 76 d7 ed 3d
       0.03992843 0.035030805 -0.03138383 0.116133615
0001b0 ac 20 a1 bc 1b e2 fe 3d 13 de ae 3d a9 2e e9 3d
       -0.0196689 0.1244547 0.08538451 0.11385853
0001c0 7e 7e 1d be 2e 5e 19 be ff b2 8f bd de 23 92 bd
       -0.15380284 -0.14977333 -0.07016563 -0.071357474
0001d0 02 0e 93 3d 22 5c 1c bd fc fe 65 bc 27 ee 12 bb
       0.07180406 -0.038173802 -0.014037844 -0.0022419782
0001e0 2a 05 10 be 89 f6 88 bc 74 3e 85 bd a1 4b 2b 3d
       -0.1406447 -0.01671912 -0.065060526 0.041820172
0001f0 b4 fa 11 be 7a da 72 3d 18 98 4b be 1b ab 12 bd
       -0.14255792 0.059290387 -0.19882238 -0.03580771
000200 15 01 0b bd d2 01 0d be f7 57 d7 bd 44 ff 82 3d
       -0.03393658 -0.13770226 -0.10514825 0.06396344
000210 ab 6d 74 bd 55 da 17 be 9d 72 f8 3d 01 28 1d be
       -0.0596749 -0.14829381 0.12131236 -0.15347292
000220 bb 31 93 3c 2f eb d0 3d 47 f4 29 3d 7b 76 1d bd
       0.01796805 0.10201108 0.041492727 -0.03844307
000230 b7 aa 26 bd 0d 59 4b 3b 3a 21 1d 3d f6 99 19 3e
       -0.04069015 0.003102842 0.038361765 0.15000138
000240 2a dd 24 ba f6 d8 0f be 90 23 b7 bb 7b 91 bd 3d
       -0.00062890595 -0.14047608 -0.005588956 0.09256264
000250 9a ab c8 3d 8e bf a9 bd 87 04 52 3d 48 87 bd bb
       0.097983554 -0.08288489 0.05127385 -0.005783949
000260 48 34 95 bd 6a 07 b4 3d 0c 21 73 bd 8b 4c ea bd
       -0.072853625 0.087904766 -0.059357688 -0.11440381
000270 2c c2 b9 3d 2b e3 d4 bd fb 86 9e bd 80 19 65 3d
       0.090702385 -0.10394891 -0.07740589 0.05593252
000280 76 75 e7 bd 6b 03 7e 3d f0 28 ac bd a4 56 89 3d
       -0.11301701 0.06201498 -0.08406246 0.067059785
000290 cc da 26 3d 53 e1 e3 3d 05 ae 83 bd 0c d9 7d 3d
       0.040736005 0.111269616 -0.06429676 0.06197457
0002a0 5d cc a3 3d 58 e4 c6 bd b6 ef f7 bb fb 62 a6 bd
       0.079979636 -0.09711522 -0.0075664176 -0.08124348
0002b0 c9 6c 13 3e 3e a0 1d 3d 80 8a de 3d 55 55 ef 3c
       0.14396967 0.038482897 0.108662605 0.029215494
0002c0 b0 55 bd 3c ee e4 06 bd e1 f6 18 be 12 4e 88 bd
       0.023112148 -0.032933168 -0.14937927 -0.06655516
0002d0 8c 16 71 bd ae 1a f6 bd 2b bf 67 3d 73 a7 73 3d
       -0.058859393 -0.120168075 0.056578796 0.059485864
0002e0 a0 4c 2c 3c c9 5b b0 bd d3 c4 e8 bd 50 3d 94 bd
       0.010516316 -0.08611257 -0.11365666 -0.07238257
0002f0 07 c0 f9 3d 39 07 17 be 7a 71 b2 bc 76 89 74 3d
       0.121948294 -0.14748849 -0.021782625 0.059701405
000300 b5 5c a0 bc 19 98 61 bd 48 cb a5 3c 93 8d c9 bd
       -0.019575456 -0.055076692 0.020238534 -0.09841456
000310 69 d5 00 3e 3d 91 1f 3e ec 39 72 3c d4 b5 48 3d
       0.1258141 0.15582748 0.014784317 0.04900153
000320 1e 5e e1 3d 01 3f e2 bd b0 df d9 3d 73 f0 1f be
       0.110042796 -0.11047173 0.10638368 -0.15619068
000330 1a a9 f4 3c 9b e6 05 3d f1 c8 a1 bd 58 35 8b 3d
       0.02986579 0.032690626 -0.07899655 0.06797284
000340 18 ec ec bd 34 93 a1 3d 1c ad 7e bd 18 84 bc 3d
       -0.11568469 0.07889405 -0.06217681 0.092048824
000350 c4 2f 62 bd 2c 78 c8 3d c6 01 ad bc e0 38 91 bd
       -0.055221334 0.09788546 -0.02111901 -0.07090926
000360 bf 54 80 3d dd 04 f6 3c e2 ee 9d bd a4 89 20 3c
       0.06266164 0.030031616 -0.07711579 0.009798441
000370 ba 03 08 be a4 9a 30 ba 32 c8 79 3d 91 78 f6 bd
       -0.13282672 -0.00067369104 0.060981937 -0.12034715
000380 24 3b a9 bd 86 f1 18 3e e5 ef 8c bd a7 9c cf bd
       -0.08263233 0.14935884 -0.06881694 -0.10137301
000390 19 9d 42 be e7 bb 51 3d dd e8 b3 3c 68 4a 58 bd
       -0.1900524 0.05120459 0.021961624 -0.052805334
0003a0 a9 05 d3 bb 9e 8e be bd 96 20 1c 3e ea da ee bd
       -0.0064398837 -0.09304546 0.15246806 -0.11662848
0003b0 92 9d 9b 3d 01 29 0b 3d 74 bc 0e be 66 99 4b be
       0.075984135 0.03397465 -0.13939077 -0.19882736
0003c0 c5 f0 cc bd 3f 49 90 3d 60 ef b4 bd c2 19 07 bc
       -0.10006861 0.070452206 -0.0883472 -0.008245887
0003d0 1c 99 14 bd 2a 65 88 bd 3b c3 78 3b 0c 72 7c bd
       -0.03627883 -0.066599205 0.0037958163 -0.0616322
0003e0 46 9a 8b bd f4 18 f0 3d be c8 70 bd 85 cc 39 bd
       -0.06816535 0.117235094 -0.058785193 -0.04536106
0003f0 32 dc b1 3d b1 52 15 bd 04 1f c9 3d ed 0d 66 bd
       0.08684577 -0.036455814 0.09820369 -0.056165624

bias f4 [20]
000000 a1 b7 8d 3c 0d db 07 bb 64 d4 6a 3e 23 f5 dc bd
       0.017299475 -0.002072993 0.22932583 -0.107889436
000010 20 1a 8f 3d ca 21 0b be 3f df de 3d 34 3b 17 3e
       0.06987405 -0.13587108 0.108824246 0.14768678
000020 43 e2 0a 3e 66 e4 c2 3d d8 f7 ae bd 95 25 d8 bd
       0.13562874 0.0951622 -0.08543366 -0.10554043
000030 cf f5 5b 3d 80 b5 8e 3d 52 0f b4 bd fc 75 24 be
       0.05370122 0.06968212 -0.087919846 -0.16060632
000040 88 3b 26 be 34 42 83 bd cf aa eb 3d b1 e7 fb 3d
       -0.16233647 -0.064091116 0.115071885 0.12300051

weight f4 [10, 20]
000000 53 2f d7 bd 4b ae 30 3e 09 dd 76 bd 21 77 91 3d
       -0.10507073 0.17253987 -0.06026939 0.071028
000010 b2 14 a1 3d 87 8f bc bd ad 52 49 3e c1 16 3a 3d
       0.078652754 -0.09207063 0.19660445 0.045431856
000020 67 66 4f 3e 4b e0 f3 bd d2 e2 cc 3d 9b 53 50 bc
       0.20253907 -0.11908015 0.100042 -0.012715246
000030 7e 97 a0 bd 66 d6 92 bd ec b4 61 3d c3 d0 96 3d
       -0.07841395 -0.071697995 0.05510418 0.07364037
000040 35 95 c8 3d 57 e6 96 3d 5b 78 1a 3e 8f 14 27 3e
       0.09794084 0.073681526 0.15084974 0.16316436
000050 80 0e 5e 3e 02 72 48 be c9 84 e0 bc 4a 52 fc bd
       0.21685219 -0.1957474 -0.027407067 -0.12320383
000060 14 cb a8 bd a0 5c d4 bc 2c 59 31 3e 7d 0c 15 3e
       -0.08241859 -0.025923073 0.17319173 0.14555545
000070 3c 91 12 be c1 c1 45 3d ba b7 95 bd 01 f0 d9 3d
       -0.14313215 0.04828048 -0.07310434 0.1064148
000080 fc a8 96 bd 8f 6f 86 bd 18 78 ee 3d 37 f0 e7 3d
       -0.0735645 -0.06564247 0.11644 0.11325114
000090 17 b5 44 bd 56 bb bd 3d cb c3 b5 bd 1c f2 27 bc
       -0.048024263 0.09264247 -0.08875235 -0.0102505945
0000a0 9a c8 d9 3d 55 bb 85 be d2 84 52 3d 7c af b2 3d
       0.10633965 -0.26119485 0.0513962 0.08724877
0000b0 64 6c b6 3d 9c e6 ed bd 5a 72 17 be 8e 58 d9 bd
       0.089073926 -0.11616251 -0.14789715 -0.106125936
0000c0 d5 a4 81 be 14 82 32 3b b2 71 45 bd 72 e5 74 be
       -0.2532107 0.0027238177 -0.04820413 -0.23915651
0000d0 6f dd 18 be 59 d8 91 bb fa 96 2d 3e 44 3d 52 3e
       -0.1492822 -0.0044508395 0.16952124 0.20531183
0000e0 e2 74 41 be 34 2e 30 3e 58 8d 85 be 35 61 4c be
       -0.18892244 0.17205125 -0.260844 -0.19958957
0000f0 ea 41 13 be 24 dc 90 bc 3f 91 32 3b 4b 53 b9 bd
       -0.14380613 -0.017683096 0.0027247218 -0.0904909
000100 fe 17 64 3d ee 29 76 3e 62 97 08 3d e0 2a 2f 3e
       0.055686943 0.24039432 0.033347495 0.171062
000110 7a 47 e6 bd 06 7e f4 3d 72 d0 56 3e 9e 9b 31 bc
       -0.11244102 0.119380996 0.20977953 -0.010840325
000120 92 6c 2c bd 87 bc 13 3e 1e 8d e5 bd ce 7c f4 bd
       -0.04209573 0.14427386 -0.112085566 -0.11937867
000130 e4 c9 30 3e f9 0a 0a bd e6 9d 4c 3d 6f 46 3a bc
       0.17264515 -0.03370187 0.04995527 -0.011369332
000140 93 87 19 be fa 0c 61 3e 34 0f 0f 3e 70 bd 28 be
       -0.14993124 0.21977606 0.13970643 -0.16478515
000150 61 21 08 be e1 c9 51 3d d4 73 49 be af a0 b9 3d
       -0.13293983 0.051217917 -0.19673091 0.09063851
000160 a0 6d c7 3d 3c f5 84 bc 7a 3c 10 3e 7f 9e 06 be
       0.09737706 -0.016230218 0.1408557 -0.13146399
000170 aa 48 3d 3d c5 37 cf bd 9d b0 11 3e e1 a3 f7 3c
       0.046211876 -0.10118059 0.14227529 0.03022951
000180 72 d1 2e 3c a8 64 00 be 51 0b 78 3d fb cf 45 be
       0.010670053 -0.12538397 0.060557667 -0.1931762
000190 be 26 b3 3d 04 55 2b bd b8 a4 8a 3e d3 ef e2 bc
       0.08747624 -0.041829124 0.27078795 -0.027702248
0001a0 04 3f 8d 3d 38 3e 1c 3e 9f 76 3b 3d c4 f9 00 3e
       0.06896785 0.1525811 0.045767423 0.12595278
0001b0 43 60 87 3e bd 96 aa 3d b7 a7 c3 3c 24 82 d6 3c
       0.2644063 0.08329532 0.023883684 0.026185103
0001c0 d1 8e 3a 3e 9f 0f 75 3e 29 27 8c bd b6 78 1e be
       0.18218543 0.2393174 -0.06843407 -0.15475735
0001d0 d0 ea 14 3e 23 df 0f be bf 79 d5 3d 42 eb ea 3c
       0.14542699 -0.14049964 0.10423612 0.028676633
0001e0 36 dd 52 3e 91 67 f9 3c 2a 97 ba bc c2 27 3d be
       0.20592198 0.030444892 -0.022777159 -0.18472198
0001f0 a3 c2 bf 3c e5 a3 ff bd 9c 19 f0 bd a0 94 4d bd
       0.02340824 -0.12482432 -0.117236346 -0.050190568
000200 d8 f5 03 bc ee c6 1b bd 73 56 97 3d bd c4 f1 bd
       -0.008054219 -0.03803151 0.07389536 -0.11805103
000210 5c 9d 32 be 4c 6a de 3d 74 d7 52 3e d8 f1 2b 3e
       -0.1744284 0.10860118 0.20590001 0.16791475
000220 cc bd 6c bd 10 8e 5f 3e 32 63 1b be 2e 1f 30 3e
       -0.057798192 0.21831536 -0.15174559 0.17199394
000230 91 71 c2 bd 75 57 63 be 5b 0f 67 3d 18 be b8 bc
       -0.09494317 -0.22201331 0.05641113 -0.022551581
000240 56 81 16 3e f4 15 01 3c 3e f4 83 3d b6 1f 4d 3e
       0.14697775 0.007878769 0.0644307 0.20031628
000250 72 4e 9b bd 39 50 11 3e d1 66 2c 3e f5 91 1e be
       -0.07583322 0.14190759 0.16836096 -0.15485366
000260 ab 1c 3d 3e 46 e2 3d 3b 7b 52 bc 3d 6d 6f a7 bd
       0.18467967 0.002897398 0.091954194 -0.0817555
000270 76 fc 00 3c 21 80 26 bd f2 9e e6 bc 57 ce 0f be
       0.007872691 -0.040649537 -0.028151963 -0.14043556
000280 49 1a f8 3c 9d ff d9 bd 2d 8e 7e 3e 96 bc 83 bd
       0.030285971 -0.106444575 0.24858923 -0.06432454
000290 c5 91 23 3e ae 81 2e 3e a6 a4 07 be 37 5b 7f bd
       0.15973575 0.17041656 -0.13246402 -0.06234285
0002a0 d7 9d 14 3e d6 a1 57 3e b2 05 03 3d f1 ee a5 bd
       0.14513336 0.2105783 0.031987853 -0.08102215
0002b0 a9 7e 67 3e 16 93 b2 3d 45 fe 0d 3e f0 de 23 3e
       0.22606911 0.08719461 0.13866527 0.16003013
0002c0 d9 9b 15 3d 76 42 d9 3d 4b d3 1f 3e 82 30 00 3d
       0.03652558 0.106083795 0.15607946 0.03129626
0002d0 3e 1d 1d be fe 31 12 be 92 10 05 3d ca 3c 03 be
       -0.15343186 -0.14276883 0.032486506 -0.12816158
0002e0 71 72 2a be 43 f2 14 bd 53 b7 02 be b0 2b 0e 3e
       -0.16645218 -0.03636385 -0.12765245 0.13883853
0002f0 15 85 4c 3e d1 02 21 3e 4e 3a 7d 3d a9 f0 e8 bd
       0.19972642 0.1572373 0.06182318 -0.11374027
000300 18 6c 33 3d 23 0c 51 3e 83 9b 93 3c e7 db 38 bd
       0.043804258 0.20414786 0.01801849 -0.04513159
000310 5e 58 48 3c f8 18 b1 3d dc e1 e2 3d 04 4e c1 bd
       0.0122281 0.086473405 0.110782355 -0.094387084

bias f4 [10]
000000 38 96 9d 3d e5 4c 28 be f1 d4 26 3e 79 9b a6 bd
       0.076946676 -0.16435583 0.16292168 -0.08135123
000010 02 a5 63 be 3f a2 d3 3d 29 b3 39 be b2 77 21 be
       -0.22230914 0.1033368 -0.1813475 -0.15768316
000020 c2 e9 fc bd c7 10 67 3e
       -0.12349273 0.22564994

weight f4 [2, 10]
000000 f6 bf 54 3e d4 9a 7c 3e 21 18 3d 3d 19 aa 0b 3e
       0.20776352 0.24668437 0.04616559 0.13639106
000010 fb a2 47 3e e5 d2 34 be 26 12 42 be 81 1f a2 bc
       0.19495766 -0.17658575 -0.18952236 -0.019790413
000020 e4 0a 96 3d 77 16 2c 3e a0 93 98 3d 66 cf 5a bd
       0.07326296 0.16805445 0.07450032 -0.053420447
000030 73 2e 09 be c8 b2 08 be 35 ce 77 3e 7a c5 ef 3d
       -0.13396625 -0.1334945 0.24199755 0.117075875
000040 fe 07 a0 be bf 8d 5f 3e 77 78 32 be 9f 6f c2 3d
       -0.31256098 0.21831416 -0.17428766 0.09493946

bias f4 [2]
000000 bb 2c af bc 97 56 8e bd
       -0.021383634 -0.069501095

weight f4 [2, 10]
000000 b3 f8 8d ba c8 ba 11 be b9 eb 98 3e 9e d2 e9 3d
       -0.0010831564 -0.14231408 0.29867342 0.11417125
000010 2d 38 0c 3d d1 fd 95 3c aa 9d 28 be 05 5d e6 bd
       0.03423326 0.018309506 -0.16466394 -0.11248211
000020 90 5f e2 bc 67 50 24 be 9d 37 df bd 44 79 40 bd
       -0.027633458 -0.16046296 -0.10899279 -0.046990648
000030 b4 be 1b 3d 0b 85 d9 bc 18 ac f6 bc 8d 5a 71 be
       0.038023666 -0.026552698 -0.030111358 -0.23569699
000040 95 13 8d 3d 47 7e 3c 3e 55 63 14 3e 77 a3 6e be
       0.068885006 0.18407546 0.14491017 -0.23304544

bias f4 [2]
000000 ba 81 fc 3c 04 2e 24 3e
       0.030823577 0.16033179

weight f4 [10, 2]
000000 68 aa 04 3f 06 c6 09 bf 93 ad 93 3e 8a 85 a9 be
       0.5182252 -0.53817785 0.28843364 -0.33109695
000010 a2 ff d6 bd ac 4e d9 be f8 91 cc 3e 75 c0 56 be
       -0.10497977 -0.42442834 0.39955115 -0.20971854
000020 e2 b6 ad be 9a 52 eb 3e 1a 69 24 3f 61 bf 61 3d
       -0.3392859 0.45961457 0.6422287 0.055114154
000030 8c df c7 bd 61 7f c3 3e 10 1b 8b 3e 79 01 f7 3e
       -0.09759435 0.3818312 0.27169085 0.4824331
000040 28 2b 59 be 68 32 99 3b 20 bf 63 3c a7 7d a7 3e
       -0.21207869 0.0046751983 0.013900548 0.32713053

bias f4 [10]
000000 fb 44 dd be 12 a7 83 3e f8 22 8d 3e d6 a9 0d bf
       -0.4321669 0.25713402 0.27565742 -0.55337274
000010 e8 79 da be 64 ef 4e 3e 5f 08 b8 3d 47 bb 27 bf
       -0.42671132 0.20208508 0.08985972 -0.6552014
000020 e9 43 52 3f 92 d6 84 3f
       0.8213487 1.0377982

weight f4 [20, 10]
000000 ee 15 11 3e 02 1d 54 be 00 39 bf 3d 1c 04 8d 3d
       0.14168522 -0.2071419 0.09337044 0.068855494
000010 9f 8f 8a 3d 51 32 1e 3d e8 67 25 be 01 f5 c9 3e
       0.06765675 0.038622204 -0.16152918 0.39444736
000020 14 82 00 3e 64 76 3f 3d e7 ac c6 3d 88 8e 5d 3e
       0.12549621 0.046743765 0.09700947 0.21636403
000030 b2 da f1 3d fa b6 3d bd da 85 76 3c 6c 46 29 3e
       0.11809291 -0.04631708 0.015046561 0.1653077
000040 59 7c 27 be e7 c0 07 be 5c a8 1c 3e ef 7c 8b 3e
       -0.16356029 -0.1325718 0.15298599 0.27243754
000050 c1 7d ac 3e c0 4c 0c 3d 79 ba 8d bd 2b f2 55 3d
       0.33689693 0.034252882 -0.069203325 0.052232902
000060 63 a6 06 3e 05 c8 59 3e f4 4d c1 3e 22 df 7b 3d
       0.13149409 0.21267708 0.37754786 0.061492093
000070 2c d6 87 3e 6f ce 28 be 68 91 84 3e 1e c1 b9 3e
       0.26530588 -0.16484998 0.25892186 0.3628015
000080 3e 62 25 3e cb 46 7e be c5 cf ed bd 83 cd 9c 3e
       0.16150758 -0.24831693 -0.116118945 0.30625543
000090 36 fb c6 3d 6d c4 7a 3e e7 cd ef 3e fa e3 be 3d
       0.097158834 0.24488993 0.4683678 0.09320827
0000a0 63 60 6c 3e 68 51 67 3e 4f 3c eb 3e 1e ce 07 3e
       0.23083644 0.22589648 0.4594445 0.13262221
0000b0 54 f7 03 3e 18 e7 a0 bd 04 0d a6 bd d0 65 41 bd
       0.12887317 -0.07856578 -0.08107951 -0.047216237
0000c0 1c 20 95 3d c6 85 05 3f f9 ce 31 3e bd b4 18 be
       0.07281515 0.5215725 0.1736411 -0.14912696
0000d0 37 73 d5 3e c5 71 b2 bd 35 5a 3d be e6 ff 64 bc
       0.41689464 -0.08713106 -0.18491443 -0.013977027
0000e0 4a 4a db bd 12 c5 16 3e e2 4b 2b 3e a9 6f 0c 3f
       -0.10707529 0.14723614 0.16728166 0.5485788
0000f0 39 e5 11 3e 05 44 25 3e 1a f0 b6 bb c9 21 ee bd
       0.14247598 0.16139229 -0.0055828216 -0.11627538
000100 36 12 72 be bd 08 8e 3d ad 65 d9 3d df 11 fb 3a
       -0.2363976 0.069352604 0.10615096 0.0019155106
000110 70 07 66 3e a7 15 c2 3e 80 cd c0 3d 98 89 39 3e
       0.22463775 0.37907144 0.09414196 0.18118894
000120 47 53 a2 3d 78 24 9d bd 71 28 db bd 3f 66 42 3d
       0.0792604 -0.076729715 -0.10701073 0.04746079
000130 ef 07 4e be c9 5f e1 3d 88 ed d6 3e ab 5c 8c 3e
       -0.20120214 0.11004598 0.41978097 0.2741445
000140 f0 69 88 3d 12 2c 1d be 61 f7 51 bc 63 29 9a be
       0.06660831 -0.15348843 -0.012815327 -0.301097
000150 41 2c bf be d7 ba 4e 3d c6 7d cd 3e 02 9e 67 3d
       -0.3733845 0.050471153 0.4013502 0.056547172
000160 d9 35 ae 3e fd a9 7b 3e c8 5e b0 3d 20 c7 47 3e
       0.34025458 0.24576564 0.08611828 0.19509554
000170 54 b5 94 3e a9 a4 c4 3d ca 7c 4c 3e 97 b6 d6 3d
       0.29044592 0.09601719 0.19969478 0.10484045
000180 48 6a b2 3e b8 34 68 3d c5 8e 41 3e 1d 3e ef bb
       0.3484671 0.0566909 0.18902119 -0.0073011057
000190 ea 66 34 3d 50 2f 5d be ca 3a 1d be ae 6e 14 3d
       0.04404346 -0.2160008 -0.15354457 0.036238365
0001a0 59 23 6d be 9a 03 dc 3c 49 81 51 bd 96 a4 65 3e
       -0.23158015 0.026857186 -0.051148687 0.22426066
0001b0 5d 7a 3f be b2 0e 5c be ba db 57 be c0 31 7d 3a
       -0.18699022 -0.21489981 -0.21079913 0.00096585974
0001c0 00 df 92 3e 81 d6 41 3e ca cf c2 bc e1 5c ba 3d
       0.2868576 0.18929483 -0.023780722 0.090997465
0001d0 5a 80 1d bd 26 26 97 bd 7a f4 cc 3e ea 42 34 3e
       -0.038452484 -0.07380323 0.4003027 0.1760365
0001e0 e9 b4 ec 3d 01 94 1f bd 65 b5 83 bd 62 d4 6c be
       0.115579434 -0.038959507 -0.06431083 -0.23127893
0001f0 f0 07 b3 bd 4a 2c 1b 3e dd 95 98 be 29 64 66 3e
       -0.08741748 0.15153614 -0.29801837 0.22499146
000200 50 30 11 be 73 1b 87 be 5d 34 a7 3d 76 e1 95 be
       -0.14178586 -0.2638813 0.081642844 -0.29273576
000210 6a be 45 3e d8 fe eb 3d 65 e5 22 3e 63 3f 06 be
       0.19310918 0.11523217 0.1590782 -0.13110118
000220 c9 6a 67 3e 79 3a 97 bd 70 df e8 3e 34 2d 49 3e
       0.22599329 -0.073842 0.4548297 0.1964615
000230 35 89 66 3d b3 25 d7 bd ec 4c 71 3e 6e 3d 9f bd
       0.056283195 -0.105052374 0.235645 -0.07775389
000240 82 5a bc bd 64 09 35 bd 9d d6 63 be 2b 08 6b be
       -0.091969505 -0.04419841 -0.22249837 -0.22952335
000250 fd 71 0b 3f 89 d6 e1 3e bd 42 b0 3d 9d 32 74 3e
       0.5447081 0.4410899 0.08606479 0.23847432
000260 0e e3 15 3e 40 f0 82 be 3e fa 2a 3d 73 94 66 bd
       0.14637396 -0.2557392 0.041742556 -0.056293916
000270 67 44 8f bd d7 ec 5d 3e ad 3b e0 3d b6 42 bf 3e
       -0.069954686 0.21672378 0.10948882 0.37355584
000280 8b eb ad bd 20 00 09 3e b2 8f 27 3e 24 3d 20 3e
       -0.08492192 0.13378954 0.16363409 0.15648323
000290 9c 3d 15 be 63 81 6b 3e 23 14 9b 3c 5c 05 45 3e
       -0.14574283 0.22998576 0.0189305 0.19240326
0002a0 a0 d1 08 3f dd 1e b7 3d a9 8a 2d 3d 97 1a a2 3e
       0.5344486 0.089414336 0.042368565 0.3166091
0002b0 0c 13 e7 bc 78 0a 93 be 8b c3 c0 3d e3 8c 3c 3d
       -0.028207324 -0.28718925 0.09412297 0.046032798
0002c0 30 ad 4a be 70 15 a6 bd 25 9e c2 3e a3 61 e4 3e
       -0.19792628 -0.08109558 0.3801128 0.4460574
0002d0 ad 2e 9a 3d ae 22 71 3e b8 db 9b 3e 02 fe 63 bd
       0.07528434 0.23548386 0.3044107 -0.055662163
0002e0 0c 51 2c be 8f 74 84 3e ae c5 32 be 4c b2 b8 3d
       -0.16827792 0.25870177 -0.17458221 0.090183824
0002f0 e3 4c 70 3d 7e 59 0c 3f 81 8a 01 3e 88 4b b9 3e
       0.058667075 0.54824054 0.12650491 0.36190438
000300 40 9a 89 3e d9 3d 41 3d 74 33 d6 3d 2e bf c5 bb
       0.26875496 0.047178123 0.10459033 -0.0060347533
000310 79 a1 0c be 7f 6e 23 be 06 6e 82 bd a8 26 3a 3e
       -0.13733472 -0.1596012 -0.063686416 0.18178809

bias f4 [20]
000000 a9 08 2c be 73 87 e3 3e a2 64 eb bd 94 7d 0a 3f
       -0.16800179 0.44439277 -0.114938036 0.54097867
000010 cd ed 90 3e 41 b5 00 3f 57 02 d5 3e c4 6a 86 3e
       0.28306428 0.5027657 0.41603348 0.2625333
000020 de cb eb 3e 30 79 c4 3c b2 06 97 3d 39 94 2d 3e
       0.46053976 0.023983568 0.07374324 0.16951074
000030 51 ad 8f be dd 29 dd bd ff ae d5 3e 4e 72 88 bd
       -0.28061917 -0.107990004 0.41735074 -0.06662427
000040 ef e5 0c 3f 74 04 a8 bc 9d ce 5e 3e 2d ca 0f 3f
       0.5503835 -0.020509936 0.21758504 0.5616787

weight f4 [41, 20]
000000 59 97 37 be 5e f8 f2 bd 1d c9 b6 3b 4f 51 14 be
       -0.17928828 -0.118637785 0.005578174 -0.14484142
000010 48 b8 06 bf 89 2d b7 be 54 b2 20 be e1 02 87 be
       -0.5262494 -0.35776928 -0.15693027 -0.26369384
000020 56 1c ba be 7f ab 9a be 64 d9 a4 bd b3 9f f0 be
       -0.36349744 -0.30208966 -0.080492765 -0.4699684
000030 2a 5f 07 3e 04 70 50 be eb 37 d0 be a1 16 8d bd
       0.13219896 -0.2035523 -0.40667662 -0.06889082
000040 dc fe 07 bf 55 4e c7 be df 6e e8 be e0 12 8a be
       -0.5312326 -0.3892695 -0.45397088 -0.26967525
000050 64 d6 91 bd 51 4f 29 3d 59 6a 7e 3d 52 d0 f1 bd
       -0.0712097 0.041335408 0.06211314 -0.11807312
000060 ae 25 43 be 73 4d 67 bd 26 f7 67 be 0e 39 d8 3c
       -0.19057342 -0.056470346 -0.22652873 0.026394393
000070 ad 86 98 bd cf 91 34 3e 7e 87 06 3d fe 54 6f be
       -0.07447562 0.17633747 0.03284406 -0.23372266
000080 1f a4 23 be a4 2c 5c bd 49 58 88 be e1 7f 9d bd
       -0.15980576 -0.05375351 -0.26629856 -0.076904066
000090 f3 ed 81 be 10 d3 46 be 52 48 45 be c0 e9 fd bd
       -0.25376853 -0.19416451 -0.1926587 -0.123981
0000a0 df 5f 1a 3c 9a 4c 88 3d bb 3a 53 bd 91 9c 59 3d
       0.0094222715 0.066552356 -0.05156968 0.05312783
0000b0 08 1c 42 be d6 65 bd bd fa 34 1e be 87 67 9b be
       -0.18956006 -0.09247939 -0.15449896 -0.30352423
0000c0 fd 44 bc bd 51 77 58 3d 8e 4e dc bc d8 0b 10 bb
       -0.09192846 0.052848164 -0.026892927 -0.0021979716
0000d0 e5 08 48 bd fd 06 79 3d ed 68 4b bc 0a 0a 7f 3d
       -0.048836607 0.06079768 -0.012415153 0.062265433
0000e0 38 7d 92 3d ef 7f 81 3d 6c ef 1c 3a df a0 27 bd
       0.0715279 0.063232295 0.00059866044 -0.040924903
0000f0 30 b2 af 3d e3 54 cc 3e d0 f6 86 be 52 79 19 3e
       0.085789084 0.39908513 -0.26360178 0.14987686
000100 6f c2 cf 3d 2f 4f a4 3d 41 d0 37 3e 40 f2 48 3e
       0.10144507 0.080229156 0.17950536 0.19623661
000110 c8 4e e8 3d 41 e1 53 3e e5 cd 65 3e 56 ef e0 3d
       0.11343151 0.20691396 0.22441824 0.1098315
000120 97 e1 a5 bd fa f5 aa 3e 62 7e 3b 3e 13 fe 63 3e
       -0.080996685 0.3339079 0.1830993 0.2226489
000130 54 7a a9 3e 85 cd 73 3e 41 70 98 3e ab 1c de 3d
       0.3310114 0.23808868 0.29773143 0.10845312
000140 fa 50 20 be ee 56 03 bf d5 1e 50 bd a3 0e e2 be
       -0.1565589 -0.5130452 -0.050810654 -0.44151792
000150 b3 c2 f2 be 04 60 04 bf 5d 0c 0e bf 17 5a eb be
       -0.4741417 -0.5170901 -0.55487615 -0.4596717
000160 2b cc 0e bf b9 48 f0 be ee fc 32 3e 41 d8 3b bf
       -0.55780286 -0.46930483 0.17479298 -0.7337685
000170 fd 65 3c 3e 3b 04 18 bf 62 a4 13 bf b5 d3 ec be
       0.1839828 -0.59381455 -0.57672703 -0.4625527
000180 18 38 f7 be 35 dc d9 be 1e cf 22 bf eb fe 62 be
       -0.48284984 -0.42550817 -0.63597286 -0.22167556
000190 01 8e 8b 3d b9 df 8d be 67 7d 8e bc 0f aa 0a bf
       0.068141945 -0.2770975 -0.01739378 -0.5416574
0001a0 5e 54 d2 be 11 04 1e bf 09 d6 87 be 25 d9 1a bf
       -0.41079992 -0.61724955 -0.26530483 -0.60487586
0001b0 8a f4 db be ba 19 2c be eb f6 34 bd 9d 0a 29 bf
       -0.42960006 -0.16806689 -0.04418079 -0.6603182
0001c0 7a 6d 9a 3c 9a 71 0b bf 9d e8 bf be f7 2f 8e be
       0.01885103 -0.5447022 -0.37482157 -0.2777097
0001d0 85 da a6 be 90 b7 18 bf 2e 2a 2b bf ff d0 96 be
       -0.32588592 -0.59655094 -0.66861236 -0.29456326
0001e0 22 10 1a bd 88 ac 73 bf 8e 2e 20 be ab 15 34 bf
       -0.03761304 -0.95185137 -0.15642759 -0.7034556
0001f0 3e 4a 00 bf 83 7e 2d bf 84 a6 69 bf 72 c5 7c bf
       -0.50113285 -0.67771167 -0.9126971 -0.9873878
000200 58 66 3f bf 5f 02 f2 be 1c 62 bf bd 22 78 85 bf
       -0.7476554 -0.47267434 -0.09344885 -1.0427287
000210 08 c5 d4 3d 6d e9 13 bf 86 f8 13 bf 82 b4 2f bf
       0.10389143 -0.57778054 -0.5780109 -0.6863481
000220 b9 ed 6a bf 56 ac 23 bf d4 4f 4c bf 44 ca 0c bf
       -0.91768986 -0.6393484 -0.7980931 -0.5499613
000230 f3 c2 8e 3d d5 09 67 bf ab bd 80 3d 5c 37 43 bf
       0.06970777 -0.9024938 0.06286176 -0.76256347
000240 1a 42 60 bf 50 ae 05 bf 36 40 44 bf e4 1e 8d bf
       -0.8760086 -0.52219105 -0.7666048 -1.1025052
000250 3c 16 57 bf 7f 46 2b bf bd 4b 52 be d2 51 7d bf
       -0.840183 -0.66904444 -0.20536704 -0.9895297
000260 dd 51 82 3d 58 83 4c bf c1 60 19 bf ba 6b 70 bf
       0.063632704 -0.79887915 -0.5991326 -0.9391438
000270 17 67 56 bf 74 40 65 bf fe aa 35 bf 03 e7 1c bf
       -0.8375105 -0.8955147 -0.7096404 -0.61289996
000280 73 f0 eb bd c9 75 1e bf cf e6 03 be 12 74 6a bf
       -0.115204714 -0.61898476 -0.12881015 -0.9158336
000290 c2 78 4d bf 6f 9d 37 bf 9c 6e 2d bf 08 18 4f bf
       -0.80262387 -0.717246 -0.677469 -0.80896044
0002a0 32 fa 26 bf 17 cc 38 bf d8 17 5f bb c7 2a 85 bf
       -0.6522552 -0.72186416 -0.0034041312 -1.040368
0002b0 0b 50 55 be f1 1e 49 bf e6 f3 59 bf c8 53 1f bf
       -0.20831315 -0.7856284 -0.85137784 -0.62237215
0002c0 0f 38 34 bf 47 45 75 bf 27 fd 28 bf 19 f3 43 bf
       -0.7039804 -0.95808834 -0.6601128 -0.7654281
0002d0 c1 54 a2 bd 6a 0d 8c be 3e 74 b3 3d ff f4 d3 be
       -0.07926322 -0.27353984 0.08762406 -0.41397855
0002e0 28 c6 e8 be 70 88 bc be 48 f1 b1 be 88 05 e0 be
       -0.4546368 -0.36822844 -0.34754395 -0.4375422
0002f0 bf 88 41 be af 45 85 be 97 78 10 be 1e 0e d7 be
       -0.1889982 -0.26029727 -0.14108501 -0.42002958
000300 d2 05 16 be 91 0b ff be 34 f2 01 bf 9e ba 03 be
       -0.14650658 -0.49813512 -0.507602 -0.12864158
000310 bf 2b fc be b1 13 60 be 64 8e 00 bf ea aa a6 be
       -0.49252126 -0.21882512 -0.5021727 -0.32552272
000320 3b 24 a4 3d 85 ed f6 be dc 85 a5 be c7 e0 10 bf
       0.08014723 -0.48228088 -0.3232869 -0.56592983
000330 fb 56 37 bf 72 dd d9 be b7 f8 00 bf 35 5f 61 bf
       -0.71617097 -0.42551762 -0.5037951 -0.880359
000340 eb d5 1b bf d0 6b 1e bf 41 68 bc bd d8 e5 13 bf
       -0.6087329 -0.6188326 -0.09199572 -0.5777259
000350 c4 ec 68 be 32 21 1c bf 29 a6 04 bf 4c bb 19 bf
       -0.22746569 -0.6098815 -0.5181604 -0.6005142
000360 f3 c3 48 bf d5 fd fa be fe c5 2b bf 49 54 0a bf
       -0.78423995 -0.49021783 -0.6709899 -0.5403486
000370 ef b2 4a 3e 13 4f 87 3e 08 34 46 be 9a 65 18 3e
       0.1979482 0.26427516 -0.19355786 0.14882508
000380 dc 93 07 bd f8 78 7d 3e 53 ca 4e 3e e0 89 0a be
       -0.033099994 0.24753177 0.20194368 -0.13529158
000390 14 27 fb bd 7d 96 16 3e c2 89 15 be d9 7b cc bc
       -0.12263313 0.14705844 -0.14603332 -0.024961399
0003a0 cb 18 84 bd d4 58 4a 3e c5 86 c6 3d 75 15 3b be
       -0.064500414 0.19760448 0.09693674 -0.18269904
0003b0 e9 eb 2e bd 64 6a eb 3d ad 58 28 3d 19 65 44 bc
       -0.04270545 0.11494902 0.041100193 -0.011986994
0003c0 c8 34 95 3d d2 0a 41 bf 34 be eb 3d 30 fd 40 bf
       0.07285458 -0.75407135 0.11510888 -0.75386333
0003d0 09 2b 43 bf f7 d1 1a bf 30 56 e3 be 15 55 56 bf
       -0.7623754 -0.6047663 -0.44401693 -0.83723575
0003e0 d8 79 4e bf a1 ee 16 bf ff 90 14 be 9c 76 6a bf
       -0.8065467 -0.5895787 -0.14508437 -0.91587234
0003f0 29 98 69 be 29 36 45 bf 43 cf 0a bf 93 ff 22 bf
       -0.2281195 -0.77035767 -0.54222506 -0.63671225

bias f4 [41]
000000 00 9b b4 be c3 e2 46 bd 29 18 ae bd b4 8c 73 3d
       -0.35274506 -0.0485561 -0.08500702 0.059460357
000010 99 18 55 be 71 d9 b3 be a6 7c 03 bf 16 f9 c8 be
       -0.20810165 -0.35126832 -0.51362073 -0.39252537
000020 d4 9d d9 be 66 5c aa bd b6 34 99 be 5c 6d c0 bd
       -0.42503226 -0.08318405 -0.29923028 -0.09395859
000030 48 a9 ea be e1 1e d1 be 5a 84 f0 be f5 a1 c4 be
       -0.45832276 -0.4084387 -0.46975976 -0.38404813
000040 f4 0f 68 be f2 9d ed be be ac 26 be a6 51 09 bf
       -0.22662336 -0.46409565 -0.16276833 -0.5364021
000050 43 be 09 bf 6a 97 be bd a1 b1 5b be b9 d1 c8 3b
       -0.5380594 -0.09306224 -0.21454479 0.0061285165
000060 9f da a8 be 66 1e e9 be 68 3e fc bd 1b 70 a8 be
       -0.32979295 -0.45531005 -0.123165905 -0.3289803
000070 7a c7 a3 bb 53 56 79 be e9 32 a2 bc 0d a3 06 be
       -0.0049981447 -0.24349336 -0.019799666 -0.13148136
000080 27 42 85 3e 2c f1 00 be 53 5b 5b be f7 1c 13 be
       0.26027033 -0.12592 -0.21421556 -0.14366518
000090 a1 d4 3f be 3f 60 a8 be 30 2b ed be 68 f5 82 bd
       -0.18733455 -0.3288593 -0.46322012 -0.06394464
0000a0 11 00 53 be
       -0.20605494
