LSTM-AE2/model.pth (torch, 49322 bytes, 20 tensors)

weight_ih_l0 f4 [80, 41]
000000 b3 4b d4 40 77 3a bd 40 71 cc 71 40 4a b3 c3 be
       6.6342406 5.913387 3.778103 -0.38222724
000010 34 de 7f c0 4f cc 0c bf 3b 3c b3 3c 5b 41 3e 3e
       -3.9979372 -0.5499925 0.021879306 0.18579619
000020 36 88 a6 3f e1 53 a3 c0 40 8a 71 3f 25 ab 68 41
       1.3010318 -5.103989 0.9435158 14.541783
000030 9f 96 b9 40 96 19 1c 3f f8 b7 3a bf 76 e9 98 3f
       5.7996364 0.6097654 -0.72936964 1.1946247
000040 0a 1e 22 c1 5f e9 56 bf 2f 3f a3 3e 45 e1 82 bd
       -10.132334 -0.83949846 0.31884143 -0.06390623
000050 e8 bb c2 bd b4 ee f9 40 7a c9 9c 3f 2d 5c 0e 3e
       -0.095084965 7.8103886 1.2248986 0.1390235
000060 60 e6 10 bf 1e f2 08 3f 8b 7d 3c be 16 23 fe bf
       -0.56601524 0.5349444 -0.18407266 -1.9854457
000070 b0 06 a8 bf 7a dd ac 3e 9b 78 9a c0 43 01 63 bf
       -1.3127041 0.33762723 -4.8272223 -0.886738
000080 05 94 df c0 30 ce 50 c0 ca 61 89 40 fe 2e 9e 3f
       -6.986819 -3.2625847 4.293187 1.2358091
000090 5d 15 f3 3f ec e2 22 3e bb 9e ca 3e 45 26 60 bd
       1.8990895 0.15906876 0.39574227 -0.054723997
0000a0 80 d6 3c bd 6a 20 b6 3f 8d 87 ca 40 12 aa 92 bc
       -0.046103 1.4228642 6.3290467 -0.017903361
0000b0 63 a8 61 c0 2d 6b 15 be 90 c4 fb c0 8f 56 ea 3f
       -3.5259025 -0.14591666 -7.8677444 1.8307666
0000c0 c6 2b 00 3e 19 77 49 bf 6c 47 0d 41 40 78 b2 3f
       0.12516698 -0.78697354 8.829937 1.3942947
0000d0 be 4c 3d 3f 98 cb 55 c0 bd 63 3a c0 cc 57 87 c0
       0.73945224 -3.3405514 -2.9123375 -4.2294674
0000e0 25 c6 f1 c0 e6 63 9a c0 c5 32 d2 be d2 2e af 3f
       -7.5554376 -4.8246946 -0.4105436 1.3686163
0000f0 6a 7f ec bd 7b d2 8f 3d 3e 88 f4 40 9e 2d 7e 3e
       -0.1154774 0.07022568 7.641631 0.24822089
000100 fd da d5 be f2 51 d7 bf 6c 0a 9f bf da 28 c4 40
       -0.41768637 -1.6821883 -1.2425056 6.129987
000110 fc e6 54 40 38 09 99 bf ef d5 21 3f be c5 35 c1
       3.3265982 -1.1955938 0.6321706 -11.360777
000120 ec ce ff be 17 95 32 3e 9d 2f 63 c0 67 81 dc bf
       -0.49962556 0.17439686 -3.549781 -1.722699
000130 45 65 9a bf 42 ee a1 be a3 0c 91 c0 e8 83 cb 3f
       -1.2062155 -0.3162709 -4.5327926 1.589963
000140 2a 04 9f 3f 13 ad 9d 3f 5a d1 4a 40 2d 8a ac 40
       1.2423146 1.2318443 3.1690278 5.391867
000150 88 ae 2e 40 79 5b 37 c0 26 b4 9c 40 11 58 39 c0
       2.7294025 -2.864958 4.896991 -2.8960001
000160 28 76 f1 bf 09 be 3e 3e ac 75 52 bf 19 38 3c c1
       -1.8864183 0.1862718 -0.82210803 -11.763696
000170 ff 26 4d bf fd 6e ac 40 12 eb 80 40 43 9f 4b 40
       -0.8013763 5.3885484 4.028695 3.1815956
000180 97 dc 7b 3f d8 e4 f7 bf 6e 9b 0c 40 e5 0e fe 3f
       0.9838347 -1.9366713 2.1969867 1.9848295
000190 6d 49 60 40 d4 a1 ac 3d b9 63 35 bd 4c 64 df c0
       3.5044816 0.08429304 -0.044284556 -6.9809933
0001a0 38 63 4d c0 a0 05 b9 40 71 5d a3 bf e1 84 83 3f
       -3.2091808 5.7819366 -1.2762891 1.0274926
0001b0 43 1f 45 c0 5c 78 56 c0 64 93 0f 3f b5 c6 0e c0
       -3.080033 -3.3510962 0.56084275 -2.230878
0001c0 ae b3 9f 3f 3e e9 c7 3f 5c 98 ab 40 b8 35 ec 40
       1.2476709 1.5618055 5.3623486 7.3815575
0001d0 10 c8 10 3f bb c0 9d 40 7f fc a3 bf e3 41 29 3e
       0.5655527 4.9297767 -1.2811431 0.1652904
0001e0 02 94 d3 bf 5f 56 e7 3f 2d 7a a8 3f 32 3a 86 be
       -1.6529543 1.8073233 1.3162285 -0.26216274
0001f0 32 24 84 bf 51 be ee be f6 fa 2a bd cc bc 44 bf
       -1.0323546 -0.46629575 -0.04174324 -0.7685058
000200 53 ef 18 41 0f ed d6 bf cf ea 21 3e 47 eb c0 be
       9.558429 -1.6791095 0.15812229 -0.37679502
000210 73 d0 27 40 0f 66 4b bf f3 cd dc 41 f5 b9 3a 3f
       2.6220977 -0.79452604 27.600561 0.7294
000220 99 c0 f9 3e c0 bc 88 40 77 24 f1 3f 77 80 5c bf
       0.48779753 4.273041 1.8839253 -0.8613352
000230 02 00 bf bf 32 28 72 40 0e 6a 4c 3d a6 fd e9 bd
       -1.4921877 3.7837033 0.04990583 -0.11425333
000240 28 cf db 3f c8 9e dd c0 6b 53 31 c1 78 eb f8 bf
       1.7172594 -6.9256325 -11.082866 -1.9446859
000250 05 e9 91 c0 1a f2 66 40 05 dd a0 40 0e 5d 03 c0
       -4.559695 3.6085267 5.02698 -2.0525546
000260 b3 4f ea 3e ef 54 d7 bf 48 97 5c c0 a8 23 94 bf
       0.4576393 -1.6822795 -3.4467335 -1.1573381
000270 dd 16 bf bf 83 10 65 3e 85 ab 9d bf 99 af c8 3f
       -1.4928852 0.2236958 -1.2317969 1.5678588
000280 8b 32 d4 bf 42 9a a4 bf aa aa c8 40 e4 8d 69 40
       -1.6577924 -1.2859576 6.270833 3.6492853
000290 52 53 15 40 eb ef 13 c0 6f e0 12 bf 75 aa f7 be
       2.3332105 -2.3115184 -0.5737371 -0.48372236
0002a0 47 90 31 c0 51 99 5b 40 00 43 10 bf 95 75 61 be
       -2.774431 3.4312327 -0.56352234 -0.2201751
0002b0 93 5f 48 bd 7b 56 6f 40 82 c9 2e bf d9 0e 8b 40
       -0.04891927 3.7396533 -0.68276227 4.3455625
0002c0 14 6b ec be b5 21 3c 3f 79 c1 cc 3d e4 45 8e 3f
       -0.46175444 0.7348893 0.099978395 1.1115079
0002d0 5b cc c1 bf 19 72 6d 40 57 e8 73 40 4e 5e 36 bc
       -1.5140489 3.710089 3.811056 -0.011130882
0002e0 7f 7f 24 be 5e 6f 90 3f 94 3b 8c be 5f 4b be 40
       -0.16064261 1.1283987 -0.27389205 5.9467006
0002f0 0e 65 86 be cc 47 ce 3f db 49 2f 40 2b de 80 40
       -0.26248974 1.6115661 2.7388828 4.02712
000300 cf 88 4c c0 45 9a 87 bf 24 b3 a5 3f 5a ce f9 c0
       -3.1958501 -1.0593954 1.2945294 -7.8064394
000310 75 3c 58 3d 19 88 57 40 6c 45 c3 c0 2e 73 21 41
       0.05279203 3.3676817 -6.1022243 10.09062
000320 d2 3c eb 3f 15 fb 61 3f 2a dc 9f 3f 82 89 09 be
       1.8377936 0.88273746 1.2489064 -0.13431361
000330 10 62 e4 3e 0b 2b 0a c0 1b bd 55 c0 39 04 8c c0
       0.44606066 -2.1588771 -3.339667 -4.3755155
000340 4f f7 a7 c0 fe 9f 50 bf 55 31 66 c0 48 ca 9c 3f
       -5.248939 -0.8149413 -3.596761 1.2249231
000350 c7 87 61 bd 21 65 b1 3d 16 00 72 bd 16 01 f2 be
       -0.055061128 0.08661867 -0.059082113 -0.47266454
000360 06 13 3a c0 c1 7e 7d be f9 66 14 bc f2 43 ea 3e
       -2.907411 -0.24755384 -0.009057754 0.45754963
000370 e8 d4 f1 3e c0 22 d5 3f 77 2f bf 3b ce c5 c0 3e
       0.47232747 1.665123 0.0058345157 0.37650913
000380 7d b7 d1 bd c8 c5 9a bc 26 9c 3b 3e 1c e4 04 c0
       -0.10240076 -0.018893138 0.18321285 -2.0764227
000390 ec 04 07 c0 19 93 05 40 e5 bd cc 3f 50 c6 ee bf
       -2.1096754 2.0871031 1.5995451 -1.865427
0003a0 3e 0b eb bf 3f 55 7b c0 fe 28 f6 bf b4 6e 39 3f
       -1.8362806 -3.927078 -1.923126 0.72434545
0003b0 63 ae 82 c0 50 d3 51 bf fb dc a3 be f6 96 05 c0
       -4.0837874 -0.8196306 -0.32004532 -2.087339
0003c0 9f 52 f4 bf e5 88 c8 3e 98 be 05 3f af 2b a0 3f
       -1.9087714 0.39166942 0.5224395 1.2513331
0003d0 41 8c 5b 40 5a ce 9a bf d1 8c df 40 71 85 7f 40
       3.4304354 -1.2094223 6.9859395 3.9925196
0003e0 82 e4 dd bf ef b8 f1 bf a0 88 45 bf 4c 13 4f c0
       -1.733536 -1.8884562 -0.771616 -3.2355528
0003f0 e9 9d 1f 3f 66 e6 a8 3d 81 f8 51 3e e1 b1 c9 3f
       0.62350327 0.0824707 0.20504953 1.5757409

weight_hh_l0 f4 [80, 20]
000000 54 95 f4 bd 37 37 26 3e 4f f5 27 3e fc 1b 23 3e
       -0.119425446 0.16232 0.16402172 0.15928644
000010 28 86 8c 3d 86 d3 3b be 81 8e e4 3d 63 d8 05 3c
       0.06861526 -0.18342409 0.11159993 0.008169266
000020 65 7c a0 bc 78 d1 67 bd 98 d8 04 3e d7 40 c3 bd
       -0.019590566 -0.05659625 0.12973249 -0.095338516
000030 01 6d 38 be 42 31 4b 3d 84 06 1a bd c2 43 c2 bd
       -0.18010332 0.049607523 -0.03760387 -0.0948558
000040 37 8e a0 3d 54 41 30 3e d1 c4 07 be 8b 5f 1d be
       0.07839625 0.1721242 -0.13258673 -0.15368478
000050 35 7a 9c bc d7 3d a0 bd 55 59 b0 3d 39 cf b5 3d
       -0.019101242 -0.07824295 0.08610789 0.08877415
000060 4d e6 7b 3d 40 6e 5d 3e c3 cb dd 3d 7f 44 04 3e
       0.06149893 0.21624088 0.1082988 0.12916754
000070 99 63 40 3e 71 cd 38 3e c4 b8 1f bd a6 e1 5b be
       0.18787993 0.1804712 -0.038994566 -0.21472797
000080 4c 61 59 3e e1 0c b3 bd 2c 02 52 3d 18 bd 2b 3d
       0.21228522 -0.08742691 0.051271603 0.04192838
000090 f6 aa 99 3d 41 5c fe bc c8 00 23 3e 66 0c c8 bd
       0.07503311 -0.03104985 0.15918267 -0.0976799
0000a0 fd 92 2c 3e f7 2a b9 bc 45 62 d2 bd 4a 32 59 3e
       0.16852947 -0.022603495 -0.1027265 0.2121059
0000b0 0d 40 6d bd ba 5a 41 3e 3b 7c d0 3d b6 f8 d1 bd
       -0.05792241 0.18882266 0.10179945 -0.10252516
0000c0 03 4a 0f be 6e c6 59 bd 00 54 52 be bc 22 aa bd
       -0.13993077 -0.053167753 -0.20539856 -0.08307406
0000d0 39 27 8d bd 69 93 f4 3c 22 d7 2a be 26 4d 08 be
       -0.06892247 0.029855447 -0.16683629 -0.1331068
0000e0 5f f4 58 be 5e 26 13 3d 8e 32 95 3d 9d 73 57 3e
       -0.2118697 0.03592526 0.07285033 0.21040197
0000f0 9b f7 7e 3d 73 8d 0f 3e 53 93 53 bd 64 ae 28 3e
       0.062247854 0.14018802 -0.05165417 0.16472775
000100 f1 d7 05 3e 5c 09 48 3e d1 a6 69 3d cd e4 bd 3d
       0.13070656 0.1953482 0.057043854 0.09272156
000110 e6 59 96 3d dc 3a b4 bd 40 1a 09 be ec ce 48 3e
       0.073413655 -0.08800289 -0.1338892 0.19610184
000120 f3 75 55 3e 52 6b 39 3e 71 ba 5c bc 32 05 03 3e
       0.20845775 0.18107346 -0.0134721855 0.1279495
000130 96 ba b0 3b e0 1e c9 bd 62 9f 1c 3a 93 d2 ff bd
       0.0053933365 -0.09820342 0.00059746776 -0.12491336
000140 74 7c 40 bc c7 46 37 be 69 b1 4b 3e 0a 17 59 3e
       -0.011748422 -0.17898093 0.19891895 0.21200195
000150 ab 91 b9 3d 9a 3d a6 3d af be 76 bc ba 2d 45 3e
       0.09060987 0.08117218 -0.015060111 0.19255725
000160 0a 91 02 be dd e3 33 3e 15 34 c5 bd 52 c1 bf 3d
       -0.1275064 0.17567392 -0.096290745 0.09363045
000170 04 6a 04 be 70 d1 5b be 37 b6 35 3e 14 23 f5 3c
       -0.12931067 -0.21466613 0.1774529 0.029923953
000180 61 41 21 be 08 84 2a 3e dc bd 60 3e a0 c9 5f be
       -0.15747596 0.16651928 0.21947426 -0.21854258
000190 7f c8 1b be 1e 6e 3e be 22 29 1b be 08 76 a5 bd
       -0.15213202 -0.18596694 -0.1515241 -0.08079153
0001a0 b8 90 8c 3d a1 bf 42 3e a2 a8 32 3e ed 74 1d bc
       0.068635404 0.19018413 0.17447141 -0.009610397
0001b0 4c 56 89 3d a0 e7 41 be b3 c6 c4 3c 13 ee 83 bd
       0.06705913 -0.18936014 0.024020528 -0.064418934
0001c0 7a ba 12 bc 05 c3 ac bd 76 23 c2 3c a4 52 4c 3e
       -0.008955592 -0.084356345 0.02369855 0.199534
0001d0 fc 7d 4b be a0 28 9f bc d0 4f 09 3e ed a8 7f bc
       -0.19872278 -0.019428551 0.13409352 -0.01560424
0001e0 e5 f3 35 3d 01 38 f0 3c 81 60 03 3d 6f 2d 4f bd
       0.04442205 0.02932358 0.032074455 -0.05058044
0001f0 f5 9e 52 3e 3c 6f 54 be 7d 7b 50 3e 05 dd e5 bd
       0.2056845 -0.20745558 0.20359607 -0.11223797
000200 06 52 93 bd fa e5 14 3e 6e ac 19 3d b9 01 83 3c
       -0.07193379 0.14540854 0.037517957 0.015992032
000210 c3 62 97 3d bf 7c 4c be a0 cf 5a 3c 49 10 1e 3e
       0.07391884 -0.19969462 0.013355166 0.154359
000220 c2 c1 07 3e b7 44 35 3e 57 04 bc 3d 21 a8 1b 3d
       0.13257506 0.17701994 0.09180515 0.038002137
000230 9a 46 ae 3d c4 bc b8 3d 6e 01 0c 3e 91 b4 8b bb
       0.0850956 0.09020379 0.1367242 -0.0042634686
000240 a1 0a c4 bd 63 03 9b bd e9 31 d9 bd fa 49 4d be
       -0.0957234 -0.07569005 -0.10605223 -0.20047751
000250 9d 7b 91 3d c5 38 28 bc 02 81 40 3d b9 70 b5 bd
       0.071036555 -0.010267441 0.04699803 -0.08859391
000260 8f 09 b0 bd c0 c4 48 3e 74 b8 37 be c2 2c 4b bd
       -0.08595573 0.19606304 -0.17941457 -0.04960323
000270 28 32 3f bd 70 86 40 be 57 e4 0b 3e aa cd e6 bd
       -0.046678692 -0.18801284 0.13661323 -0.11269696
000280 1d e7 21 3e 3f 6e 2c 3d f5 29 8b 3d f9 9b 9c bc
       0.15810819 0.042097326 0.06795112 -0.019117342
000290 e2 a9 5d 3e 97 0b 13 be 25 2c c4 bd 80 c5 37 3e
       0.21646836 -0.1435989 -0.095787324 0.17946434
0002a0 e1 f5 41 3e 83 5e 5c 3d 27 69 3c be fe 51 9f bc
       0.18941452 0.05380107 -0.18399487 -0.019448277
0002b0 b1 b6 76 3d a8 71 f1 bd ac 1b 31 3e a5 34 3e be
       0.06023282 -0.11789256 0.17295712 -0.1857477
0002c0 70 47 26 be 35 15 42 bd c4 1b 64 3e f4 4a 32 bc
       -0.16238189 -0.047383506 0.22276217 -0.010882128
0002d0 bb 66 1f 3d 37 60 ca bd 7c 75 02 be 1f be b6 bb
       0.03891633 -0.09881633 -0.12740129 -0.0055768634
0002e0 4e 56 c2 bd 58 4f 51 ba 90 66 9f bd db ca c7 3d
       -0.094891176 -0.00079845404 -0.07783234 0.097554885
0002f0 07 92 91 3d 58 71 0f be 1a 83 5c be a6 66 2b be
       0.07107931 -0.14008081 -0.21534386 -0.16738376
000300 69 6e 13 be de e0 0b 3d 8e 3b 14 be 34 77 70 3d
       -0.14397587 0.034149997 -0.14475843 0.05870743
000310 d8 c8 40 3e 6f f9 46 3d af df 47 3e ba e3 fa 3d
       0.18826616 0.048577722 0.19518922 0.12250467
000320 e0 9e a9 bd 02 31 00 3e 15 16 92 3d 42 38 42 be
       -0.08282256 0.12518695 0.07133118 -0.18966773
000330 0c 30 de bd 30 1f ea bd d3 0c 54 be d4 89 57 be
       -0.10849008 -0.1143173 -0.20708017 -0.21048671
000340 b1 89 42 3e c8 e9 f4 bc 60 ed 12 be b5 ca 34 be
       0.18997838 -0.029896632 -0.14348364 -0.17655452
000350 19 5a 45 3e f5 f7 84 3d b1 8e f5 3c ec 7d 9b bd
       0.19272651 0.064926066 0.029975267 -0.07592377
000360 c7 94 ae 3d 96 35 46 3e aa 9f 8f bb ee f0 bb 3d
       0.08524471 0.19356379 -0.004383047 0.09176813
000370 f4 88 02 be 52 64 aa bc 1b b1 1e bc dd f1 f7 bc
       -0.12747556 -0.02079979 -0.00968578 -0.030266697
000380 8e 62 3c be c2 7f 07 3e f1 c7 2d bd f6 e9 cd 3a
       -0.1839697 0.1323233 -0.042427007 0.0015709985
000390 04 d5 39 3c 14 08 21 3e 34 77 51 bd b8 21 2a be
       0.011342291 0.15725738 -0.05113907 -0.16614425
0003a0 83 bc 10 3e e3 90 fd 3c 86 b0 6c bc 81 a2 61 be
       0.14134412 0.030952876 -0.014446383 -0.22034647
0003b0 30 17 38 be 61 af 12 bd 42 1f 96 bd bb 5d 23 be
       -0.17977595 -0.035811786 -0.07330181 -0.15953724
0003c0 a3 ee 5e 3e d6 3a 2c be b7 8c 3e bb da 97 a6 3b
       0.2177072 -0.16819319 -0.0029075572 0.00508402
0003d0 47 61 21 be f3 23 22 be b2 a6 db bd 10 cb 25 be
       -0.15759765 -0.15834026 -0.10725154 -0.16190743
0003e0 a5 8d 14 bd 03 b3 3f be 41 82 58 bd 82 a3 63 3c
       -0.036267895 -0.18720631 -0.052858595 0.013893964
0003f0 ab 34 a5 3d 7e bb 11 3e 56 e4 8c bd 54 af e2 3d
       0.08066686 0.14231679 -0.06879489 0.110685974

bias_ih_l0 f4 [80]
000000 d2 79 3f c0 7b 1b 0f 3f 57 c7 97 bf 46 03 1e c0
       -2.9918103 0.55901307 -1.1857709 -2.4689498
000010 7e 79 a6 c0 58 9f 53 c0 42 a4 89 bf dc b4 c0 bf
       -5.2023306 -3.3066006 -1.0753253 -1.5055194
000020 a7 f3 51 3f 24 32 78 c0 9d 42 33 c0 f4 b3 ca 3e
       0.8201241 -3.8780603 -2.8009408 0.39590418
000030 2c 0f ba bf 04 c7 7b 3f 83 5a d4 bf e4 7a ff be
       -1.453588 0.9835055 -1.6590122 -0.49898446
000040 0b 98 85 c0 f2 1c 00 c0 3a 37 ab 3e d4 a1 95 3f
       -4.17481 -2.0017667 0.33440572 1.1690011
000050 45 32 ec bd a3 e6 30 3b cb 3c a8 bd f0 95 1e bc
       -0.11533026 0.002699294 -0.0821472 -0.009679303
000060 68 81 95 3d 97 53 0b be 18 9b e3 3d 9a 61 72 3d
       0.07300073 -0.13606106 0.11113566 0.05917511
000070 c5 c0 a3 bd 16 4f 64 be d3 c5 4f bd 34 d8 c8 bc
       -0.07995752 -0.22295794 -0.05072577 -0.024517156
000080 44 cd 0e 3e d3 da c6 3d 78 66 09 bd 39 b9 38 be
       0.1394549 0.09709706 -0.033544987 -0.18039407
000090 8d 76 1f 3e 11 eb a7 bd d3 c0 0c be 30 d8 43 3e
       0.15572567 -0.08199132 -0.13745432 0.19125438
0000a0 aa d3 27 c0 5d 10 08 bf a2 e1 bb bf d8 5b 45 40
       -2.622294 -0.5314997 -1.4678233 3.0837307
0000b0 3b 96 2d 3f bd c1 1b 3f 3f fa ff bf 22 44 9d 3e
       0.6780736 0.60842496 -1.9998244 0.30716044
0000c0 d8 5a 59 3e b6 34 25 bf 11 ab 15 bf dd 8b 28 40
       0.2122606 -0.64533556 -0.5846415 2.6335366
0000d0 48 3e df 3f 83 b1 9d bf 9e 49 4d 40 5a 2e 57 40
       1.7440882 -1.2319797 3.2076182 3.362204
0000e0 76 ab 13 c0 0a ea 57 3f 5e a4 34 c0 be c5 37 c0
       -2.3073401 0.8434149 -2.8225322 -2.8714442
0000f0 89 39 13 c0 42 c4 12 40 8f 06 07 3f aa 4d 6f 40
       -2.3003867 2.2932286 0.5274438 3.7391152
000100 68 c2 50 bf a2 48 6e c0 af f7 8c 3f 9c aa 27 3f
       -0.8154664 -3.7231832 1.1013087 0.65494704
000110 d6 a2 93 c0 27 b5 8a c0 2d 9d 4a c0 85 61 3e be
       -4.6136274 -4.3346133 -3.1658432 -0.18591888
000120 6e 84 4c bf 3e 26 c8 bf b3 97 48 c0 67 45 d0 bf
       -0.7988957 -1.563667 -3.134259 -1.627118
000130 6f 5f f7 bf 02 d3 11 c0 c7 57 e5 3f 63 29 15 40
       -1.9325999 -2.278504 1.7917413 2.330651

bias_hh_l0 f4 [80]
000000 ec 5e 24 c0 dd 3a 24 3f 33 c3 bd bf 7d 27 1b c0
       -2.5682936 0.6415232 -1.4825195 -2.4242852
000010 40 52 a6 c0 20 fd 59 c0 e8 6d a3 bf 36 0f b5 bf
       -5.1975403 -3.4060745 -1.2767916 -1.4145267
000020 81 54 90 3f 93 45 6f c0 a9 79 37 c0 27 b2 ec 3e
       1.1275789 -3.7386215 -2.8668005 0.4622967
000030 78 89 ba bf 1e 7c 83 3f 73 b8 d0 bf 72 f4 19 bf
       -1.4573202 1.0272253 -1.630629 -0.6013862
000040 52 1d 85 c0 ba 61 fd bf 89 a0 18 3f 82 55 7d 3f
       -4.159829 -1.9795449 0.5961996 0.989586
000050 c9 e4 db bc 49 21 32 be 24 2d 47 3e 91 9e 28 3e
       -0.026842492 -0.1739551 0.19450814 0.16466738
000060 f3 7b 31 3e 84 7b c8 bd a3 e0 9e bd b4 f5 11 be
       0.17332439 -0.09789184 -0.0775769 -0.14253885
000070 ff 3b 4e 3d 9a c5 b1 bd df ab 0a bd 9d fc 61 3d
       0.050350185 -0.08680268 -0.033855315 0.05517255
000080 55 cd 37 be cf bc 4a 3e a0 fa 6e bd 11 64 ee 3d
       -0.17949422 0.19798587 -0.058344483 0.1164018
000090 33 f4 51 bd fe 75 90 bd 37 3a 15 be 09 a4 4a 3e
       -0.051258277 -0.07053755 -0.14572988 0.19789137
0000a0 e6 15 20 c0 e7 bc 04 bf 76 f9 d6 bf f6 c1 2e 40
       -2.5013366 -0.5185074 -1.679488 2.7305884
0000b0 ad d2 7e 3f db 56 62 3f fb d0 fa bf 4b 2e 34 3e
       0.99540216 0.8841378 -1.9595026 0.17595784
0000c0 84 0c 65 3e ac bd 90 be 33 0a 10 bf bb 8f 37 40
       0.22368056 -0.28269708 -0.5626556 2.8681476
0000d0 d0 8c dd 3f e2 f8 cc bf b1 76 46 40 58 47 5f 40
       1.7308598 -1.6013453 3.1009943 3.4887295
0000e0 d6 a2 11 c0 bf 6a 3a 3f 40 89 49 c0 9a a0 3a c0
       -2.2755637 0.7281913 -3.149002 -2.9160523
0000f0 5d 22 00 c0 fc bf 24 40 5b a3 08 3f bc b7 67 40
       -2.0020974 2.5742178 0.5337426 3.6205893
000100 92 39 94 bf 52 ff 5f c0 6b 5e 71 3f 56 2f 52 3f
       -1.1580069 -3.4999585 0.94284695 0.8210348
000110 2d 8b 92 c0 f7 34 8c c0 95 93 47 c0 1c c2 23 3d
       -4.579489 -4.3814654 -3.1183827 0.03998004
000120 ca 77 15 bf b6 2a c0 bf b7 cd 41 c0 1b 8e c9 bf
       -0.5838591 -1.5013034 -3.0281808 -1.5746492
000130 33 f3 e6 bf ec 86 05 c0 0d 35 f5 3f c5 37 24 40
       -1.8042969 -2.08636 1.9156815 2.565904

weight_ih_l0 f4 [40, 20]
000000 03 95 a7 3f 33 78 14 c0 ed 6d c5 c0 bd 04 4e c0
       1.309235 -2.3198364 -6.1696687 -3.2190392
000010 d5 03 33 41 59 fb 4a 40 78 42 10 40 5a 0c ae c1
       11.188436 3.171591 2.254057 -21.756031
000020 50 1f ad bf 70 b9 71 40 0b 83 95 3f 68 4c 09 40
       -1.3525181 3.7769432 1.1680616 2.1452885
000030 7a 35 07 c1 de 7d 12 40 67 76 3e bf 56 fb 56 c0
       -8.450556 2.2889323 -0.7439942 -3.3590903
000040 63 d8 b1 3f b6 63 23 bf 02 a8 5c 40 0a a3 59 c0
       1.3894161 -0.6382402 3.4477544 -3.400576
000050 65 16 9f 41 08 18 36 c0 0d 38 b1 c0 2b 37 0b c1
       19.885935 -2.8452168 -5.538092 -8.700969
000060 a0 77 00 c0 dc fc 4d 40 21 2d 0c 40 a4 35 09 c0
       -2.0073013 3.2185583 2.1902544 -2.143899
000070 a7 ca 34 3e de 24 5f 40 db 99 66 41 54 77 19 c1
       0.1765543 3.4866252 14.412562 -9.591633
000080 71 a0 4d 40 f0 4f 93 41 69 30 a5 bf b8 d4 a9 c1
       3.2129176 18.414032 -1.2905399 -21.228867
000090 f8 c2 ab bf a9 8b bd 3f d4 f7 49 41 b3 df b5 40
       -1.3418875 1.4808246 12.623005 5.683557
0000a0 db a1 82 41 5d a9 ae 41 82 31 53 3f 80 86 28 c1
       16.329031 21.832697 0.8249742 -10.532837
0000b0 f1 4e 60 c0 82 db 0e 40 7f c1 87 40 34 3d 8b c1
       -3.5048182 2.2321477 4.24237 -17.404884
0000c0 f5 1e a3 40 89 fe 32 c0 cb cf 4e 41 15 c3 e6 3e
       5.097529 -2.7967856 12.925731 0.4507071
0000d0 ca 81 9f c1 67 01 b1 40 ec 0a 89 c0 18 39 83 c1
       -19.938374 5.531421 -4.282583 -16.402878
0000e0 5c b2 c5 3f 9a a7 2c 3e 73 38 d8 41 92 24 b1 c0
       1.5445056 0.1686081 27.027563 -5.535714
0000f0 7e cb 0a 41 3d 60 1f 40 c3 64 45 c0 71 7c 8a c1
       8.674681 2.490249 -3.084275 -17.310762
000100 e1 29 c2 c0 ea d4 23 3f f7 3f c0 3c 18 f0 99 3e
       -6.067612 0.63996756 0.023468 0.3006599
000110 bf d3 df 3f 5a 4d 51 c0 47 05 f1 40 97 1d 42 41
       1.7486495 -3.2703462 7.531894 12.132224
000120 0c ea a5 be 36 ea 21 41 d4 e3 c8 40 d5 37 8f 40
       -0.32405126 10.11968 6.277811 4.4755654
000130 00 ff f0 40 46 d8 6e 3d 74 f5 51 41 6e 0c 10 3f
       7.531128 0.058311723 13.122425 0.56268966
000140 49 cf c0 c0 3c d7 45 40 f5 91 91 40 b1 ac 44 c0
       -6.0253034 3.0912619 4.549067 -3.0730402
000150 c0 ba bc 40 3d ad 36 3e 50 87 6c c0 ae 09 cc c0
       5.8977966 0.17839523 -3.6957588 -6.3761816
000160 7f 5e 4c c0 4a 30 4c 40 4e b9 2b bf b4 2a 44 c1
       -3.1932676 3.1904473 -0.6707963 -12.260426
000170 2a cb 9a 40 7e 46 65 c0 1a 98 82 40 e9 39 29 c0
       4.8373003 -3.5824275 4.081067 -2.6441596
000180 08 e1 17 40 d8 a9 38 40 63 d6 0e 41 37 a2 27 40
       2.3731098 2.8853664 8.9273405 2.6192758
000190 28 4a d6 bd a7 ca 2f be d7 22 3d 3f 3a 14 d8 c0
       -0.10463363 -0.1716715 0.73881286 -6.752469
0001a0 e8 64 59 42 0b 5a 15 bf 53 cd 16 c0 6a 91 a9 3e
       54.34854 -0.5834052 -2.356282 0.33118755
0001b0 83 e0 c6 bf fc 77 31 40 93 07 c3 bf 98 1d 80 c0
       -1.5537266 2.7729483 -1.5236686 -4.0036125
0001c0 e4 2a 2e 3e a4 6b 10 c0 7a ad 9b be 18 86 c2 40
       0.17008549 -2.2565699 -0.3040579 6.078869
0001d0 93 f7 36 41 47 25 f5 3f bc 27 5e bf fd e7 3b 40
       11.435443 1.9152001 -0.8677938 2.9360344
0001e0 d7 44 79 3f 1a 75 82 bd 27 40 52 41 1c af 07 40
       0.97370666 -0.063699916 13.140662 2.1200628
0001f0 e7 21 ad bf 22 39 88 3f cc 06 24 3f 58 0b 1e 41
       -1.3525971 1.0642436 0.6407287 9.877769
000200 b7 64 de bf df b9 18 40 9c b1 0f 40 be f5 a4 c0
       -1.7374486 2.3863447 2.2452154 -5.154998
000210 5d c4 3d c0 3b 72 a2 c0 7d 71 4a c0 1a 5d 30 40
       -2.96511 -5.076444 -3.1631768 2.7556825
000220 61 c5 62 41 91 6a 99 3f ca 06 7b bf cc fc ca 3f
       14.173188 1.1985646 -0.98057234 1.5858397
000230 d4 5b f4 40 5d 34 fc bf 6e 96 14 c1 f5 7b f4 3f
       7.6362095 -1.970348 -9.286726 1.9100329
000240 d7 9f 31 41 79 57 71 3f fc 74 db 40 43 7e b9 c1
       11.101523 0.942741 6.8580303 -23.186651
000250 d0 96 c5 be 4e fe 3d 40 1b 0b b8 bd e6 7c c6 3f
       -0.38591623 2.9686465 -0.08986493 1.5506866
000260 c1 7b d3 c0 ae 3b 1b c0 33 04 21 40 a3 d9 70 bf
       -6.6088567 -2.4255176 2.5158813 -0.9408209
000270 45 4e 8a 40 5f 94 81 3f a8 60 fb bf 99 05 c1 be
       4.3220544 1.0123404 -1.9638872 -0.37699583
000280 dd 38 b1 40 ed f7 85 c0 1e 72 2a 40 72 2b 7e bf
       5.5381913 -4.1865144 2.6632152 -0.9928504
000290 9e 9e 34 41 16 8b 23 3f eb a5 d9 bf b5 db 4f c0
       11.288725 0.63884103 -1.7003759 -3.2477849
0002a0 9a 85 09 c0 53 a2 ab 40 57 99 0b c1 2a b4 8d c0
       -2.1487794 5.363565 -8.7249365 -4.4282427
0002b0 6b f1 a1 41 bf e7 62 c0 50 c3 9c 40 5a 74 a5 40
       20.24288 -3.5453947 4.898842 5.170453
0002c0 87 78 c7 bf 74 75 78 40 51 4a 6e c1 09 a2 1b 41
       -1.5583657 3.8821688 -14.893144 9.727059
0002d0 57 21 a9 40 63 86 60 c1 d1 88 8c 40 ff 26 23 41
       5.28532 -14.032809 4.391701 10.197021
0002e0 03 3b 7b c1 d8 7f 99 3f e6 e1 1c c0 49 53 e8 be
       -15.701907 1.199214 -2.4512877 -0.45376042
0002f0 d0 a7 64 3f 2b 8a 59 40 93 99 35 41 63 90 12 c1
       0.8931856 3.399058 11.349994 -9.160251
000300 16 88 ad 40 f1 7b 81 c1 d9 46 3a 41 6a 8a 07 c1
       5.422862 -16.185518 11.642297 -8.4712925
000310 4d 6c d2 bf 21 e5 30 be 89 2a 9b c1 f9 81 f9 c0
       -1.6439301 -0.17274906 -19.39577 -7.797116
000320 89 5f 87 3e 5b b5 87 3e 55 df f4 bc cd ca 8c 3e
       0.26440075 0.2650555 -0.02989165 0.27498475
000330 aa ec 8b 3e 66 9b 58 be 7a 41 81 3e 34 92 4c bd
       0.27328998 -0.2115303 0.25245267 -0.049944118
000340 d3 5c 2e be c2 6f 16 be 9c 1d 55 3e 8e 04 19 bd
       -0.17027597 -0.1469107 0.20812076 -0.03735786
000350 c3 af 64 bd 41 35 9b 3e 0b e8 82 be 36 6b 85 3e
       -0.055831682 0.30314067 -0.2556766 0.26058358
000360 99 8a 7d be 9c 96 bf bc ba 93 79 bd f8 c0 f3 3d
       -0.24759902 -0.023387246 -0.0609319 0.1190204
000370 06 1a 5a be a1 39 d7 3d 65 3b 18 be f8 71 66 be
       -0.2129899 0.10509039 -0.14866407 -0.22504413
000380 60 c9 61 b9 53 c8 55 be 8e 5c 3e bd 1a 1f e0 bc
       -0.0002153269 -0.20877199 -0.046474986 -0.02735858
000390 bf cc e9 3d c9 86 98 be b5 a6 4a 3d c2 40 9d be
       0.11416005 -0.29790333 0.04947539 -0.3071347
0003a0 64 30 85 be 93 69 40 3d d5 6c 92 be 2d c3 6d 3e
       -0.26013482 0.046975683 -0.28598657 0.23218985
0003b0 34 3f 32 be 2f 97 15 bb d7 e6 93 3e 44 87 49 be
       -0.17406923 -0.0022825708 0.28887054 -0.19680506
0003c0 89 b3 ba bc af 1f 01 3d c6 88 37 be 6e c5 9b be
       -0.022790687 0.031524356 -0.17923269 -0.30424064
0003d0 95 6a b3 3d 2f 88 bc 3d ba 8a 53 3e 2c 5a 56 3e
       0.08760563 0.092056625 0.20658389 0.20932835
0003e0 63 9d 6a 3e 66 5c 21 bd bf 7c 67 3e 71 01 56 be
       0.22911601 -0.03939476 0.2260618 -0.20898987
0003f0 88 d8 90 3d a7 1b 48 be 7e 6d 12 be f7 f2 23 3e
       0.0707255 -0.19541799 -0.1429958 0.16010652

weight_hh_l0 f4 [40, 10]
000000 dc a3 cd 3d f7 5c 96 be f4 4d 08 bd 8e 22 a5 3d
       0.10041019 -0.29367802 -0.033277467 0.080632314
000010 ef fc a6 39 27 5a 91 be 1a c5 72 3e b0 e1 53 3e
       0.00031850438 -0.28389093 0.23708001 0.20691562
000020 8b 7b e1 bd 26 90 a2 bd fd 85 0f 3d c0 4e 9c bc
       -0.11009892 -0.079376504 0.03503989 -0.01908052
000030 6c 4a 34 be a9 37 9c be 60 80 4f 3e f4 20 08 3e
       -0.17606515 -0.30511215 0.20263815 0.1329382
000040 e9 3f 09 3c e5 d5 c2 bd 4e f2 ca bd 2c dd 1e be
       0.008377054 -0.095134534 -0.09909497 -0.15514058
000050 b9 38 26 3e 75 df e2 3d 91 76 9a be f3 21 88 be
       0.16232575 0.11077777 -0.30168584 -0.265884
000060 83 7c 6c be d2 59 c6 3d 4b cf bf bd bb c4 57 3e
       -0.23094372 0.096851006 -0.0936571 0.2107114
000070 7c a0 61 be da ef 26 be d6 7f 80 be 03 25 d0 bc
       -0.22033876 -0.16302434 -0.2509753 -0.025408274
000080 9b 0f 8a 3e 0b 63 9c be 70 5e 5f be bb c5 89 3d
       0.2696503 -0.30544314 -0.21813369 0.06727167
000090 a7 21 dd bd 7f 2d 46 3e 70 c8 cc 3d 59 e7 cc bd
       -0.10797434 0.19353293 0.09999168 -0.100050636
0000a0 a0 2c 87 be 96 67 58 be 63 88 10 3d 1d 75 1c be
       -0.26401234 -0.21133265 0.03528632 -0.1527905
0000b0 41 b0 51 be 78 64 49 3e 67 21 96 3e e7 b4 09 3e
       -0.20477392 0.19667232 0.2932236 0.13447915
0000c0 24 c2 2f 3e a1 b6 32 be 41 fc 9b 3e bb 96 2f 3e
       0.17163903 -0.1745248 0.30465892 0.17147343
0000d0 13 ad c4 3d 25 61 c5 3d b8 bd e5 bd a6 a9 4d 3e
       0.09603324 0.096376695 -0.112178266 0.20084247
0000e0 46 21 4b be ab 5c 88 be b8 61 22 3d 70 8b ab 3d
       -0.19836912 -0.266332 0.039643973 0.08376205
0000f0 f0 f4 5b bd cf f3 0a 3e a5 36 47 be 91 d5 23 be
       -0.053700387 0.13569568 -0.19454439 -0.15999438
000100 6a fe 61 be 6e 77 82 3e 19 09 71 3e 5c eb bf 3b
       -0.22069708 0.25481743 0.23538627 0.0058569144
000110 02 77 1a 3e a3 79 8d 3e e4 a7 a0 be c9 75 87 be
       0.1508446 0.27631864 -0.3137809 -0.2645705
000120 8d b6 7b be 64 ab 00 bd 32 28 84 3e 25 c3 e0 bc
       -0.24581356 -0.03141345 0.25811917 -0.027436802
000130 6e da 8b be 94 90 82 3e bd 28 38 3e bf 51 4b 3d
       -0.27315086 0.2550093 0.1798429 0.049638506
000140 3b ec cc 3d c7 4b db bd 65 fc 64 3e 4b 4a a7 bd
       0.10005995 -0.10707813 0.22361906 -0.08168467
000150 0f 8e b0 bd 0d 02 4f 3e b4 51 5c be fc 37 23 be
       -0.086208455 0.20215626 -0.21515542 -0.15939325
000160 d9 cc b3 3b d7 d3 4a 3e e9 e3 90 3e 4c 71 90 3e
       0.005487066 0.19807373 0.28298882 0.2821144
000170 d3 79 57 be e2 9b 0e be 91 3d 70 3e 14 04 42 3d
       -0.21042566 -0.13926652 0.23460986 0.04736717
000180 f8 b5 2c 3e fd ff 11 3e a0 13 71 be 8b c9 a0 be
       0.1686629 0.14257808 -0.23542643 -0.31403765
000190 0c 4b 75 bd dd 49 f2 bd 28 ed 89 be 47 32 2c be
       -0.059886023 -0.118304946 -0.26938748 -0.16816054
0001a0 d6 f8 f2 3d 86 ae 3a 3e b6 b7 82 be bb 9a e1 3d
       0.11863868 0.18230638 -0.25530785 0.110158406
0001b0 8b b2 09 bc 74 47 6f bd fb d0 08 be 3a 29 1a b9
       -0.008404384 -0.058417752 -0.1336097 -0.00014701943
0001c0 ab 57 cd 3d 1c e0 8a be e0 c8 8a 3e a5 14 3b be
       0.10026487 -0.27124107 0.2710638 -0.18269594
0001d0 c3 0f 1e 3e 02 00 f3 3b 32 c0 8c 3d 1a 67 97 3e
       0.154357 0.0074157724 0.06872596 0.29570848
0001e0 62 4f a1 be e1 8e 82 be b0 10 8d 3e b2 4d 85 be
       -0.31505877 -0.25499633 0.27551794 -0.2603584
0001f0 3d 31 3f 3e c8 ef 3e be 6a 07 11 3e e2 d1 6f 3e
       0.18671127 -0.18646157 0.14162984 0.23419908
000200 06 2b ca 3d de ec 10 be 04 a2 cc 3d 07 cb 69 be
       0.09871487 -0.14152858 0.099918395 -0.22831355
000210 7a 5e 2d be d2 dc 90 3d db 95 7f 3d 4a a0 68 3d
       -0.16930571 0.07073368 0.062398773 0.05679349
000220 9a f2 a7 3d 91 21 88 bc 26 31 64 3d 56 05 6e bd
       0.082005695 -0.016617568 0.055710934 -0.058110557
000230 0a 78 75 be 96 7d 48 bd 23 77 4e 3e cf 23 f4 3d
       -0.23971573 -0.048947893 0.20162635 0.119208924
000240 39 91 4f be 92 a8 3e 3d 6e fb 87 be 5a 52 48 be
       -0.20270242 0.04654748 -0.26559013 -0.19562665
000250 08 da 33 be 28 63 44 bd 83 f9 92 3e bf c9 94 3e
       -0.17563641 -0.047946125 0.28705987 0.2906017
000260 c9 2a ca 3b fc 17 6b be 04 35 24 be 57 8e 93 be
       0.006169651 -0.22958368 -0.16035849 -0.28819534
000270 a8 00 95 3b 01 ed 88 3e 74 07 5b be 33 1d d6 bd
       0.0045471974 0.2674332 -0.21389562 -0.10454788
000280 a7 06 33 3e f1 1c 3f bd 3d af d9 bd bb 4a 87 3e
       0.17483006 -0.04665846 -0.10629127 0.26424202
000290 03 1d d1 3c c7 53 86 be f0 96 94 3e 75 49 2d 3d
       0.02552653 -0.26235792 0.29021406 0.042306382
0002a0 87 ab 40 3e 8d cc 50 be 98 6a 4f be 2a df 54 3e
       0.18815432 -0.2039053 -0.20255506 0.20788255
0002b0 86 17 94 3e 41 af a1 3e c5 09 42 be d3 29 52 be
       0.28924197 0.3157902 -0.1894904 -0.20523767
0002c0 29 c3 56 bd 94 74 14 3e 27 2b 41 be 01 f6 6e be
       -0.052432213 0.14497596 -0.18864118 -0.2333603
0002d0 7b 35 1a be 64 da 71 3e 79 a3 52 bd 78 46 e6 bc
       -0.15059464 0.23618466 -0.05142543 -0.028109774
0002e0 e4 ec 12 be 07 5e 46 3e b2 6e 05 be 65 10 c3 bc
       -0.14348179 0.19371806 -0.13030508 -0.023811528
0002f0 45 44 5d be cd cb 48 be 3e fe 30 3e 08 5e 97 3e
       -0.21608074 -0.19608994 0.17284486 0.29563928
000300 89 67 96 bd 77 44 31 be 7a 33 19 3e 7a 7c 26 3e
       -0.073439665 -0.17311274 0.14961043 0.16258422
000310 c3 65 62 3e ee d5 78 be 5d ec a0 3e 50 52 0d 3e
       0.22109132 -0.24300358 0.3143033 0.13800931
000320 b8 ae 75 be d8 c6 9a 3e 0d 67 ce 3d 2a 73 87 3e
       -0.23992431 0.3022983 0.10078249 0.2645505
000330 ea e4 0b be 17 a9 c2 bd cd 94 80 be 3c a1 82 be
       -0.13661543 -0.095049076 -0.25113526 -0.25513637
000340 db 1e 94 be cf c9 08 be d5 b8 6c 3e e1 b9 5c be
       -0.2892979 -0.13358234 0.23117383 -0.21555282
000350 aa 9f 76 bd 93 c7 a0 bc f0 64 86 3e d2 c4 82 bd
       -0.06021086 -0.019626414 0.26248884 -0.06385197
000360 60 92 06 3e fe 87 30 3d cf 02 70 3e f9 3a 5c be
       0.13141775 0.043098442 0.23438571 -0.21506871
000370 8b be 62 be 2e a4 8e 3e 81 84 80 3e 76 da 66 be
       -0.22142999 0.27859634 0.25101092 -0.22544274
000380 76 39 d2 3c 5e 49 53 be 4c b8 32 3e 95 09 6c be
       0.025662165 -0.20633456 0.17453116 -0.2305053
000390 4b b2 eb bd 07 cd 6f 3e 48 1b 25 be 72 be c7 3d
       -0.11508616 0.23418055 -0.16123688 0.097531214
0003a0 19 5e 76 3e 58 b5 8b be 41 3b 16 be 2d 90 d7 bd
       0.24059333 -0.27286792 -0.14671041 -0.10525546
0003b0 38 46 67 3c 6b 96 85 be fc 58 1d 3e 2e 6b fb 3d
       0.014115863 -0.26091322 0.15365976 0.12276302
0003c0 6d 29 59 be 58 16 1e be 31 18 d1 3b e2 16 77 3e
       -0.21207209 -0.15438211 0.0063810577 0.24129823
0003d0 be c3 0d 3e a7 52 34 bd 10 7b 0c be de a8 6b 3d
       0.13844201 -0.044024136 -0.1371882 0.05753409
0003e0 55 80 55 bd e7 38 33 3e 22 ef cc bb 57 e1 ac 3c
       -0.05212434 0.17502175 -0.006254093 0.021103544
0003f0 16 42 8d be 77 12 45 3e 1b 42 ed 3c ca 07 95 be
       -0.27589482 0.19245325 0.028962186 -0.29107505

bias_ih_l0 f4 [40]
000000 a7 37 8f 40 1d 54 35 bf 36 09 5c bf fb dd 10 40
       4.4755435 -0.7083147 -0.85951555 2.2635486
000010 8b 9e 35 40 3c 29 23 40 33 ad 60 bf 65 ce 19 40
       2.8378017 2.5493917 -0.8776428 2.4032223
000020 41 3d 14 40 e8 ee 24 40 de 5e 97 3e 54 c5 55 be
       2.3162386 2.5770817 0.29564565 -0.20876056
000030 24 da 9b 3d ea d4 82 3e 9d 1f 49 be 98 55 b0 bd
       0.076099664 0.25553066 -0.19640966 -0.08610076
000040 49 b1 4e be ed d0 ee 3d c3 85 95 be ba a0 5d be
       -0.20184816 0.11660943 -0.29203615 -0.21643344
000050 a6 c3 b5 3f 03 ef 88 c0 ae 7b 9d be 50 e6 e8 bf
       1.4200332 -4.279176 -0.30758423 -1.8195286
000060 90 89 8c c0 b3 14 89 40 c6 85 61 c0 c9 74 83 40
       -4.3917923 4.2837768 -3.52379 4.108006
000070 61 52 f8 3e f1 fd c0 bf bd 6f a3 bf e2 db b6 bf
       0.4850035 -1.5077497 -1.2768475 -1.4285853
000080 c6 af d5 be 77 a9 57 bd bd 47 ca be db 46 16 40
       -0.41735667 -0.05265185 -0.39507857 2.3480747
000090 0c b0 da 3f f4 15 41 3d b0 5a c1 bf be 82 81 40
       1.7084975 0.047140077 -1.5105801 4.0472097

bias_hh_l0 f4 [40]
000000 51 03 93 40 21 f0 81 bf fa 42 43 bf d7 3a 1d 40
       4.594155 -1.0151407 -0.76274073 2.4567163
000010 65 2b 3c 40 2c 33 21 40 ad d2 14 bf 0c 59 14 40
       2.9401486 2.5187483 -0.58133966 2.317935
000020 cb a2 17 40 f8 1b 36 40 8a 17 7e 3d 36 d5 72 3e
       2.369311 2.845457 0.062034167 0.23714146
000030 30 d7 88 be 9e c5 30 bd a6 c0 99 3e 12 69 7c bd
       -0.26726675 -0.043157212 0.30029792 -0.06162364
000040 0d 3d 69 be 76 c5 05 be e9 10 fa bc cd 5b 91 3e
       -0.22777195 -0.13063607 -0.030525642 0.2839035
000050 ca 4e be 3f f1 bd 96 c0 1a 21 ec be f0 5a fb bf
       1.4867795 -4.710686 -0.46119004 -1.9637127
000060 52 a3 92 c0 23 71 83 40 ef c5 6c c0 72 02 71 40
       -4.5824366 4.1075606 -3.699581 3.7657743
000070 99 b9 7e 3c ef 43 c9 bf 21 e6 91 bf 06 a7 85 bf
       0.01554718 -1.5723857 -1.1398355 -1.0441597
000080 00 6f 17 bf e8 25 7e be c4 37 96 bd 37 5e 09 40
       -0.5915375 -0.24819148 -0.07334855 2.1463754
000090 48 a2 d4 3f 21 09 17 3e 2f d4 82 bf 33 4a 83 40
       1.6612024 0.14749576 -1.0221003 4.1028075

weight f4 [2, 10]
000000 49 d6 05 c1 1e f8 07 c0 37 cf 23 c0 eb 20 74 c0
       -8.364816 -2.1245189 -2.5595224 -3.8145092
000010 14 61 b4 3f 52 3a 53 bf 32 89 c9 3f 04 2f 42 40
       1.4092126 -0.82510865 1.5744994 3.0341196
000020 23 66 45 3f 4d 17 1c 3f 48 78 4e 3f 4e 97 8d 40
       0.77108973 0.60973054 0.80652285 4.42472
000030 eb fd 0b 40 df 42 03 40 5d ed 35 40 9f 4d e0 bf
       2.187373 2.0509565 2.8426125 -1.7523688
000040 f5 c0 cb be 98 a7 62 3e 40 59 c0 3f fa c5 49 40
       -0.39795652 0.22134244 1.5027237 3.1527085

bias f4 [2]
000000 a1 13 a9 bf e3 45 8d be
       -1.3209115 -0.27592382

weight_ih_l0 f4 [40, 2]
000000 39 01 26 41 45 0e 2d 3f bd f5 0b 40 ee 1d 97 3f
       10.3752985 0.675999 2.1868737 1.1806009
000010 8e e9 57 c0 b8 11 86 3e 2f 31 05 40 df 27 3f bf
       -3.37363 0.26185393 2.081127 -0.74670213
000020 0d 13 37 41 8d 57 fb c0 d6 b5 cb be 0d 12 9b c0
       11.442151 -7.8544374 -0.39787167 -4.8459535
000030 7e e7 3c 3e 24 44 80 41 7e 14 f0 c0 27 88 c2 bf
       0.18447682 16.033272 -7.5025015 -1.51978
000040 99 0c 5a 40 81 43 15 40 fe f0 f4 c0 63 bd 1f c1
       3.407019 2.332245 -7.654418 -9.983737
000050 89 54 3b 3e 9d 06 13 3d 82 9c 2d 3d 6e 28 11 3e
       0.18293966 0.03589498 0.042385586 0.14175579
000060 61 b0 3b 3e fb e5 c5 bd ac d6 e0 3c 21 a6 7d 3d
       0.18329002 -0.09663006 0.027446114 0.06192601
000070 46 be 65 be 82 65 2c be 17 7c 80 be 83 25 84 be
       -0.22435865 -0.16835597 -0.25094673 -0.2580987
000080 ff d7 90 be 2a e8 1d 3e 90 09 4f be 27 2a 3f be
       -0.28289792 0.15420595 -0.20218492 -0.18668424
000090 24 a8 3f be fa e3 7c 3e 72 7e 65 3e a8 1c 0f be
       -0.18716484 0.24696341 0.22411516 -0.13975775
0000a0 3a 3f 45 40 70 2c 7c c0 bb dc 6a bf 67 88 d7 c0
       3.081984 -3.9402122 -0.9174306 -6.7354007
0000b0 1f 27 10 bf a6 23 25 c0 9c 54 95 3f cd 6e 11 41
       -0.56309694 -2.5803008 1.1666446 9.089551
0000c0 02 65 fe c0 60 d9 b0 40 68 8a 53 be 6d d2 a8 3f
       -7.94983 5.526535 -0.20658267 1.3189217
0000d0 96 95 cb 3d e0 6e 9d c0 2e 25 ed c0 1d d5 a9 3e
       0.09940641 -4.9197845 -7.4107885 0.33170405
0000e0 d3 d3 22 40 b2 f2 b0 bf 72 6d 4a c0 f3 2a 96 c0
       2.5441787 -1.3824065 -3.16293 -4.692743
0000f0 d8 48 13 bf 60 73 27 3e 0b da dc 3f ed 2a 99 bf
       -0.57533026 0.16352606 1.7254041 -1.1966225
000100 bb 96 80 c0 f0 d5 36 c1 5d 78 12 3f 2b 52 36 40
       -4.0183997 -11.427231 0.5721491 2.8487651
000110 4c 4e 54 40 ea da 03 c0 14 68 dc bd a4 c6 ff bf
       3.3172789 -2.0602365 -0.10762039 -1.9982495
000120 1a 50 e9 3d 7d 10 1d 40 f3 77 d1 bf 84 22 75 40
       0.11392231 2.4541314 -1.6364731 3.8302317
000130 02 10 cd 40 0d 5e 42 c0 0d d7 0a c0 4f 19 c9 bf
       6.408204 -3.0369904 -2.1693757 -1.5710849

weight_hh_l0 f4 [40, 10]
000000 37 54 56 3e d4 67 42 be be 2c 99 3e 96 40 4a be
       0.20930563 -0.1898492 0.29916948 -0.197512
000010 4b ba 96 3e 7a d7 9f 3c 6c a0 9d 3d 95 d9 5e 3d
       0.29439005 0.019511927 0.07696614 0.05440672
000020 3a 2c 20 3e a1 29 95 3d d4 d1 a3 bd af 62 84 3d
       0.15641871 0.07283331 -0.07999006 0.06464135
000030 b1 71 85 3e 18 a4 01 be 2d bd 13 3e d6 5c 8f be
       0.26063302 -0.12660253 0.14427634 -0.28000516
000040 b1 64 98 be f0 2e 93 3e 19 7d 04 be b1 72 3c 3e
       -0.2976432 0.28746748 -0.12938346 0.18403126
000050 d8 05 83 be 8b f6 b2 bd 3b 55 ec 3d 76 00 5f be
       -0.25590396 -0.087384306 0.11539694 -0.2177752
000060 01 fe e7 bd a0 e3 98 be 9a c3 7c 3e 17 87 91 bd
       -0.11327744 -0.29861164 0.24683991 -0.071058445
000070 5f 13 43 be 67 74 c0 3d 86 f7 5f 3e 70 a0 60 3d
       -0.19050358 0.09397202 0.21871766 0.054840505
000080 b8 f9 2c 3e 8b 98 2b 3d f9 92 4c be db 5b 9b be
       0.16892135 0.041893523 -0.1997794 -0.30343518
000090 9e 93 a4 3d 83 c0 86 be ee cd 88 3d 1e 38 9e 3e
       0.08035968 -0.2631875 0.06679903 0.3090219
0000a0 c1 f4 1b be 51 6c 61 be 1c 46 cc 3d 6c f8 a8 3d
       -0.15230085 -0.22013976 0.0997431 0.08250508
0000b0 35 e8 05 be 64 54 d1 bd 5c 65 a0 be 0f bd 1b be
       -0.13076861 -0.10221174 -0.3132733 -0.15208839
0000c0 ba 74 07 be 64 7f 8f 3e d0 76 41 be 5f 46 a0 be
       -0.13228121 0.2802688 -0.1889298 -0.3130369
0000d0 6a f3 8a 3d a5 d1 92 3c 7f 73 6d be de 58 5c 3c
       0.06784709 0.017922232 -0.2318859 0.013448922
0000e0 e1 34 80 be 34 be 4b be fb 77 96 3d 67 35 e1 3d
       -0.25040343 -0.19896775 0.07347103 0.10996514
0000f0 05 b6 1c be 25 3e 5c bb 25 e6 8c bd 44 b3 ff bd
       -0.1530381 -0.0033606377 -0.06879834 -0.12485364
000100 05 7e 8a 3e b9 fe c8 bd ea 56 8d be 13 17 90 be
       0.2704927 -0.098142095 -0.27605373 -0.28142604
000110 26 30 2b be ee a3 92 3d d9 30 c3 3d 8d b9 48 bd
       -0.16717586 0.07160173 0.09530801 -0.04900508
000120 50 50 01 be b0 92 9a 3d 9f 9e b3 bd 8f a4 0e bc
       -0.12628293 0.0754751 -0.08770489 -0.008706226
000130 c9 a7 7e 3e 35 b9 1a be 0e ce 1b 3e df 14 4b be
       0.24868692 -0.15109713 0.15215322 -0.1983218
000140 79 3e d1 bd 1b aa 5d 3e e4 96 4e be 80 6c ba 3d
       -0.10216994 0.21646921 -0.20174748 0.09102726
000150 51 ea 9d 3e 4b bd 91 be 27 bd 86 be 40 a7 80 3e
       0.30842832 -0.28464732 -0.26316187 0.25127602
000160 30 21 5a 3e 0d 63 7a bd 3e 96 1d 3e b3 ee 8e 3e
       0.21301723 -0.06112962 0.15389344 0.27916488
000170 9a 19 2a be cc ec 40 be bf b7 94 be f3 21 97 3e
       -0.16611329 -0.18840331 -0.29046437 0.2951809
000180 45 62 8b bd e1 0b e8 bd 68 1e 6b be 86 8c 89 be
       -0.06805853 -0.11330391 -0.22960818 -0.26865023
000190 1d 4f 96 be 54 87 13 be ba e7 c0 bd e5 e7 09 be
       -0.29357234 -0.14407092 -0.09419198 -0.13467367
0001a0 88 95 8c be b9 67 87 be d3 9d 6c 3e 1e 3e 07 3e
       -0.27457833 -0.26446322 0.2310708 0.1320729
0001b0 48 45 6c 3d 6b 2e 88 be 24 e1 9d 3e 19 d5 59 be
       0.05768326 -0.26597914 0.3083583 -0.21272697
0001c0 cc 21 84 be 8e 1f 1c be b8 20 66 be 99 ca 9d 3e
       -0.25807035 -0.15246412 -0.22473419 0.30818632
0001d0 d2 5c 3f 3e c8 30 03 be 56 9d c3 bd f1 ed 94 bd
       0.18687752 -0.12811577 -0.09551494 -0.07271946
0001e0 7f 9a 3c 3e 1b 65 84 be 96 4a d4 bd 07 9f 05 3d
       0.1841831 -0.25858387 -0.10365789 0.032622363
0001f0 2d df 82 3e d3 0f 96 3c a3 10 74 3e 6a 6a 98 3e
       0.25560895 0.018318092 0.23834471 0.29768687
000200 2b ea 96 be f8 e6 1b be 8b 9b 90 be 24 b9 6e 3e
       -0.2947553 -0.15224826 -0.2824367 0.23312813
000210 1b 92 f9 3c 9b 6e 42 3d 22 d9 8e be 7a a8 7c 3e
       0.030465176 0.047468763 -0.27900034 0.24673644
000220 15 65 79 3d 33 1a 91 3e b8 e8 6f be 3f d7 57 be
       0.060887415 0.283403 -0.23428619 -0.21078204
000230 45 aa f8 3d 16 d4 84 be e8 3c a0 bd 8c c0 3a 3e
       0.12141851 -0.2594306 -0.07824117 0.18237513
000240 c7 d4 a1 3e 11 f6 8e be 72 13 e4 3d 79 35 0c 3d
       0.3160765 -0.2792211 0.111365214 0.034230683
000250 69 f8 50 3d c5 76 80 3e 6b 1f 87 3e f3 1e 96 3e
       0.051018152 0.25090614 0.26391158 0.29320487
000260 22 47 90 be 7f a6 75 3e e4 91 c3 bd 4b 91 6f 3d
       -0.2817927 0.23989294 -0.09549311 0.05848817
000270 1e be 6f bb 3c 45 5e bd 67 a7 ce 3d fc e2 80 be
       -0.0036581825 -0.054265246 0.10090523 -0.25173175
000280 00 3d 59 be 0c eb 50 3e 76 d9 5c 3e f1 bc 92 be
       -0.21214676 0.20402163 0.2156733 -0.28659776
000290 24 c8 51 be 1d a1 90 3d a8 5c 11 bd a2 35 d0 3d
       -0.20486504 0.0706198 -0.035488755 0.1016648
0002a0 7e 88 14 3e 4f 66 1c be bb 59 6d be 4b 15 9f be
       0.14505193 -0.15273403 -0.2317876 -0.31070933
0002b0 76 de 20 3d ba 9b 6c 3e d3 a3 61 3d 50 36 9c 3e
       0.039274655 0.2310628 0.055087876 0.30510187
0002c0 bc 60 2f be 71 bc 19 3c 40 58 72 3e 6f 0c f8 3d
       -0.17126745 0.009383307 0.23666477 0.121117465
0002d0 d5 1e 76 be a1 db d6 3d 08 ba 1c 3e 0f 83 2e 3e
       -0.24035199 0.1049111 0.1530534 0.17042182
0002e0 35 9e 86 be 77 78 68 3e ea 92 0a be 2c ae 44 3e
       -0.26292577 0.22702204 -0.13532606 0.19207066
0002f0 ce e9 ed 3d 5b eb 94 be b2 ec 91 3d 85 35 6e be
       0.1161686 -0.29085812 0.07125224 -0.23262604
000300 38 7a 32 be 52 f0 34 be 63 a4 8d be e5 a2 4c 3e
       -0.17429435 -0.176698 -0.2766448 0.19984014
000310 48 2b aa 3d 62 40 fd bc b0 b3 58 3e 1d 24 35 bd
       0.083090365 -0.03091449 0.21162295 -0.044223893
000320 fb 31 6c be d4 6b 35 3e f6 9c 38 be 12 90 12 be
       -0.23065941 0.17716914 -0.18028626 -0.14312771
000330 a8 52 01 3e d7 8b 8e be 5a 36 b1 bb 60 bd 03 be
       0.12629187 -0.27841064 -0.0054080905 -0.1286521
000340 ba 72 85 3e 4a 18 97 be dc ae 94 be 6a 20 01 be
       0.26064092 -0.2951072 -0.29039657 -0.12610021
000350 4f ae 66 3d 6b de b9 3d 14 f4 09 bd 3e c6 89 3e
       0.056318577 0.09075626 -0.033680037 0.2690906
000360 d7 e1 7f 3e 24 2c 66 be 70 82 9d 3d c0 5e 24 be
       0.24988495 -0.22477776 0.076908946 -0.1605177
000370 83 5c 8c 3e d2 33 7b be 0d 78 f5 bd a2 d8 8e 3e
       0.2741433 -0.24531487 -0.119857885 0.27899653
000380 a1 13 96 3e 00 a3 2a be ce 32 56 3e fd dc 80 3e
       0.2931185 -0.16663742 0.20917818 0.251686
000390 9d 40 9b 3c f7 9f 3d bd 09 fc 53 be 0f 23 71 bd
       0.018951708 -0.046295132 -0.20701613 -0.058871325
0003a0 6c 4e b7 3d 0a 65 df bd fb 21 91 3e f1 9a 34 be
       0.08950505 -0.109079435 0.28346238 -0.1763723
0003b0 89 ae d4 bd 47 88 6d 3e 1b ac 34 3d 19 6e 16 3d
       -0.103848524 0.23196517 0.044109445 0.03672609
0003c0 17 51 85 be 97 eb 6b 3d 2e 5e 8b 3d bc 1e 91 3d
       -0.2603843 0.057597723 0.06805073 0.0708594
0003d0 df da 83 3e 3f 87 39 be 4a 36 1a be 3a 23 3c bc
       0.25752923 -0.18117999 -0.15059772 -0.011483008
0003e0 32 cf 59 3e 49 52 7c be b0 2b ac 3d ee a5 5b 3e
       0.21270445 -0.24640764 0.0840677 0.21450016
0003f0 e2 c5 8f be 0b 8f 9c bd 2d 1e 37 be ef 74 87 3e
       -0.2808066 -0.07644471 -0.17882605 0.264564

bias_ih_l0 f4 [40]
000000 05 31 0b c0 be 23 53 bf 99 2f 40 40 1b 97 de 40
       -2.174867 -0.82476413 3.0029051 6.9559455
000010 44 3f 53 40 e3 a6 d4 c0 cd f7 62 c0 ae 56 6e c0
       3.3007364 -6.645372 -3.5463746 -3.7240405
000020 c7 56 ea 40 dc ef 1a 40 b4 54 3a 3e 2c 5c 0c 3c
       7.323093 2.4208899 0.18196374 0.008566897
000030 5e 21 a0 be 51 09 64 be cb b5 b1 3b 67 bf 62 bd
       -0.31275457 -0.22269179 0.0054232827 -0.055358317
000040 fa d2 2d 3d 96 58 7a be ee ae f4 3d 37 ff 63 3e
       0.04243753 -0.24447855 0.11947428 0.22265325
000050 9d f2 23 bf 5c 78 0a c0 af 6d 72 40 64 ba 46 40
       -0.64042073 -2.1635962 3.7879446 3.1051264
000060 94 18 9a c0 0e d9 31 c0 32 f9 45 c0 92 12 d9 bf
       -4.8155003 -2.778873 -3.0933347 -1.6958792
000070 56 b0 e7 40 d7 d0 96 c0 f9 85 04 c0 a7 19 8e c0
       7.2402754 -4.712993 -2.070677 -4.4406314
000080 18 aa 92 c0 dc 44 6c bf 0a 5f c0 bf c6 85 9e c0
       -4.5832634 -0.9229257 -1.5029004 -4.95383
000090 20 4e 2e c0 ce 88 8f c0 18 1a 30 40 f1 48 af c0
       -2.7235184 -4.48545 2.7515926 -5.477654

bias_hh_l0 f4 [40]
000000 0b 08 0c c0 ba 39 22 bf ed 68 2d 40 e1 78 e3 40
       -2.187991 -0.63369334 2.7095292 7.1085057
000010 82 5f 52 40 c9 6d dc c0 a5 64 56 c0 64 a7 65 c0
       3.2870793 -6.8884015 -3.3498929 -3.5883417
000020 93 a7 e3 40 2a ef 24 40 5f d1 29 be 75 99 e6 3d
       7.114206 2.5770974 -0.16583775 0.11259738
000030 a5 dc 9a 3d f8 4f 33 3e 86 37 b5 3d 76 8f e0 3d
       0.07561616 0.17510974 0.08848481 0.10964863
000040 88 d2 45 3d 69 c8 65 3e bf f4 42 be a2 1c 83 3d
       0.04829648 0.22439732 -0.19038676 0.06401946
000050 4a 53 d9 be 98 91 07 c0 8b 0a 57 40 16 c4 44 40
       -0.42446357 -2.1182613 3.3600185 3.0744681
000060 e8 de 92 c0 7c 38 30 c0 f8 8e 3d c0 6e 5e b2 bf
       -4.58971 -2.7534475 -2.9618511 -1.3935068
000070 62 a0 ea 40 8b 46 a4 c0 35 ba ea bf 5d 9a 9b c0
       7.332078 -5.133611 -1.8338076 -4.862593
000080 34 fa 8b c0 8e 36 25 bf 5d 67 f7 bf dc d6 a2 c0
       -4.3742924 -0.6453637 -1.9328419 -5.088728
000090 f0 93 2f c0 4c 21 83 c0 c8 99 1e 40 6d 44 b5 c0
       -2.7434044 -4.0978146 2.478136 -5.6646028
