LSTM-AE1/model.pth (torch, 50162 bytes, 20 tensors)

weight_ih_l0 f4 [80, 41]
0	0xc016e74b	-2.357867
1	0x40711111	3.7666667
2	0xc0052dc1	-2.0809176
3	0xc03df504	-2.9680796
4	0xbf26c30f	-0.65141386
5	0x409b6185	4.8556542
6	0x3d647123	0.055771958
7	0xbda93387	-0.08261781
8	0xbe30386e	-0.17209026
9	0x3f16fe6a	0.58981955
10	0xbff54b79	-1.9163657
11	0x40030dcd	2.0477173
12	0xbfbbdda1	-1.4677011
13	0xbe1fd550	-0.15608716
14	0xbfe9f9d8	-1.8279371
15	0x3dff4dc0	0.124660015
16	0x3ff7c842	1.9357989
17	0x3951616f	0.0001996809
18	0xbf771808	-0.96521044
19	0xbbed338e	-0.007238812
20	0x3e6327e7	0.2218319
21	0xbd9759d5	-0.07390181
22	0x403f3bb9	2.9880202
23	0x4035d94d	2.841388
24	0xbfefaefa	-1.8725274
25	0xbfc93c19	-1.5721465
26	0x3fdde1ed	1.7334572
27	0x3fc1a610	1.5128803
28	0xbf2ae7e9	-0.66760117
29	0xc0da4f5b	-6.822187
30	0x404de82e	3.2172961
31	0x3d7fc4de	0.062443607
32	0x408b120f	4.3459544
33	0x40af89ff	5.485595
34	0xc0cbdd4e	-6.3707647
35	0x3fe368f7	1.7766408
36	0x3fc3efc6	1.5307548
37	0xc09a7ac7	-4.8274875
38	0xc09b8e37	-4.86111
39	0x4011e0ed	2.2793534
40	0x3fd5cd44	1.6703267
41	0xbff57725	-1.9176985
42	0xbfb70335	-1.4297854
43	0xc0195929	-2.396067
44	0xbf9d0cc2	-1.2269518
45	0xbf74baf8	-0.9559779
46	0x407d2dca	3.9559197
47	0x3eabd0d7	0.3355777
48	0x3e37d7dd	0.17953439
49	0x3d65a0f6	0.056061707
50	0xbfdc6456	-1.721812
51	0xc0120a02	-2.2818608
52	0x403ce7a9	2.9516394
53	0xbfc6374e	-1.5485628
54	0x3fefb98f	1.8728503
55	0xbf1fff5c	-0.6249902
56	0x3f8f0c65	1.1175658
57	0xbf6ad7ab	-0.91735333
58	0xc03b8890	-2.93021
59	0x3fd32d44	1.6498189
60	0x3d138b13	0.036021303
61	0xbe1f1972	-0.1553705
62	0xc08766cd	-4.231299
63	0x40d88ec5	6.767428
64	0x4094536c	4.6351833
65	0xbfe5506f	-1.7915171
66	0x3e84b80c	0.25921667
67	0x4003b70d	2.0580475
68	0x3f605361	0.87627226
69	0xbf12017c	-0.57033515
70	0xc08fc281	-4.492493
71	0xc185efd9	-16.742113
72	0x40233a7b	2.5504444
73	0x40ae00e0	5.437607
74	0x4033643f	2.8029935
75	0xc0958d77	-4.6735187
76	0x3f1b3e55	0.60641986
77	0x3fbfe576	1.4991901
78	0xbfc38fc5	-1.527825
79	0xbfbdb0ea	-1.4819615
80	0x3f860ccd	1.0472656
81	0x3f44681c	0.7672136
82	0xbdf3e6e8	-0.11909276
83	0xc073a563	-3.8069694
84	0x3f5dd805	0.86657745
85	0xbe60647a	-0.21913329
86	0xbe1d06e9	-0.15334667
87	0xc028bd88	-2.636568
88	0x3f572211	0.84036356
89	0xbe4ad570	-0.19807982
90	0x3f4d6c17	0.80243057
91	0xbe943e48	-0.28953767
92	0x3f0ef92e	0.5584897
93	0x407998e6	3.8999572
94	0x3f213c5e	0.6298274
95	0xbeb5a0ba	-0.35474187
96	0xbed8946c	-0.42300737
97	0x3f1e9524	0.6194632
98	0xbdf58d27	-0.11989813
99	0xbfdc552c	-1.7213492
100	0xbff9d650	-1.9518528
101	0x3de3c6d7	0.1112191
102	0x3d11d430	0.03560275
103	0x3f9fd511	1.2486898
104	0xc05f5520	-3.4895706
105	0xc0a1d790	-5.057564
106	0xbf33166a	-0.69956076
107	0x3f9533cf	1.1656436
108	0xbe7b5144	-0.24542719
109	0xbf451fc3	-0.7700159
110	0x3ed959b2	0.42451245
111	0x3c3f465a	0.011674488
112	0xc126bf67	-10.421729
113	0x3e93b3f4	0.2884823
114	0x3e0e3fbe	0.13891503
115	0x3ed80bc6	0.42196482
116	0xbf2fc569	-0.686606
117	0xbe91a7bf	-0.28448293
118	0xbf0b4f5f	-0.54417986
119	0xbf6d527e	-0.92704
120	0x408bb2f1	4.3655934
121	0x3f892d31	1.0716916
122	0xbe12b918	-0.1432842
123	0xbc23b303	-0.00999141
124	0xc0a4392d	-5.1319795
125	0x402e656c	2.7249403
126	0xbf82f677	-1.0231465
127	0xc028642f	-2.6311147
128	0xc0172c79	-2.3620894
129	0x3f770b65	0.9650176
130	0xbd7c0162	-0.061524756
131	0x3f3f919f	0.74831575
132	0x3f7eae11	0.99484354
133	0x3fdae8fb	1.710235
134	0x4090bc53	4.522989
135	0x3fd88cd2	1.6917975
136	0x3e947c1c	0.29000938
137	0x401fb2e9	2.4952948
138	0x3fae4b6b	1.3616766
139	0xc0159bf1	-2.337643
140	0x3e1ec355	0.15504201
141	0xbed0578f	-0.40691802
142	0x3d167359	0.036731098
143	0xbdbce58e	-0.092234716
144	0xbebdbb80	-0.37057114
145	0xbe81c899	-0.25348356
146	0x3f9a3034	1.204596
147	0x4002d940	2.04451
148	0x3c7474a8	0.014920391
149	0x3cc60784	0.024173506
150	0x3f777e58	0.9667716
151	0xc01095bc	-2.259139
152	0x3ed80dac	0.4219793
153	0xbfa81c78	-1.3133688
154	0x3f87b8b0	1.0603237
155	0x4085da97	4.1829333
156	0x403ed792	2.9819074
157	0xc0133f51	-2.3007395
158	0x3ff6b966	1.9275329
159	0xbe3b8d38	-0.1831559
160	0x4059067b	3.3910205
161	0xbe2488db	-0.16067831
162	0x3fb0d50c	1.3815017
163	0x3f789f8b	0.97118443
164	0xbf9c070e	-1.2189653
165	0xc03cd280	-2.950348
166	0x4064cb89	3.5749228
167	0xbed4293d	-0.41437712
168	0xc01ed5cd	-2.4817994
169	0x3fb3abc5	1.4036795
170	0xbf3cbcb6	-0.7372545
171	0xbe28f2f8	-0.16498935
172	0x3ee2ff28	0.44335294
173	0xc08ccffb	-4.4003882
174	0xbf256d47	-0.6461987
175	0x3f29e7cb	0.66369313
176	0x40346242	2.8184972
177	0x3ff64901	1.9241029
178	0xbe233bb5	-0.15940745
179	0x40068729	2.1019995
180	0xbf301e61	-0.68796355
181	0x3d76ade7	0.06022444
182	0xbf856310	-1.0420856
183	0xbda4f1c8	-0.080539286
184	0xbe511ec4	-0.20421892
185	0xc0a7fac8	-5.249363
186	0xc028800a	-2.632815
187	0xbca40b03	-0.020024782
188	0xbf6dd7cb	-0.929074
189	0xbf1423bb	-0.5786702
190	0xbe396610	-0.1810534
191	0xbe896f16	-0.26842564
192	0x3cb793b3	0.022409296
193	0xc066a0c3	-3.603562
194	0xbf8e3444	-1.11097
195	0x3ec15a25	0.37764087
196	0x40920575	4.563166
197	0x40ae0d1a	5.4390993
198	0xbfcd65f9	-1.6046745
199	0x3b10b271	0.0022079016
200	0xbfcb29de	-1.5872152
201	0xbf43abbc	-0.7643392
202	0xc01fe2d2	-2.498219
203	0xbfc2ef4f	-1.5229281
204	0xbfcef20a	-1.6167614
205	0x3f47c7a8	0.78039026
206	0xbfee4e51	-1.861765
207	0xbfe9a451	-1.825327
208	0xbffa2373	-1.9542068
209	0x406d0aba	3.7037797
210	0x40445ecb	3.0682857
211	0xbfa6b06c	-1.302259
212	0x3d79a915	0.060952265
213	0x3d374795	0.044746
214	0xbffba98a	-1.9661114
215	0x3f861b54	1.047709
216	0x40aa44a1	5.3208776
217	0x40714a45	3.770158
218	0x3e63f7ab	0.22262447
219	0x402a42ca	2.6603265
220	0x400448ad	2.0669358
221	0x3f90521c	1.1275058
222	0x3f03e109	0.5151525
223	0xbe895406	-0.26821917
224	0x3e26dd50	0.16295362
225	0x3e4c4444	0.19947916
226	0xbfddbcc8	-1.7323236
227	0xc076090b	-3.844302
228	0xbf9c433c	-1.2208018
229	0x3f968fdf	1.1762656
230	0x3f81c34e	1.0137727
231	0x40ca3a3b	6.319608
232	0x4047ed04	3.1238413
233	0x40407c6d	3.0075943
234	0xbfa077b1	-1.2536527
235	0xc038e00b	-2.8886745
236	0xc0030fba	-2.0478349
237	0xbc79106e	-0.015201671
238	0x4024b658	2.5736294
239	0xbfb39c5d	-1.4032093
240	0xbf5c7476	-0.86115205
241	0x40635f06	3.5526748
242	0x40061750	2.095173
243	0x3f92757d	1.1442105
244	0x3fe7dadb	1.8113664
245	0x3fe523ea	1.7901585
246	0x3fbe9249	1.4888393
247	0x3f36a9e1	0.71352965
248	0x402e6645	2.724992
249	0xbf8b893d	-1.0901257
250	0x3f1aa79b	0.60411996
251	0xc03266d9	-2.7875273
252	0xbf48d62e	-0.7845181
253	0x3e5930cf	0.21210025
254	0xbedf193c	-0.4357394
255	0x3fe5b54b	1.7945951

weight_hh_l0 f4 [80, 20]
0	0xbe5e442c	-0.21705693
1	0x3c236806	0.009973532
2	0xbe2de9ba	-0.16983691
3	0xbc956416	-0.018236201
4	0x3cc1a356	0.023637455
5	0x3e091031	0.13385083
6	0x3e047baa	0.12937799
7	0xbe0cd3b6	-0.13752636
8	0xbd2fd23b	-0.0429251
9	0xbe2f45f4	-0.17116529
10	0x3cbcd48c	0.023050569
11	0xbd724346	-0.05914619
12	0x3e099feb	0.1343991
13	0x3e43617b	0.19080155
14	0xbdb68280	-0.0891161
15	0xbe3371b9	-0.1752385
16	0xbe348f92	-0.17632893
17	0x3d6c8117	0.057740297
18	0x3e04c406	0.12965402
19	0x3dc39805	0.0955048
20	0xbe489acb	-0.19590299
21	0xbe3c47e6	-0.18386802
22	0xbd926e56	-0.07149951
23	0x3c14a8df	0.009073465
24	0x3cf30243	0.029664164
25	0xbde764f3	-0.112985514
26	0x3e244fb2	0.16046026
27	0x3e61a49f	0.22035454
28	0x3e14462b	0.14479892
29	0x3e2ddd7c	0.16979021
30	0x3dac651f	0.08417725
31	0xbc438bdc	-0.011935201
32	0x3d2783ed	0.0408973
33	0x3e05e5d5	0.13075955
34	0xbdfd8cf5	-0.12380401
35	0xbdf83060	-0.12118602
36	0xbe270a55	-0.16312535
37	0xbe129e9a	-0.14318314
38	0x3d85a975	0.06526462
39	0xbe1281eb	-0.14307372
40	0xbe4f0916	-0.2021831
41	0xbe41693d	-0.18887801
42	0xbd61f425	-0.055164475
43	0x3d3b6688	0.04575208
44	0x3e5ec76b	0.2175576
45	0xbd0547e2	-0.032539256
46	0x3e57cb0d	0.21073551
47	0x3dc319b9	0.095263906
48	0xbcad4680	-0.021151781
49	0xbd490a6e	-0.049082212
50	0x3d6d70a1	0.05796874
51	0xbd9b7ff3	-0.07592764
52	0xbe21c1cc	-0.15796584
53	0xbd53c530	-0.051701725
54	0xbdbcd8e1	-0.09221054
55	0xbd0b95ee	-0.03407853
56	0x3e174e64	0.14775997
57	0x3c40786e	0.011747463
58	0xbc9ebb73	-0.019376492
59	0xbdf6cbcb	-0.12050589
60	0xbdad697b	-0.084673844
61	0xbe4aa9fd	-0.19791408
62	0x3da3cf31	0.07998503
63	0xbe368db2	-0.1782749
64	0x3e3e9420	0.18611193
65	0xbc92d70b	-0.017924806
66	0xbdb8bdd1	-0.090205796
67	0xbd2ca235	-0.04214688
68	0x3d005d2c	0.031338856
69	0x3d61dbf7	0.055141415
70	0x3dd6367e	0.10459612
71	0x3cfc6609	0.030810373
72	0x3e3fce74	0.187311
73	0x3ded66ea	0.11591895
74	0x3b6aeb7f	0.0035845933
75	0x3d2120a9	0.039337788
76	0x3d463289	0.048388038
77	0x3db5dc3c	0.08879897
78	0xbdc121c1	-0.09430266
79	0xbddddd8a	-0.10833271
80	0xbd7f1bb1	-0.062282268
81	0xbd76c2b5	-0.06024428
82	0x3dc0195e	0.093798384
83	0xbd54201d	-0.051788438
84	0x3df14525	0.117807664
85	0x3d36810c	0.044556662
86	0x3e204816	0.15652499
87	0xbcd18c0e	-0.025579479
88	0xbd9f594d	-0.07780705
89	0x3e194b05	0.14970024
90	0xbe19b4d2	-0.15010384
91	0x3e0616fc	0.13094705
92	0x3e14a9e2	0.1451793
93	0x3e1a1d95	0.15050347
94	0x3ddb8c24	0.10720089
95	0xbdf0d61c	-0.11759588
96	0x3ddcdb8a	0.10784061
97	0xbe56a458	-0.2096113
98	0x3e36a2f3	0.17835598
99	0xbe5abc62	-0.21360925
100	0x3a910ed4	0.0011067041
101	0x3d09d396	0.03364905
102	0x3d752af6	0.059855424
103	0xbd997dae	-0.074946746
104	0x3e32c7ec	0.17459077
105	0xbc79a988	-0.015238173
106	0xbd053d10	-0.032528937
107	0x3e5a9637	0.21346365
108	0xbdcc617d	-0.09979532
109	0xbccd6312	-0.025071654
110	0x3cff089a	0.031132031
111	0xbe2fd0c7	-0.17169486
112	0x3dd018b3	0.10160961
113	0xbdd19929	-0.10234291
114	0x3e2a5575	0.16634162
115	0xbca7a09b	-0.020462325
116	0x3e4c0b5c	0.19926208
117	0xbe099ef8	-0.13439548
118	0xbd1c665d	-0.03818356
119	0xbd980b31	-0.074240096
120	0x3c3ae0c9	0.011406132
121	0x3e4680dc	0.19385093
122	0x3e0a7d27	0.13524304
123	0xbe4a7017	-0.19769321
124	0xbcd8f163	-0.02648229
125	0x3e134a57	0.14383827
126	0x3e4523cc	0.19251937
127	0xbd994711	-0.07484258
128	0xbe3e4528	-0.18581069
129	0x3e5408e3	0.20706515
130	0x3c88eed6	0.016715448
131	0x3e4b12f0	0.19831443
132	0xbc8acb9f	-0.016942797
133	0x3de998f1	0.114061244
134	0xbd94b9ab	-0.07261976
135	0x3e643e05	0.22289284
136	0x3d86151c	0.06546995
137	0xbdb2ee98	-0.087369144
138	0xbd63ef2c	-0.055648014
139	0x3d8c2cac	0.06844458
140	0xbe1626f0	-0.14663291
141	0xbb210ad5	-0.0024573107
142	0x3e3df2c9	0.18549646
143	0x3e20bf2d	0.15697928
144	0x3e47d368	0.19514239
145	0x3e0e8fb2	0.13922003
146	0x3de89abe	0.1135764
147	0xbcf1c0f0	-0.029510945
148	0xbdb83e72	-0.089962855
149	0x3df4a24f	0.119450204
150	0xbc8d5ca3	-0.017256087
151	0xbe47842b	-0.19484012
152	0xbc553d76	-0.013015142
153	0xbe5371ba	-0.20648852
154	0x3e2efc7c	0.17088503
155	0x3dd7269a	0.105054095
156	0x3e05df87	0.1307355
157	0xbe133cd3	-0.14378671
158	0x3da843e1	0.08216072
159	0xbddbd199	-0.10733337
160	0xbe2ebba5	-0.17063768
161	0xbdc8f749	-0.09812791
162	0x3db01977	0.08598607
163	0xbdb05193	-0.08609309
164	0xbe0767f0	-0.13223243
165	0x3e327dc5	0.1743079
166	0xbd0598f0	-0.032616556
167	0x3e0a4396	0.13502344
168	0xbe1faa95	-0.15592416
169	0xbddb3b0b	-0.10704621
170	0xbe58ae96	-0.21160349
171	0xbddd4820	-0.108047724
172	0xbe376a48	-0.17911637
173	0xbd5d7d43	-0.054074537
174	0x3e090546	0.13380918
175	0xbe5da3f5	-0.21644576
176	0xbe553365	-0.20820387
177	0xbdadbcca	-0.08483274
178	0xbd1053a4	-0.035236016
179	0xbe5d0bff	-0.21586607
180	0xbdbaee4d	-0.091274835
181	0x3e369a14	0.17832214
182	0xbdc47168	-0.09591943
183	0xbe1616fc	-0.14657205
184	0xbe23d222	-0.15998128
185	0x3e23c5e7	0.15993463
186	0x3d866e78	0.06564039
187	0xbde6b04a	-0.11264093
188	0x3e46ca05	0.19413002
189	0xbd5e462c	-0.05426614
190	0xbd1c57db	-0.038169723
191	0xbd98c9bc	-0.07460353
192	0x3e3afa85	0.18259628
193	0xbe4291e9	-0.19000973
194	0x3e4e5928	0.20151198
195	0xbcfbedf5	-0.030753115
196	0x3e16643a	0.14686671
197	0x3d345ae4	0.044031993
198	0xbe0aec03	-0.13566594
199	0xbdbc1b34	-0.09184876
200	0x3e54cf8f	0.20782302
201	0xbe2eba65	-0.17063291
202	0x3e307fa2	0.17236188
203	0x3e5e0a9c	0.21683735
204	0xbe4bcd98	-0.19902647
205	0xbc7cab85	-0.015421753
206	0x3e5b1eb8	0.21398437
207	0xbd8c234b	-0.06842669
208	0x3e0564a8	0.13026679
209	0xbd51d5fc	-0.051229462
210	0x3e0738a5	0.13205202
211	0xbdba0025	-0.09082059
212	0xbc9d5916	-0.019207519
213	0x3e448004	0.19189459
214	0x3e24c006	0.16088876
215	0xbe615951	-0.22006728
216	0x3e1ad1b2	0.15119055
217	0xbe16af2a	-0.14715257
218	0xbd962446	-0.07331137
219	0x3e22b5d1	0.1588967
220	0xbe2e847a	-0.17042723
221	0x3ca2e562	0.019884769
222	0xbdf5356a	-0.119730785
223	0x3d7e6e49	0.062116895
224	0xbe5df108	-0.21673977
225	0x3d8a1680	0.06742573
226	0x3e42a446	0.19007978
227	0x3e255977	0.1614741
228	0x3df9ea40	0.12202883
229	0x3e53f777	0.20699869
230	0x3d325c50	0.043545067
231	0x3de8bede	0.1136453
232	0x3d8e7bea	0.069572285
233	0xbddb4183	-0.10705855
234	0xbdabce73	-0.083889864
235	0xbdc41646	-0.09574561
236	0x3d94f1a4	0.07272652
237	0xbe43e6d9	-0.1913103
238	0x3ad302ee	0.0016098896
239	0xbe1d041c	-0.15333599
240	0x3e229872	0.15878466
241	0xbd1caf2d	-0.038253
242	0x3c96fcac	0.01843103
243	0x3d9293ce	0.07157098
244	0x3e6311e8	0.221748
245	0xbc11b9aa	-0.008894363
246	0x3d6df7c5	0.05809762
247	0xbe410bc7	-0.18852149
248	0xbe416e67	-0.18889771
249	0xbe093563	-0.13399272
250	0x3e489846	0.19589338
251	0xbe05fee9	-0.13085522
252	0x3c870e79	0.016486393
253	0xbdfb5490	-0.122719884
254	0xbe484258	-0.19556558
255	0xbe43ce52	-0.19121674

bias_ih_l0 f4 [80]
0	0xbfd875ab	-1.691091
1	0xbf696be1	-0.91180235
2	0x3ee69298	0.45033717
3	0xbfd4d529	-1.6627551
4	0xbea1f8da	-0.3163517
5	0xbf5bb6d2	-0.85825837
6	0xbe18036e	-0.14845058
7	0x3ffc73ce	1.9722841
8	0xbf2a6648	-0.6656232
9	0xc01766ce	-2.3656497
10	0xbe9eaf8b	-0.30993304
11	0xbe9b5320	-0.30336857
12	0xbf77b7c3	-0.96764773
13	0x3f199241	0.5998879
14	0x4010b148	2.2608204
15	0x400b1aa3	2.1735008
16	0x3f641f3a	0.8911015
17	0xbfebec16	-1.8431423
18	0xc025bb51	-2.589558
19	0xbda624af	-0.081124656
20	0x3c96f5a1	0.018427672
21	0xbdfe67e9	-0.12422163
22	0xbe3fd960	-0.18735266
23	0x3de4e17e	0.11175822
24	0x3d0c0097	0.03418025
25	0xbca262da	-0.019822527
26	0xbda8ab73	-0.08235826
27	0x3de546ac	0.1119512
28	0x3c108c21	0.008822472
29	0x3d8c1d69	0.06841547
30	0x3e083e46	0.13305005
31	0x3e3f8039	0.18701257
32	0x3d544cdd	0.051831115
33	0xbd39a8b0	-0.04532689
34	0xbe3a9533	-0.18220977
35	0xbd9e8be4	-0.07741526
36	0xbda4c67c	-0.080456704
37	0xbe0f1185	-0.13971527
38	0x3e292df2	0.16521433
39	0x3da9aa9a	0.08284493
40	0x3f70c3cf	0.9404878
41	0x3f12c1b0	0.57326794
42	0xbede0dd2	-0.4336992
43	0x3f410566	0.7539886
44	0x3fcb5cb7	1.5887669
45	0xbfe273f6	-1.7691638
46	0xbfd0c301	-1.630951
47	0xbff75d8b	-1.9325422
48	0x3f5c79ce	0.8612336
49	0x3ff57a08	1.9177866
50	0x3fafb401	1.3726808
51	0x3d870160	0.06592059
52	0x400a83db	2.1642978
53	0xbea056cc	-0.3131622
54	0xbfaebf7b	-1.3652185
55	0x3f93a8b4	1.1535859
56	0x3fb594ac	1.4185996
57	0xbf593761	-0.84850127
58	0x3b978b78	0.0046247803
59	0x3fa4d7af	1.2878321
60	0xc026bca3	-2.6052635
61	0xc01c7898	-2.4448605
62	0xbfc7af5a	-1.5600388
63	0xc047e478	-3.1233196
64	0xc00ebd05	-2.2302868
65	0xbf0e973c	-0.55699515
66	0xc01ab379	-2.4172041
67	0x3f17474b	0.5909316
68	0xbe7f352a	-0.24922624
69	0xbef41305	-0.4767076
70	0x3e8572e2	0.2606421
71	0xbf97ff77	-1.1874837
72	0xbf9d65ac	-1.2296653
73	0x40358973	2.8365142
74	0xc00c2195	-2.1895497
75	0x40264214	2.597783
76	0x3f1b006f	0.60547537
77	0xc04672a7	-3.1007478
78	0xbf673353	-0.9031269
79	0xbfa50a52	-1.2893775

bias_hh_l0 f4 [80]
0	0xbfd1d420	-1.639286
1	0xbf71e641	-0.94491965
2	0x3f03bd65	0.5146087
3	0xbfba4b69	-1.4554263
4	0xbed11c6c	-0.40841997
5	0xbf5aced9	-0.85471874
6	0xbe2eb873	-0.1706255
7	0x400c37c8	2.1909046
8	0xbf3ba24c	-0.7329452
9	0xc00eaa9e	-2.2291636
10	0xbedf9db7	-0.43675014
11	0xbe9aa600	-0.30204773
12	0xbf2b212a	-0.6684748
13	0x3f69699d	0.9117678
14	0x400a6106	2.1621718
15	0x400cf0c5	2.2021954
16	0x3f74d0d2	0.95631135
17	0xbfe40eee	-1.7817056
18	0xc030bb7b	-2.761443
19	0x3db8def1	0.09026898
20	0x3e03fd52	0.12889603
21	0xbe08bc9e	-0.13353202
22	0x3dbc56af	0.09196221
23	0xbd2f1081	-0.04274035
24	0x3e1d005f	0.15332173
25	0xbd88a134	-0.06671372
26	0xbe64b832	-0.2233589
27	0x3cd16479	0.025560604
28	0xbe536187	-0.20642672
29	0xbd424761	-0.047431353
30	0xbe525315	-0.20539506
31	0xbe509afc	-0.20371622
32	0x3e14c56a	0.14528432
33	0xbe310894	-0.17288429
34	0xbdc5aedc	-0.096524924
35	0x3d696b33	0.056987
36	0x3de88ee7	0.113553815
37	0xbac53342	-0.0015045183
38	0xbe1d7135	-0.15375216
39	0xbe12b753	-0.14327745
40	0x3f8d2974	1.1028275
41	0x3e54309a	0.20721665
42	0xbf019d30	-0.50630474
43	0x3f05f03c	0.52319694
44	0x3fdc9c15	1.7235132
45	0xbfe6989a	-1.801532
46	0xbfb8b9a3	-1.4431652
47	0xbfe4050e	-1.7814043
48	0x3f257d7b	0.64644593
49	0x3fdde5a2	1.7335703
50	0x3fa675a3	1.300465
51	0x3ef38c84	0.47568142
52	0x40083e81	2.128815
53	0xbe9c81d4	-0.305678
54	0xbfb06809	-1.3781749
55	0x3f916705	1.1359564
56	0x3fd12593	1.6339592
57	0xbf63da4d	-0.89004976
58	0xbd7d2c4d	-0.061809827
59	0x3fa4c9ec	1.2874122
60	0xc02fa8db	-2.7446811
61	0xc00e1bc5	-2.220445
62	0xbfa4e43e	-1.2882154
63	0xc05431a0	-3.3155289
64	0xc0028b76	-2.039762
65	0xbe9df160	-0.30848217
66	0xc0254477	-2.5823038
67	0x3ebd071f	0.36919495
68	0xbe11e9a2	-0.1424928
69	0xbed839d4	-0.4223162
70	0x3edd3c01	0.43209842
71	0xbfc94567	-1.5724305
72	0xbfa18ae4	-1.2620511
73	0x4041b843	3.0268714
74	0xc00a6b13	-2.1627853
75	0x402e17f9	2.7202132
76	0x3f2321f3	0.6372368
77	0xc0423df3	-3.035031
78	0xbf853ab1	-1.0408536
79	0xbfc16486	-1.5108802

weight_ih_l0 f4 [40, 20]
0	0xc0a4d120	-5.150528
1	0xc04a3b75	-3.159879
2	0x3ff5f68f	1.9215869
3	0xc019feff	-2.4061887
4	0xc0642711	-3.5648844
5	0x3e44f3ab	0.19233577
6	0xc0258765	-2.5863888
7	0xbfc7c921	-1.5608255
8	0x40c31501	6.096314
9	0x40aea873	5.4580626
10	0xc1349170	-11.285507
11	0x409fe863	4.9971175
12	0x40e1d4a3	7.0572066
13	0xc011beb1	-2.2772639
14	0x404db43e	3.214126
15	0xc018bff3	-2.3867157
16	0x4105f030	8.37114
17	0xc01865db	-2.3812168
18	0xc0f53ca0	-7.6636505
19	0xbf128d13	-0.5724651
20	0xc10be502	-8.74341
21	0x409ef085	4.9668603
22	0xbd973e2f	-0.073849075
23	0xbb6110e0	-0.0034342334
24	0x3f96e69d	1.1789128
25	0xc0289742	-2.634232
26	0xc02cba72	-2.6988797
27	0xc096d0e0	-4.7129974
28	0x3ee98dee	0.45616096
29	0xc0ce3a60	-6.444626
30	0x40527f84	3.289033
31	0x408121d7	4.035381
32	0x4028b033	2.6357543
33	0xbe8bb47c	-0.27286136
34	0x40394f8e	2.8954806
35	0xbda64753	-0.08119073
36	0x40aa83b2	5.328576
37	0x3ed36ca6	0.4129383
38	0xbefd3f80	-0.4946251
39	0xc079646c	-3.8967543
40	0x4046f6f3	3.1088226
41	0xbea81a8e	-0.3283276
42	0x3fd0de86	1.6317909
43	0x3e2dc859	0.16970958
44	0xc085ba7e	-4.179015
45	0x406e99bc	3.7281332
46	0xc0216ba0	-2.522194
47	0xbe0bfc77	-0.13670526
48	0x3df50204	0.11963275
49	0xc02476dc	-2.5697546
50	0xc1589d38	-13.5383835
51	0x408bba4d	4.366492
52	0xbf7b5385	-0.98174316
53	0x3fe0e78b	1.7570661
54	0x3e535b9c	0.20640415
55	0x3fe68a26	1.801091
56	0xbf61df98	-0.882318
57	0x3dc3165c	0.09525749
58	0xc07fb57d	-3.9954522
59	0x40d27614	6.576914
60	0x3fbe05a2	1.4845469
61	0x400202c1	2.031418
62	0x3fe96cc0	1.8236313
63	0xbfe5f906	-1.7966621
64	0xc03ecfa3	-2.9814231
65	0xbf8f1bcb	-1.1180357
66	0x3fe101c0	1.7578659
67	0xbe538813	-0.20657377
68	0x3faa6ccc	1.3314452
69	0x401979cd	2.3980591
70	0xc03b3711	-2.925236
71	0x40b399b5	5.612513
72	0x3fbb88b4	1.4651093
73	0x40403676	3.003324
74	0x401e11fc	2.4698477
75	0xc030c3c1	-2.7619479
76	0x3ed0b38d	0.40761986
77	0x3f9b7711	1.2145711
78	0x3ff1167f	1.883499
79	0x40a55482	5.166566
80	0xc0abad49	-5.364903
81	0x3fc63f92	1.548815
82	0xbf7f1d16	-0.99653757
83	0x3f0e6011	0.55615336
84	0xbf2f8f3f	-0.6857795
85	0xbe91d71c	-0.28484428
86	0xbfec1dc9	-1.844659
87	0x40c79776	6.237239
88	0x3f78c867	0.9718079
89	0xc0085933	-2.1304443
90	0xc00a9211	-2.1651652
91	0x40799896	3.899938
92	0xbf888a85	-1.0667273
93	0x3ecc1b64	0.39864647
94	0x3e23ac36	0.15983662
95	0xbf8203f2	-1.0157454
96	0x3f2d2b33	0.6764404
97	0xc050a62c	-3.2601423
98	0xc033e501	-2.8108523
99	0xbf3530a1	-0.70777327
100	0xc02c53bd	-2.692611
101	0x41199f84	9.601444
102	0xbfcb607b	-1.5888819
103	0x400345ca	2.0511346
104	0xc0174285	-2.363435
105	0xbf2be205	-0.67141753
106	0xc074d035	-3.825208
107	0xc08ec680	-4.461731
108	0x3f23f661	0.6404782
109	0x40e80a9c	7.251295
110	0xbf4e5687	-0.8060078
111	0xc0a2910e	-5.080207
112	0x40952162	4.660325
113	0x3ffb5f35	1.963843
114	0x4024baa9	2.5738928
115	0xbda5bf1a	-0.0809309
116	0x3f95bed5	1.1698862
117	0x400d21c2	2.2051854
118	0xbf4873b1	-0.7830153
119	0xbf98ebf6	-1.194701
120	0xbfafa770	-1.3722973
121	0xbdd390ce	-0.10330354
122	0xc03fb21c	-2.995246
123	0x40bf8517	5.9849963
124	0x40de2939	6.942532
125	0xbf075f0b	-0.528794
126	0xc100bccb	-8.046092
127	0x408ce31d	4.402724
128	0xc00e8abc	-2.2272177
129	0xbfbe05f3	-1.4845566
130	0x4081f616	4.06129
131	0x404b15e6	3.1732116
132	0xbfd62ba9	-1.6732074
133	0xbfe02009	-1.7509776
134	0x402a3c72	2.6599393
135	0xbea9a0f3	-0.33130607
136	0xc04df3e4	-3.218011
137	0xc0c43047	-6.130893
138	0xc0b1f517	-5.561168
139	0xc0142810	-2.3149452
140	0x40046715	2.0687916
141	0x40d07206	6.513919
142	0xc06e8eb7	-3.7274606
143	0x3fdefdcb	1.7421201
144	0xbf5c995b	-0.861715
145	0xbef87e26	-0.48533744
146	0x3e65575d	0.22396608
147	0xc09c8976	-4.89178
148	0x40f013e3	7.5024276
149	0x410e6660	8.899994
150	0xbfcdaecc	-1.6068969
151	0x3e46d2ab	0.19416301
152	0x407cb187	3.9483354
153	0x40971a8a	4.7219896
154	0x4089e07d	4.3086534
155	0xc0538522	-3.3050008
156	0x405ace23	3.4188316
157	0x3f8c5f5b	1.09666
158	0x3f3967f4	0.72424245
159	0xc0303cbe	-2.7537074
160	0x402ba0df	2.6816938
161	0xc1264e27	-10.39408
162	0xbef8bfe3	-0.48583898
163	0xc077884e	-3.8676944
164	0xc027a577	-2.6194742
165	0xc105bf91	-8.359269
166	0xc0227608	-2.538454
167	0xc0bacfb2	-5.8378534
168	0xc04194b0	-3.0247002
169	0x404b4d65	3.1765988
170	0x3fabb592	1.3414786
171	0xbf694aea	-0.91129935
172	0x3fb09047	1.379403
173	0xbfde09f2	-1.7346785
174	0x4087a332	4.2386713
175	0x3f8e168f	1.1100634
176	0x4106c84b	8.4239
177	0x409397eb	4.6122947
178	0xbff6d543	-1.9283832
179	0xc0292f69	-2.6435187
180	0xbf52a20c	-0.82278514
181	0x4033d249	2.8097098
182	0x40ac4a48	5.3840675
183	0xc0352fb6	-2.831037
184	0xc08b0a84	-4.3450336
185	0x3ec58e66	0.38585204
186	0x3f6a0bb6	0.9142412
187	0x3f37fc1e	0.71869075
188	0x405d76ef	3.4603841
189	0xc02fa0fa	-2.7442002
190	0xc07cfbd4	-3.9528704
191	0x3ff70e6c	1.9301276
192	0xbfe124c9	-1.7589351
193	0x40416489	3.0217612
194	0x3f1045fb	0.5635678
195	0xc0bf7c8f	-5.983955
196	0xbfd0369c	-1.6266665
197	0x401321bc	2.298934
198	0x40ab4c89	5.3530927
199	0x3e2700d9	0.16308917
200	0xbe6a81b0	-0.22901034
201	0xbe851ea3	-0.25999936
202	0x3dbddb38	0.09270328
203	0x3e8edabf	0.27901265
204	0x3e2e2e29	0.17009796
205	0xbdcbf088	-0.09957987
206	0x3e383732	0.17989805
207	0x3e0ee621	0.13954975
208	0xbe51905b	-0.20465223
209	0x3e9d842e	0.30764908
210	0xbddc1037	-0.1074528
211	0xbe098805	-0.13430794
212	0x3e2637b7	0.16232191
213	0x3e9b048b	0.30276904
214	0xbe9d2654	-0.30693305
215	0xbe14371d	-0.14474149
216	0xbe0523b8	-0.13001907
217	0x3c55c401	0.013047219
218	0xbdcf1337	-0.10111087
219	0xbe1f637e	-0.15565297
220	0xba39c111	-0.0007085959
221	0x3d5216a2	0.051291116
222	0xbe82a58f	-0.25516936
223	0x3e29a117	0.16565357
224	0xbd531611	-0.051534716
225	0xbe80de2e	-0.2516951
226	0xbe342169	-0.1759087
227	0xbe4dd297	-0.20099865
228	0xbe8cb80a	-0.2748416
229	0x3cc8d334	0.024514772
230	0x3e4f5779	0.20248212
231	0xbe82b3d8	-0.25527835
232	0xbe446edd	-0.19182916
233	0x3e7085b2	0.234885
234	0xbe146b6e	-0.14494106
235	0xbc4059e1	-0.011740179
236	0xbe9850f4	-0.29749262
237	0xbe74f67f	-0.23922156
238	0x3e54bbe3	0.20774798
239	0xbe8e2e8d	-0.2776989
240	0x3d824585	0.06360916
241	0x3de053e9	0.109535046
242	0xbe8c488f	-0.27399108
243	0xbcc9fd3f	-0.02465689
244	0xbdfe32ac	-0.12412009
245	0xbe5b4859	-0.21414317
246	0xbe28b043	-0.16473489
247	0x3e8bb8a3	0.27289304
248	0xbea17374	-0.31533396
249	0x3e8bdf36	0.27318734
250	0xbc6d86ce	-0.014497472
251	0x3e4d8426	0.20069942
252	0xbd5222c5	-0.05130269
253	0x3e937ef7	0.28807804
254	0xbe709c2b	-0.23497073
255	0x3ea1db76	0.31612748

weight_hh_l0 f4 [40, 10]
0	0xbe215b4d	-0.15757485
1	0xbe890e9d	-0.26768962
2	0x3d2ad995	0.04171141
3	0xbe4d2c77	-0.20036493
4	0x3e8f9959	0.28046682
5	0x3dc25489	0.0948878
6	0xbd9a5e2c	-0.07537493
7	0x3e0d1154	0.13776141
8	0x3d1b058e	0.037847094
9	0x3e84eb9d	0.2596101
10	0xbe84c4b3	-0.2593132
11	0xbe6474bc	-0.22310156
12	0x3e87557b	0.26432404
13	0x3e654132	0.22388151
14	0x3e2dd221	0.16974689
15	0x3e83756c	0.25675523
16	0x3db199e2	0.08671929
17	0xbc9a94be	-0.018869754
18	0xbe98b3d2	-0.29824692
19	0x3d1d9745	0.03847434
20	0xbe3f2cbc	-0.18669409
21	0x3c26654e	0.010155989
22	0x3e9efdbd	0.31052962
23	0xbe910dce	-0.28330845
24	0x3e76e0c2	0.24109176
25	0xbdf56e72	-0.119839564
26	0xbbfada45	-0.0076554143
27	0x3d9ad236	0.07559626
28	0x3e5b1748	0.213956
29	0x3d892e24	0.06698254
30	0xbe0eae5f	-0.13933705
31	0x3e60d029	0.21954407
32	0xbd0bb87c	-0.034111485
33	0x3e0d9fde	0.13830516
34	0xbe8b26e4	-0.2717811
35	0xbcb2b59f	-0.02181512
36	0x3db6c385	0.08924011
37	0xbb31bb7c	-0.0027119806
38	0xbd9c094c	-0.07618961
39	0xbd80b01d	-0.06283591
40	0xbe860b64	-0.26180565
41	0x3e9bc9ba	0.30427343
42	0xbe583f98	-0.21118009
43	0x3dcea568	0.100901425
44	0xbe148c3a	-0.14506617
45	0xbe8c4ac8	-0.27400804
46	0x3e7f0ba5	0.24906786
47	0xbccbadc5	-0.024863133
48	0xbe51b9fb	-0.20481102
49	0xbdf7aa3e	-0.12093018
50	0x3e0c9c47	0.1373149
51	0xbe8cc996	-0.27497548
52	0xbe423b86	-0.18968019
53	0xbe547021	-0.20745899
54	0x3e93d677	0.2887456
55	0x3e9c8c0f	0.30575606
56	0xbdaa460a	-0.0831414
57	0x3d0a488d	0.033760596
58	0xbe7b5acc	-0.24546355
59	0x3e35465d	0.17702623
60	0x3d220de1	0.039564017
61	0xbe395145	-0.18097408
62	0x3ea08ece	0.3135895
63	0x3dd6ab7c	0.10481927
64	0x3dfc5cd1	0.12322391
65	0xbd7fc11a	-0.062440015
66	0x3e9fc4f5	0.31204954
67	0x3e08ba8f	0.13352416
68	0xbe03effb	-0.12884514
69	0x3db69416	0.08914964
70	0x3e528a97	0.2056068
71	0x3e4d8597	0.20070492
72	0xbcf3d97f	-0.029766796
73	0xbe13d0a7	-0.14435063
74	0x3e58dbfa	0.21177664
75	0xbe96f2d1	-0.2948213
76	0x3c746c76	0.014918437
77	0xbe3afc49	-0.18260302
78	0xbd0a98e0	-0.0338372
79	0xbe4d9782	-0.20077327
80	0xbe8a9caf	-0.27072665
81	0xbd6d0578	-0.057866544
82	0x3db458d7	0.08806007
83	0x3d65ec11	0.056133334
84	0x3d59f2c1	0.053210024
85	0xbe9fd1f7	-0.31214878
86	0x3df1a1a1	0.117984064
87	0xbe4ed363	-0.20197825
88	0x3e8958de	0.26825613
89	0xbd8f7fd3	-0.070068024
90	0xbe1b366f	-0.15157484
91	0xbe0d5bf5	-0.1380461
92	0x3e227667	0.1586548
93	0xbe228f1c	-0.15874904
94	0xbd80d1c6	-0.06290011
95	0xbda8dadf	-0.08244871
96	0x3d9ec948	0.07753235
97	0x3e8bfe70	0.27342558
98	0xbe988732	-0.29790646
99	0xbe0e93bb	-0.13923542
100	0x3e8f83d6	0.2803027
101	0xbe4bf07c	-0.19915956
102	0xbe160334	-0.1464966
103	0xbe1633f6	-0.14668259
104	0x3e5401fc	0.20703882
105	0xbd8e6652	-0.0695311
106	0xbc67a567	-0.014138556
107	0x3e5ee0d1	0.21765448
108	0xbdfa9fbf	-0.122375004
109	0x3e02fc56	0.12791571
110	0xbde23b6f	-0.11046492
111	0xbe51f90c	-0.2050516
112	0xbe17fe11	-0.14843012
113	0xbde67883	-0.112534545
114	0x3e0cd301	0.13752367
115	0xbe95c023	-0.2924815
116	0xbe11272a	-0.14175096
117	0x3ced510c	0.02896931
118	0xbe4540be	-0.19262978
119	0xbe445548	-0.19173157
120	0xbe4473b8	-0.19184768
121	0x3dde5f0c	0.108579725
122	0x3bc91ad4	0.0061372314
123	0xbe13386c	-0.14376992
124	0xb821c021	-3.8564325e-05
125	0xbdeb75b7	-0.11497062
126	0x3e7a4b11	0.24442698
127	0xbe3cb17b	-0.18427078
128	0x3e9f22cc	0.31081235
129	0xbe62c781	-0.22146417
130	0xbd394941	-0.045235876
131	0xbc5d0888	-0.013490804
132	0x3d9d96a3	0.07694747
133	0x3cebe447	0.028795375
134	0xbe7f92d0	-0.24958348
135	0xbe8b648f	-0.27225158
136	0x3e77a62c	0.24184483
137	0xbe9db077	-0.30798694
138	0xbd09c0da	-0.033631183
139	0x3e62ec30	0.22160411
140	0x3e810a08	0.25202966
141	0x3e6efa8d	0.23337765
142	0x3e67374c	0.22579688
143	0xbe7f0b6b	-0.249067
144	0xbe935166	-0.2877304
145	0x3e7e0dfe	0.24810025
146	0x3e4f1066	0.202211
147	0x3e6d0b24	0.23148781
148	0x3dacefde	0.084441885
149	0xbdc18244	-0.09448674
150	0x3e2d3ea6	0.1691843
151	0x3e2a4309	0.16627134
152	0xbde9dd26	-0.11419134
153	0x3d8ded90	0.06930077
154	0xbe570159	-0.20996608
155	0x3e20856f	0.15675901
156	0x3e8a25f4	0.2698208
157	0x3d90fff1	0.07080067
158	0xbe161780	-0.14657402
159	0xbe12a7a6	-0.14321765
160	0xbd219089	-0.03944448
161	0x3e075108	0.13214505
162	0x3e79ec7a	0.24406615
163	0x3e481373	0.1953867
164	0xbe9be391	-0.30447057
165	0xbdbecc16	-0.0931627
166	0x3d911ac3	0.070851825
167	0xbe47543e	-0.1946573
168	0x3e271405	0.1631623
169	0xbe9d86ed	-0.30767003
170	0xbd2cb64b	-0.042166036
171	0x3d12ef5f	0.035872813
172	0xbd0a48b6	-0.03376075
173	0x3b72bb63	0.003703796
174	0xbe1603e5	-0.14649923
175	0x3d8cd67e	0.06876849
176	0x3c714916	0.014726898
177	0x3de3ee59	0.111294456
178	0xbd8d63ce	-0.06903802
179	0x3e17498a	0.14774147
180	0x3e6b2588	0.22963536
181	0x3cecf8fa	0.028927315
182	0x3e219cc0	0.15782452
183	0x3d3442c3	0.04400898
184	0x3e4a39b2	0.19748572
185	0x3e8a54a3	0.27017698
186	0xbe13ad4e	-0.14421579
187	0x3dfbe312	0.122991696
188	0xbdac14d2	-0.08402409
189	0x3afe616a	0.0019407694
190	0xbea18879	-0.31549433
191	0x3dd6540c	0.104652494
192	0x3e8c6e19	0.27427748
193	0x3e7dd806	0.24789438
194	0xbdbf0b7d	-0.09328363
195	0x3e3af17f	0.18256186
196	0x3e6c17e7	0.23055993
197	0xbe4f469d	-0.2024178
198	0x3d4d441f	0.050113793
199	0x3d53bbe4	0.05169286
200	0x3d09df2b	0.033660095
201	0x3e4e1c18	0.20127904
202	0x3e83bdd3	0.25730762
203	0xbe9d461e	-0.30717558
204	0x3da5b2ac	0.080907196
205	0xbe8bc9d1	-0.2730241
206	0xbd80a905	-0.06282238
207	0x3e9e6f2e	0.30944198
208	0x3d8200bd	0.06347797
209	0x3e0ed9fe	0.13950345
210	0xbe19c559	-0.15016688
211	0x3e273ae8	0.16331065
212	0x3e22f904	0.15915304
213	0x3e68945f	0.22712849
214	0x3d3012e8	0.04298678
215	0xbe1777ed	-0.14791842
216	0x3e38cd9f	0.18047188
217	0x3ccb4333	0.024812317
218	0xbe94acdd	-0.29038134
219	0x3e937d75	0.28806654
220	0xbe1b1fdf	-0.15148877
221	0xbe8816f0	-0.2658
222	0xbe80beb6	-0.251455
223	0x3e0f61d7	0.14002167
224	0xbbcf2b82	-0.006322325
225	0x3e826d3a	0.25473958
226	0x3df5de18	0.12005252
227	0x3e504158	0.20337427
228	0xbe8b751a	-0.2723778
229	0x3dedab1c	0.11604902
230	0x3e8fad96	0.28062123
231	0x3d2d4e85	0.04231121
232	0x3db95f46	0.09051375
233	0x3e7b1efb	0.24523537
234	0x3c405e77	0.011741272
235	0x3d090c7b	0.033459168
236	0xbe941bec	-0.28927553
237	0x3e841b1f	0.25801942
238	0x3e28a47e	0.16468999
239	0x3e8bd1fb	0.2730864
240	0xbc96e2bf	-0.018418668
241	0xbe79a33b	-0.24378674
242	0x3de20617	0.11036318
243	0xbe916fb0	-0.28405523
244	0xbe1e351e	-0.1544995
245	0xbe85b9f4	-0.26118433
246	0xbe2cfcfb	-0.1689338
247	0x3dbb6bd1	0.09151424
248	0x3e1874a0	0.14888239
249	0xbc9ed2ab	-0.019387564
250	0x3e488805	0.19583137
251	0x3de6ef46	0.112761065
252	0xbdd35305	-0.10318569
253	0x3e8eb3aa	0.27871448
254	0x3e25dc1c	0.16197246
255	0x3d2ca71d	0.04215156

bias_ih_l0 f4 [40]
0	0x3ef3139b	0.47475895
1	0x3f34203e	0.703617
2	0x40109a8d	2.259433
3	0xbe8a92f0	-0.2706523
4	0xbf4f4ae1	-0.8097363
5	0x3eed33a5	0.46328464
6	0x3f87adbf	1.0599898
7	0x3e1758d9	0.14779986
8	0x400d98f9	2.2124617
9	0xc0061f35	-2.0956547
10	0x3dcd5d48	0.100275576
11	0xbe892183	-0.2678338
12	0xbe35d72b	-0.17757861
13	0x3e3db777	0.18527018
14	0xbe897065	-0.26843563
15	0x3e991783	0.2990075
16	0xbc7fff0b	-0.015624772
17	0x3e05735a	0.13032284
18	0xbe5f56f0	-0.21810508
19	0x3dd974b7	0.10617965
20	0x3ec99e36	0.39378518
21	0xbfb5d170	-1.420454
22	0xbfadc211	-1.3574849
23	0xc016b8fc	-2.3550406
24	0xbee7e804	-0.452942
25	0x3fe0f88c	1.757585
26	0xbf9682a2	-1.1758616
27	0xc0438b03	-3.0553596
28	0xbfc144ea	-1.5099156
29	0xbfcee3e7	-1.61633
30	0xc0013bb2	-2.0192685
31	0xbf139eaa	-0.5766398
32	0xbd8f540e	-0.06998454
33	0xbf509e16	-0.8149122
34	0x3e3b9a36	0.18320546
35	0x4026345f	2.5969465
36	0x3f4eee96	0.80832803
37	0xbe02d7cb	-0.12777631
38	0x4026c76c	2.6059217
39	0xbff1f322	-1.8902323

bias_hh_l0 f4 [40]
0	0x3ea6c435	0.3257157
1	0x3f3850e6	0.7199844
2	0x401219f3	2.2828338
3	0xbf18def5	-0.59715205
4	0xbee3fd62	-0.44529253
5	0x3ea8d5cf	0.32975623
6	0x3f3caed9	0.73704296
7	0xbe731871	-0.23739792
8	0x3fcd9d1e	1.6063573
9	0xbfe7fb95	-1.8123652
10	0x3bea0374	0.007141525
11	0x3e98e310	0.29860735
12	0xbe85ce4a	-0.2613395
13	0xbe2c3631	-0.16817547
14	0xbe0ee454	-0.13954288
15	0x3e95add9	0.29234198
16	0xbd5fe04a	-0.054657258
17	0xbd7c805b	-0.061645847
18	0x3d143cfe	0.03619098
19	0x3e9f7f9a	0.3115204
20	0x3f03a664	0.51425767
21	0xbfdd952d	-1.731115
22	0xbff16c7f	-1.8861235
23	0xc0320104	-2.781312
24	0xbf0ea464	-0.5571959
25	0x3fc33d09	1.5253001
26	0xbf83cab2	-1.0296233
27	0xc03c6c7d	-2.9441216
28	0xbfea3662	-1.8297846
29	0xbfadebb9	-1.3587562
30	0xbfe23914	-1.7673669
31	0xbf0ecbcc	-0.5577972
32	0xbe78307e	-0.24237248
33	0xbf3b692c	-0.73207355
34	0x3e98c50d	0.29837838
35	0x401e5f51	2.4745677
36	0x3f616b5c	0.8805444
37	0xbf04e1b6	-0.5190691
38	0x4022b7e6	2.5424743
39	0xbfafd679	-1.3737327

weight f4 [2, 10]
0	0x4066e293	3.607579
1	0x404b6940	3.178299
2	0xc04aaf43	-3.1669471
3	0xbeece9f2	-0.46272236
4	0xc095a3bf	-4.6762385
5	0x3fca6e2a	1.5814869
6	0x402b552a	2.677073
7	0xbf9bb747	-1.2165307
8	0xbfc08012	-1.5039084
9	0x3ffcbe81	1.9745637
10	0xbe52535b	-0.2053961
11	0x3fef5653	1.8698219
12	0xc0678d9f	-3.6180189
13	0x40a82738	5.2547874
14	0xbf1a77ca	-0.60339034
15	0xbff8b3d6	-1.9429882
16	0xbf72ebaa	-0.94890845
17	0x402e1aa1	2.7203753
18	0xbddf1c72	-0.108940974
19	0x40895013	4.2910247

bias f4 [2]
0	0xbe77f2a9	-0.24213661
1	0x3fa48bea	1.2855198

weight_ih_l0 f4 [40, 2]
0	0xbf15572c	-0.5833614
1	0xc04c41f4	-3.1915255
2	0x40e4ad9d	7.146193
3	0xbf618b67	-0.88103336
4	0xbd0f67b7	-0.03501102
5	0xbf99a709	-1.20041
6	0xbfbdb7ef	-1.4821757
7	0xc02b2f2e	-2.6747546
8	0x40a380cc	5.1094723
9	0x3fa78fe4	1.3090787
10	0x3fd4b3bb	1.6617349
11	0xbf9893d1	-1.192011
12	0xc037f6b8	-2.8744335
13	0x40260b12	2.5944257
14	0xbf983462	-1.1890986
15	0xbf47d9ef	-0.78066915
16	0xbff40e3d	-1.9066845
17	0xbe83eb55	-0.25765482
18	0xc01839f4	-2.3785372
19	0x3f7803c4	0.96880746
20	0xbe855d4e	-0.26047748
21	0x3e5ddcb6	0.21666226
22	0xbe42b191	-0.19013049
23	0xbd63da4e	-0.055628113
24	0xbe9a6d53	-0.30161533
25	0xbdfa558d	-0.12223349
26	0x3e6fd7dc	0.23422188
27	0xbe426e08	-0.18987286
28	0xbe9d93cd	-0.30776826
29	0xbdd8ed13	-0.10592093
30	0xbe706ec2	-0.23479751
31	0x3e10e66d	0.141504
32	0xbd981db1	-0.07427538
33	0xbe0a27a7	-0.13491689
34	0x3e1164b8	0.14198577
35	0xbe8e60da	-0.27808267
36	0x3e469469	0.19392551
37	0xbea11900	-0.31464386
38	0xbe54bb4d	-0.20774575
39	0xbdd62a53	-0.104572915
40	0x3fbaa4ac	1.4581504
41	0xc0ebb226	-7.3654966
42	0x4013f25c	2.3116674
43	0xc086c8bf	-4.212005
44	0x40026c25	2.0378506
45	0x408dbfce	4.4296637
46	0x3c78fc08	0.015196808
47	0x3dae4d3b	0.08510824
48	0x3f0420d9	0.5161262
49	0xc02721e2	-2.611443
50	0x400c0ed5	2.1884053
51	0xc011ec84	-2.2800608
52	0xbf4564ab	-0.7710673
53	0x3fa63f10	1.2987995
54	0x3fb25f1d	1.3935276
55	0xbeb7b9df	-0.35883996
56	0xc0300f36	-2.7509284
57	0xc008f6f7	-2.1400735
58	0xc00b786b	-2.1792247
59	0x3f7b4407	0.98150676
60	0xbe13acf6	-0.14421448
61	0xc025e3ea	-2.5920358
62	0x400eb2b2	2.2296567
63	0xbe75aabe	-0.23990914
64	0xbe46dadd	-0.19419427
65	0xc010f990	-2.265232
66	0xbf6334ed	-0.88752633
67	0x3fe75c1f	1.8074988
68	0xc0725190	-3.7862282
69	0xc01a1de5	-2.4080746
70	0x4026cab8	2.606123
71	0xc0374b0b	-2.8639553
72	0xbef6f090	-0.4823041
73	0x4011f715	2.2807057
74	0xc01bf5b1	-2.4368708
75	0x3fc005f9	1.5001823
76	0xc0e8ed24	-7.278948
77	0x403bd69f	2.9349744
78	0xc0cd3517	-6.4127307
79	0x3f2709f5	0.6524957

weight_hh_l0 f4 [40, 10]
0	0x3e5a7e9d	0.21337362
1	0xbd15e9cc	-0.03659992
2	0xbe9988d3	-0.299872
3	0xbe2351ed	-0.15949221
4	0xbe3e7bbc	-0.18601888
5	0x3e815488	0.25259805
6	0xbe183ebc	-0.14867681
7	0x3e095e7e	0.13414952
8	0x3c7f0b12	0.015566604
9	0xbbcf95c2	-0.006334991
10	0x3dea0aab	0.11427816
11	0xbcf969f1	-0.030446025
12	0x3e95c4ae	0.29251617
13	0xbd78c9d0	-0.06073934
14	0xbea16d13	-0.3152853
15	0x3de77ad4	0.113027245
16	0x3e677287	0.22602282
17	0x3e3d0cc8	0.18461907
18	0xbcc523a9	-0.024064856
19	0xbd8a2f23	-0.06747272
20	0xbe40d7dc	-0.18832344
21	0xbe8799e6	-0.26484603
22	0xbddb5308	-0.10709196
23	0x3dc99fd2	0.098449364
24	0x3e189002	0.14898685
25	0xbe91e6d5	-0.28496423
26	0x3bf43e22	0.007453696
27	0xbe624a89	-0.22098745
28	0xbda0519a	-0.07828064
29	0xbddbd7a6	-0.10734491
30	0x3dacf1d8	0.084445655
31	0x3e4df7c5	0.20114048
32	0xbe724cbd	-0.23662086
33	0x3e8802fb	0.26564774
34	0x3e5fcf2f	0.21856378
35	0xbe4d1b9d	-0.20030065
36	0xbd6b099b	-0.057382207
37	0x3d4047d1	0.04694349
38	0xbdb1d18f	-0.08682548
39	0x3de12824	0.10993984
40	0xbe4eb16c	-0.20184869
41	0x3e08a2d8	0.1334337
42	0x3d742883	0.059608947
43	0xbd856806	-0.065139815
44	0x3dd76d69	0.10518915
45	0xbe0fe932	-0.140538
46	0xbe2a248a	-0.16615501
47	0xbe4f1fbd	-0.20226951
48	0x3ca1caf6	0.0197501
49	0x3d20e33e	0.039279215
50	0xbea1a779	-0.31573084
51	0x3e8777e9	0.26458672
52	0x3dcf3031	0.10116614
53	0x3e581632	0.21102217
54	0xbd445774	-0.047934964
55	0x3d742846	0.05960872
56	0x3b37e24c	0.0028058467
57	0xbc877747	-0.016536368
58	0xbe83902f	-0.2569594
59	0x3e0df5b4	0.1386326
60	0x3e727173	0.2367609
61	0xbe852f48	-0.26012635
62	0x3e4ceb2f	0.2001159
63	0x3d78feaa	0.06078974
64	0x3defb1b4	0.11703816
65	0xbe4db09e	-0.20086905
66	0x3d28ab5c	0.041179046
67	0x3def4255	0.11682574
68	0xbd8ae9a1	-0.067828424
69	0x3e4cfbd8	0.20017946
70	0x3e856b7e	0.26058573
71	0xbe474395	-0.19459374
72	0xbda4dd61	-0.08050037
73	0x3e14142e	0.14460823
74	0x3e6ca791	0.23110797
75	0xbc663a5f	-0.014052003
76	0xbe99bfb8	-0.30029082
77	0xbcf77a2d	-0.030209625
78	0x3e4f6ba9	0.20255913
79	0xbe22574e	-0.15853617
80	0x3e601593	0.2188323
81	0xbe937c3a	-0.28805715
82	0x3df62a2f	0.12019765
83	0x3e143456	0.1447309
84	0xbdb93bd1	-0.09044612
85	0x3e02b8fb	0.12765877
86	0xbddc7836	-0.10765116
87	0x3c7dad53	0.015483218
88	0x3e95f58e	0.29288906
89	0x3d8a9180	0.06766033
90	0xbe972119	-0.2951744
91	0x3da87f81	0.082274444
92	0xbe840c4e	-0.25790638
93	0xbe97f3e5	-0.29678264
94	0x3d33e718	0.04392156
95	0xbe86964a	-0.26286536
96	0x3e9aa6ae	0.30205292
97	0xbe959a08	-0.2921908
98	0xbcbeda0f	-0.023297338
99	0xbb5d7b01	-0.003379524
100	0xbda3ad5d	-0.07992051
101	0x3e813930	0.25238943
102	0xbe020fb6	-0.12701306
103	0x3e8fd452	0.28091675
104	0x3e6a88a7	0.22903691
105	0x3e23a5ba	0.15981188
106	0x3e876430	0.26443624
107	0x3dcc6478	0.099801004
108	0xbe97787e	-0.29584116
109	0xbe63ed61	-0.22258522
110	0xbd804b7f	-0.062644
111	0xbe377a03	-0.17917638
112	0x3bbb974c	0.005724823
113	0xbe9f6b32	-0.3113647
114	0x3e8ac9fa	0.2710722
115	0x3e81cde0	0.25352383
116	0xbd1341d4	-0.03595145
117	0x3d7bd93a	0.06148646
118	0x3d823c08	0.06359106
119	0x3ddb24e6	0.10700397
120	0x3e121324	0.14265114
121	0xbcca858b	-0.024721881
122	0xbe16775c	-0.1469397
123	0x3c668529	0.014069834
124	0x3e83ad82	0.25718313
125	0xbdb290c2	-0.087190166
126	0xbc9e26b8	-0.019305572
127	0x3e0cd1ff	0.13751982
128	0xbc281846	-0.0102596935
129	0x3e973652	0.2953363
130	0xbda13688	-0.07871729
131	0xbe52215e	-0.20520541
132	0x3d3ba3de	0.045810573
133	0xbc2a95ca	-0.010411689
134	0xbc4d403f	-0.0125275245
135	0xbdb7d139	-0.08975453
136	0xbcaa14d9	-0.020761894
137	0xbe50e720	-0.20400667
138	0xbe944212	-0.28956658
139	0xbba10e18	-0.00491501
140	0x3e33245c	0.17494339
141	0xbe8cc615	-0.27494875
142	0x3d70c62b	0.058782738
143	0x3e08acc1	0.1334715
144	0x3e4c3e3a	0.19945613
145	0xbcba70a7	-0.022758795
146	0xbea05d69	-0.31321266
147	0xbdef2cd4	-0.11678472
148	0xbe27d2e2	-0.16389039
149	0xbde2fbf0	-0.110832095
150	0xbe186e61	-0.14885856
151	0xbdaaf3c0	-0.08347273
152	0xbcefdb36	-0.029279333
153	0x3c7b1b19	0.015326285
154	0x3d133876	0.035942517
155	0x3d48d2f7	0.049029317
156	0xbd723c11	-0.059139315
157	0x3e69246c	0.227678
158	0xbe81419b	-0.25245366
159	0xbdc584f5	-0.096445
160	0x3d83bc54	0.06432405
161	0xbdcb76f6	-0.099347994
162	0x3d25926b	0.04042284
163	0x3d1efaf3	0.038813543
164	0xbe4481ac	-0.19190091
165	0xbd8eeb6f	-0.06978499
166	0x3db34266	0.08752899
167	0x3e98bb02	0.29830176
168	0xbd90f6a2	-0.070782915
169	0xbe8c3201	-0.273819
170	0x3e89cc15	0.26913515
171	0xbe9aad62	-0.30210406
172	0xbe5754c6	-0.21028432
173	0x3d6eb47c	0.058277592
174	0x3e9e9636	0.30973977
175	0xbae073da	-0.001712437
176	0xbdecbd7c	-0.11559579
177	0xbd91d31a	-0.071203426
178	0x3b8f4191	0.00437183
179	0xbe9eb681	-0.30998614
180	0xbdbede63	-0.09319761
181	0x3d856301	0.06513024
182	0xbce060b8	-0.02738987
183	0x3d449f0a	0.048003234
184	0xbd87d847	-0.066330485
185	0x3e868a66	0.26277465
186	0x3e4c2a73	0.19938068
187	0x3d36d4ac	0.044636413
188	0xbe9abd96	-0.30222768
189	0xbcef2a0b	-0.029194852
190	0xbe18f774	-0.14938146
191	0xbe530c5a	-0.2061018
192	0xbe337ac2	-0.17527297
193	0xbe2d815f	-0.16943882
194	0x3e8ce39c	0.27517402
195	0xbda36f90	-0.07980263
196	0xbe411a2d	-0.18857642
197	0xbe5794f3	-0.21052913
198	0xbe6ba17c	-0.2301082
199	0xbd4f5647	-0.05061939
200	0xbcc591a0	-0.024117291
201	0xbe6f810c	-0.23389071
202	0x3e83e2af	0.25758883
203	0xbe4f18a2	-0.2022424
204	0x3e86363f	0.2621326
205	0xbcb8b24c	-0.022545956
206	0x3e9ae7d1	0.30254987
207	0xbe1ba103	-0.1519814
208	0xbe52f750	-0.20602155
209	0x3bbc6c6f	0.005750231
210	0x3ce079dc	0.027401857
211	0xbe89da0a	-0.26924163
212	0xbdb7cc43	-0.08974507
213	0x3e9afdfd	0.30271903
214	0x3da005ce	0.07813607
215	0xbe09626d	-0.13416453
216	0xbd10872a	-0.035285152
217	0x3d44f648	0.048086435
218	0xbe2d5959	-0.16928615
219	0x3e966185	0.29371276
220	0x3d5e2254	0.054231957
221	0xbe88f886	-0.26752108
222	0x3e9fa02b	0.31176886
223	0xbe2493ea	-0.1607205
224	0xbde80bc8	-0.11330372
225	0xbe857d6a	-0.26072246
226	0xbe8770c5	-0.26453224
227	0x3e3b2adf	0.18278073
228	0x3e366326	0.1781126
229	0xbdc11ab3	-0.094289206
230	0xbe9bcb7b	-0.3042868
231	0x3dba904b	0.09109553
232	0x3e7b4e21	0.24541523
233	0xbdb9a218	-0.0906412
234	0xbd1255ce	-0.03572636
235	0x3d78674f	0.060645398
236	0x3c586291	0.013207094
237	0x3d4e0273	0.050295305
238	0x3c026394	0.007958312
239	0x3e598f06	0.21245965
240	0x3e6faab3	0.2340496
241	0xbe7ac221	-0.24488117
242	0x3e0c1938	0.13681495
243	0xbe6be1b8	-0.23035324
244	0x3e2d4cf0	0.1692388
245	0xbd20bfc9	-0.0392454
246	0xbd38d469	-0.045124445
247	0xbe8f5bf0	-0.2799983
248	0xbe9da280	-0.3078804
249	0x3daccbdb	0.0843732
250	0x3e3f5b56	0.18687186
251	0x3e5fd0f1	0.21857049
252	0x3e04ef6d	0.12981959
253	0xbe6e25ae	-0.23256561
254	0x3e94302d	0.28943005
255	0xbc672462	-0.014107795

bias_ih_l0 f4 [40]
0	0xc0148f07	-2.3212297
1	0xbfc8ed13	-1.5697349
2	0x40804461	4.008347
3	0x3fe5ece8	1.7962923
4	0x40139b2c	2.306346
5	0xc05377d9	-3.30419
6	0xc02768fa	-2.6157823
7	0xc0a7c399	-5.2426267
8	0xc07cd86c	-3.9507093
9	0xc021b9f7	-2.5269754
10	0xbe83877f	-0.25689313
11	0x3d192d59	0.037396763
12	0x3e7b4c8c	0.24540919
13	0x3e85d200	0.2613678
14	0xbe50d55b	-0.20393889
15	0xbe00c2c6	-0.125743
16	0xbd9fe823	-0.078079484
17	0x3d687928	0.05675617
18	0x3e07995c	0.13242096
19	0x3e9f28c8	0.310858
20	0x3ef6d969	0.48212746
21	0x3f6dc83c	0.9288366
22	0xbf7dbb62	-0.9911405
23	0xc08ba5cb	-4.3639884
24	0x4026145c	2.5949926
25	0x3fe7c366	1.8106506
26	0x40656059	3.5840056
27	0xc00ef985	-2.2339795
28	0xbff21221	-1.8911783
29	0x3fcef728	1.6169176
30	0xc066bf00	-3.6054077
31	0xbff15dc4	-1.885674
32	0xbf439e0e	-0.7641305
33	0x409739d4	4.725809
34	0xc032c63b	-2.793349
35	0xbfbb3c60	-1.46278
36	0xbfaefbe4	-1.3670621
37	0xc0740a24	-3.813119
38	0x3f3b3a19	0.73135525
39	0x3fd0a011	1.6298848

bias_hh_l0 f4 [40]
0	0xc008e1ba	-2.1387773
1	0xbf98de80	-1.1942902
2	0x407bfe8d	3.9374115
3	0x3fa87450	1.3160496
4	0x402fb25a	2.7452607
5	0xc05cb957	-3.4488122
6	0xc00f11a7	-2.2354524
7	0xc0a02063	-5.0039535
8	0xc07b7ed0	-3.929615
9	0xc03bf921	-2.9370806
10	0x3ddc2599	0.10749359
11	0x3e8f7cc1	0.28024867
12	0x3d2d5871	0.042320672
13	0xbdfc72f9	-0.12326617
14	0x3d9afa5a	0.07567282
15	0x3dbcbf77	0.092162065
16	0xbe0b2945	-0.13589962
17	0x3e93c438	0.2886064
18	0x3e592c4f	0.21208309
19	0xbea1a0b7	-0.31567928
20	0x3ef262e8	0.47341084
21	0x3f722425	0.945864
22	0xbf5f0bfb	-0.87127656
23	0xc0926e69	-4.575978
24	0x402e51a6	2.7237334
25	0x3ff6c568	1.9278994
26	0x405d793f	3.4605253
27	0xc00e8468	-2.2268314
28	0xc0034743	-2.0512245
29	0x3fd20f58	1.6410933
30	0xc0740994	-3.8130846
31	0xc005d653	-2.0912063
32	0xbf781cfe	-0.9691924
33	0x408b4250	4.351845
34	0xc02a6575	-2.6624424
35	0xbf87efec	-1.0620093
36	0xbfe87018	-1.8159208
37	0xc07ee1a9	-3.9825232
38	0x3f0d0b9d	0.55095845
39	0x3fbb8227	1.4649094

weight_ih_l0 f4 [80, 10]
0	0xc1b94f0c	-23.163597
1	0x404104bf	3.0159147
2	0x3f651c31	0.8949614
3	0xc0622d49	-3.534014
4	0xc04593b5	-3.0871403
5	0xc00b9961	-2.1812365
6	0x4093918f	4.6115184
7	0x41423100	12.136963
8	0xc08e472b	-4.4461875
9	0x3fae77c6	1.3630302
10	0xc125a447	-10.352607
11	0xbfd548db	-1.6662859
12	0x40c3aa65	6.11455
13	0xc0825cf0	-4.073845
14	0xc0b49a59	-5.6438413
15	0xc09379a9	-4.608601
16	0x402990da	2.649466
17	0xc127a924	-10.478794
18	0xc0595ee2	-3.3964162
19	0x40807a45	4.0149255
20	0xbf33af61	-0.7018948
21	0xbfb6bfb2	-1.4277251
22	0xc09d424f	-4.9143443
23	0x3f1ccb0f	0.6124734
24	0x40fdb98d	7.9289002
25	0x4075758f	3.8353002
26	0x3fc8f335	1.5699221
27	0xc1df060d	-27.877954
28	0x419cda5d	19.606623
29	0xc0c5fbfc	-6.18701
30	0xc0e3287d	-7.0986924
31	0xc099e9db	-4.809797
32	0x3fd6f84a	1.6794522
33	0xc073c1ac	-3.8086958
34	0x409b6356	4.855876
35	0xc0b4e04d	-5.6523805
36	0xc0488d48	-3.1336231
37	0x41d74338	26.907822
38	0xc0e852c1	-7.260102
39	0x405d763a	3.460341
40	0xc0d46201	-6.6369634
41	0xc0af3e1e	-5.4763327
42	0xc081eb7b	-4.059995
43	0x3edb27df	0.42803857
44	0xbfa94c42	-1.3226397
45	0xc19baec3	-19.460333
46	0xc10e5b75	-8.897328
47	0xc1522466	-13.133886
48	0x40515ff8	3.2714825
49	0x40d83036	6.755885
50	0xc042b262	-3.0421376
51	0x3ffea4d8	1.9894056
52	0xc0a7aa7d	-5.2395616
53	0x3f2c5c67	0.67328495
54	0x403214b4	2.7825136
55	0x41190060	9.562592
56	0x410e284b	8.884837
57	0xc0fcdb74	-7.9017887
58	0x402eb803	2.7299812
59	0x3f81b6de	1.0133932
60	0xbebb2b06	-0.36556262
61	0x40885509	4.2603803
62	0xc06c6a20	-3.6939774
63	0xc08020ed	-4.0040193
64	0x40b0f031	5.5293202
65	0xc1981257	-19.008955
66	0xc1649fd0	-14.289017
67	0xbed5dc4d	-0.4176964
68	0xc0209afd	-2.5094597
69	0xc0b05b5c	-5.5111523
70	0xc0a0781c	-5.014662
71	0xc0baa43d	-5.8325486
72	0xc05db5cb	-3.4642208
73	0xc0a221bd	-5.0666184
74	0x40889b6c	4.2689724
75	0xc107ffcb	-8.499949
76	0x40daebed	6.8412995
77	0x412203fd	10.125974
78	0x3f7f3ac1	0.99699026
79	0xbf67e162	-0.9057828
80	0xc184ec18	-16.61528
81	0x40924beb	4.5717673
82	0xc14086f4	-12.032948
83	0x4114d7a5	9.302648
84	0xbe0974e9	-0.13423504
85	0x3fbc3920	1.4704933
86	0xc113206b	-9.195415
87	0x412c2546	10.7591
88	0xc055b3a3	-3.3390892
89	0xbf903594	-1.1266351
90	0xc1535eed	-13.210675
91	0xc0e70b3c	-7.2201214
92	0xc007ac28	-2.1198826
93	0x400af6b7	2.1713083
94	0xc088caa7	-4.274738
95	0xc102f6bc	-8.185238
96	0x40360285	2.8439038
97	0x411a391b	9.638942
98	0x408c6778	4.3876305
99	0xc11e7773	-9.904162
100	0xc1c7a277	-24.954329
101	0xc09d042d	-4.9067597
102	0xbf60bb00	-0.8778534
103	0x40820f63	4.0643783
104	0xbffe229a	-1.985431
105	0xc1945888	-18.543228
106	0x3e56981e	0.20956466
107	0x4120d06b	10.050883
108	0xc04c1b0e	-3.1891513
109	0xbf4c9c1c	-0.79925704
110	0x3e88cf08	0.26720452
111	0xbfef84e5	-1.8712431
112	0xc04c5a59	-3.1930144
113	0x3f02d7c4	0.5111048
114	0x4156ec3f	13.432677
115	0xc0c7b718	-6.2411003
116	0x3fa85206	1.3150032
117	0x41c19f82	24.202885
118	0xc124c9b9	-10.299249
119	0xc063fc8d	-3.5622895
120	0x3ff22e7a	1.8920434
121	0x3f3ab44d	0.7293137
122	0x4030028d	2.7501557
123	0xc0991196	-4.7833967
124	0x3fd1dc88	1.6395426
125	0x412736b1	10.450852
126	0x3f04cb77	0.5187296
127	0xc17c72b2	-15.778002
128	0x411bd5b4	9.739674
129	0x409673c4	4.7016315
130	0xc1814669	-16.15938
131	0xc01feae1	-2.4987109
132	0x411a5960	9.64682
133	0x40ac08d1	5.376076
134	0xc0d88610	-6.766365
135	0x3f86ea12	1.0540183
136	0x3e31f4ff	0.17378615
137	0x420a210b	34.53227
138	0xc1a1337b	-20.150137
139	0xbf0f27d6	-0.5592016
140	0x40dfa44a	6.988805
141	0xc08c7f26	-4.390521
142	0xbe9243ad	-0.28567258
143	0x3f54aaae	0.83072937
144	0xc10ee323	-8.930453
145	0x3dc3648c	0.09540662
146	0xc1263890	-10.388809
147	0xbfa250e9	-1.2680942
148	0x40737779	3.804167
149	0xbfa0709f	-1.2534369
150	0xc20d50b7	-35.328823
151	0x4037e17c	2.8731375
152	0x413cf891	11.810685
153	0xc0832842	-4.0986643
154	0xc07eca6c	-3.9811049
155	0xc08aa62c	-4.3327847
156	0x40fc8bdb	7.892072
157	0xc006d342	-2.1066442
158	0xc06b1b1b	-3.6735294
159	0x40ea62c2	7.3245554
160	0xc1d727df	-26.894468
161	0x40deac71	6.95855
162	0x40dec9ca	6.9621325
163	0x4091729c	4.5452404
164	0xc00a5105	-2.161195
165	0xbf284dda	-0.6574379
166	0x40df0e6c	6.9705105
167	0x3f3b0e44	0.7306864
168	0x409a568a	4.823064
169	0x40a3ece8	5.122669
170	0xbc866456	-0.016405266
171	0x40b575b1	5.6706166
172	0xbf85e3cd	-1.0460144
173	0x402d920c	2.712039
174	0xc12cea3b	-10.807185
175	0x41090f03	8.566165
176	0x40151120	2.3291702
177	0x403ad5a5	2.9192898
178	0xbf15f2ea	-0.5857378
179	0x4094a1ba	4.644742
180	0x406dba53	3.7144973
181	0x40a97819	5.2959104
182	0x4068a914	3.6353197
183	0xc07b2fb8	-3.9247875
184	0xc073ab07	-3.8073137
185	0xc081cfa1	-4.0565953
186	0xbf957323	-1.1675762
187	0xc087cee3	-4.2440047
188	0xc04eda50	-3.2320747
189	0x40b54b7f	5.665466
190	0xc0071093	-2.1103866
191	0x40fcc311	7.898812
192	0xbf6dfd3e	-0.9296454
193	0xbf37930a	-0.7170874
194	0xbedf8e5e	-0.43663305
195	0x40d95138	6.7911644
196	0xbf154101	-0.58302313
197	0x414a0de4	12.628391
198	0xc10b310f	-8.699477
199	0xc083a07f	-4.113342
200	0x3e3cfab0	0.18455005
201	0xbdc7681b	-0.097366534
202	0x3e23b27e	0.15986058
203	0x3d2225a4	0.03958668
204	0x3e269321	0.16267063
205	0xbe24de0e	-0.16100332
206	0x3d266112	0.040619917
207	0x3d681e31	0.056669418
208	0x3e06e190	0.13171983
209	0x3c1bb409	0.009503373
210	0x3b354e82	0.0027665203
211	0x3de9f97f	0.11424541
212	0xbd0fcb5a	-0.03510604
213	0x3e1333b3	0.1437519
214	0xbe224686	-0.15847215
215	0xbe228a13	-0.15872984
216	0x3decdfd8	0.11566132
217	0xbcde4f3a	-0.027137388
218	0x3e4ee7ad	0.20205565
219	0x3d949006	0.07254033
220	0xbe56958a	-0.20955482
221	0xbe5460b8	-0.2074002
222	0xbcefdc9b	-0.029279998
223	0x3dad3741	0.084578045
224	0x3d8c739c	0.06857988
225	0x3e239a32	0.1597679
226	0x3cdbdd13	0.026838815
227	0xb992a152	-0.00027967483
228	0x3d0c6e22	0.03428472
229	0x3e2e2665	0.17006834
230	0xbd4e4a2b	-0.0503637
231	0xbced4d70	-0.02896759
232	0xbcb0cf62	-0.021583263
233	0x3d021777	0.03176066
234	0xbadd45dd	-0.0016881783
235	0x3da8e7af	0.08247315
236	0x3e4d5d01	0.2005501
237	0x3e0af988	0.13571751
238	0xbdb63f9d	-0.08898852
239	0x3db0e292	0.08636965
240	0xbe174d91	-0.14775683
241	0xbe06b8b7	-0.131564
242	0x3e5f67f4	0.21816999
243	0xbd9997b1	-0.07499636
244	0xbe43624c	-0.19080466
245	0x3e0684a4	0.13136536
246	0xbcb5e0ce	-0.022201922
247	0xbba50fa6	-0.005037266
248	0x3dcd505b	0.10025092
249	0x3d66feea	0.05639545
250	0x3d4a3cc5	0.04937436
251	0x3dcc29e5	0.09968928
252	0x3def40a0	0.11682248
253	0x3e260aa0	0.1621499
254	0xbd358a3e	-0.04432129
255	0xbd5e9860	-0.054344535
