VAE/AE1/model.pth (torch, 49322 bytes, 20 tensors)

weight_ih_l0 f4 [80, 41]
1.3358257 -0.00958497 0.9364473 0.75146097 0.8251773 -0.63264227 0.4750921 0.13595979
0.15109886 -0.29616624 -0.5419942 2.1046982 -0.46417996 0.11305557 0.27979395 -0.42132083
0.40713137 0.362964 0.79077 0.10637964 0.16289665 0.18097061 2.0107155 0.25736886
-0.72842467 -0.4063228 -1.4342359 -1.2371393 -0.052894846 0.5907397 -0.38201475 0.0025398228
-2.2608202 0.18379708 2.0178044 -0.82075363 -1.9721928 0.6035533 0.15081248 0.32124048
-0.4337097 -1.0378369 0.694634 -2.3516207 -0.51767176 -0.5776565 1.1620138 0.4357539
-0.14091954 0.039659306 0.8548436 -0.5428684 0.21636622 0.31497166 0.2813561 -0.00038599732
0.43236187 0.30729297 -0.21092165 0.6234209 -0.06314864 -0.20124899 1.7895824 -0.37852877
-2.3987992 -0.27018622 0.13920908 0.2689951 -0.16701569 0.06493776 -0.27625555 2.5796733
0.2824519 1.8229121 1.0339707 -0.09075155 1.1993716 -0.279196 0.5999501 0.83822125
-0.5226527 0.42113903 0.17827421 -1.4368352 -0.39183292 -0.8004947 0.04291421 1.1982594
-0.27711678 0.22028449 0.1293378 0.6589192 -0.19807705 -1.328405 -0.06851586 -0.14197618
0.29129788 -0.33383828 0.524235 0.2052718 0.7098991 0.122111194 -0.11927868 1.1642857
-0.41986856 -0.17547719 0.4120958 0.19995087 0.891853 0.14813796 0.31315562 -0.63164324
1.9616487 -1.2502687 0.8929479 0.5922128 -0.47075245 -0.22186601 -0.17871763 -0.4271133
-0.31187433 -0.022956152 0.8148188 -1.1025984 0.1147279 2.0080934 0.03031015 -0.19538184
-0.7389151 -0.16319853 -0.1891071 -0.15191773 -0.17400669 0.379236 0.91977787 0.0854558
-0.28294712 0.17026387 -0.12998967 -0.38382876 0.09745357 0.07811321 -0.11330565 0.1464919
-1.2165892 -3.0142405 -3.1646748 0.43592715 0.26891482 -0.11153992 -0.34437218 0.970908
-0.56947 2.293791 -0.011930305 -2.3755453 0.41840783 0.883221 -3.9475222 -0.012031567
0.43147033 -0.6375327 -0.7292889 0.14664592 0.19944657 -0.38428864 0.26608616 -0.13101493
0.44815737 -0.1891594 0.20008934 -0.09547033 -0.031141182 0.047910973 -0.99293673 -0.022901786
-0.5992564 0.043140456 -0.01765088 -0.5488135 0.020614484 -0.02184919 0.0945544 -0.10947742
-0.041877307 -0.702568 -2.735693 -2.931202 -0.42913902 -0.65069926 0.45623326 -0.38423127
-1.0332338 2.2256417 2.5596416 1.4402711 1.4437315 0.514377 0.8632412 0.75754637
0.4969084 -0.6656581 -0.21312533 -0.39423344 -0.8145489 0.21971692 1.7111179 1.9010528
0.7400965 -1.0452775 1.4860814 -0.682566 0.121530496 -0.06386161 0.7003448 0.7595391
5.837885 0.33158678 0.5090175 0.20929378 0.5324393 0.3527507 0.38685536 0.3229561
0.1092936 0.03468946 -0.43816683 1.8293506 1.1739981 0.5811899 0.3946478 -0.35921192
-0.118160285 -0.5778585 -0.24205518 -2.0859349 1.8636633 1.7478315 -1.8912684 -0.36020243
-0.2849011 -1.1878765 0.84302044 -0.7472971 0.4086156 0.1231176 -0.17758924 0.80386615
-0.18707125 -0.62973964 0.2681727 0.36794418 0.25983238 -0.19878662 -0.10059289 -0.69432783
00000000: 56fc aa3f 470a 1dbc 03bb 6f3f bf5f 403f
00000010: d23e 533f d8f4 21bf 463f f33e 0b39 0b3e
00000020: a9b9 1a3e 1aa3 97be 22c0 0abf 60b3 0640
00000030: ffa8 edbe ae89 e73d 2741 8f3e 5db7 d7be
00000040: 8673 d03e 6bd6 b93e e76f 4a3f 92dd d93d
00000050: 61ce 263e 5c50 393e 90af 0040 dac5 833e
00000060: 0a7a 3abf 8b09 d0be 0b95 b7bf 955a 9ebf
00000070: 44a8 58bd b83a 173f 7097 c3be 2873 263b
00000080: 47b1 10c0 4d35 3c3e b523 0140 e91c 52bf
00000090: d070 fcbf 7882 1a3f 966e 1a3e a279 a43e
000000a0: 330f debe d7d7 84bf 89d3 313f f480 16c0
000000b0: 2386 04bf 4ce1 13bf debc 943f 231b df3e
000000c0: 364d 10be cc71 223d 08d7 5a3f 6cf9 0abf
000000d0: 1b8f 5d3e f743 a13e e80d 903e af5f cab9
000000e0: 895e dd3e 8155 9d3e d8fb 57be 8398 1f3f
000000f0: 1354 81bd 3714 4ebe 0911 e53f 86ce c1be
00000100: ed85 19c0 d955 8abe d38c 0e3e bab9 893e
00000110: 2906 2bbe 17fe 843d 5e71 8dbe 5e19 2540
00000120: 899d 903e 2f55 e93f 2759 843f f3db b9bd
00000130: 0285 993f c7f2 8ebe 5496 193f ab95 563f
00000140: 91cc 05bf 899f d73e 848d 363e 37ea b7bf
00000150: 539e c8be 38ed 4cbf d0c6 2f3d 9060 993f
00000160: 40e2 8dbe 4292 613e 2171 043e eeae 283f
00000170: b6d4 4abe 2d09 aabf 0b52 8cbd 3462 11be
00000180: ff24 953e daec aabe 4434 063f c532 523e
00000190: f3bb 353f 6f15 fa3d 6148 f4bd 5007 953f
000001a0: 03f9 d6be 4bb0 33be 38fe d23e ecbf 4c3e
000001b0: 7a50 643f 7ab1 173e ef55 a03e 5fb3 21bf
000001c0: 4e17 fb3f ce08 a0bf 3c98 643f 429b 173f
000001d0: 7706 f1be d830 63be c101 37be 98ae dabe
000001e0: fead 9fbe 8a0e bcbc f797 503f f221 8dbf
000001f0: 76f6 ea3d 9a84 0040 fe4c f83c 2d12 48be
00000200: 8a29 3dbf 841d 27be 4ba5 41be 5290 1bbe
00000210: cf2e 32be 392b c23e 9076 6b3f 7303 af3d
00000220: 72de 90be a759 2e3e 031c 05be 3485 c4be
00000230: bd95 c73d d2f9 9f3d cb0c e8bd f901 163e
00000240: 32b9 9bbf 51e9 40c0 088a 4ac0 d831 df3e
00000250: 34af 893e 0b6f e4bd 8d51 b0be 6d8d 783f
00000260: c9c8 11bf 79cd 1240 5377 43bc ef08 18c0
00000270: 8d39 d63e c51a 623f 34a4 7cc0 0d20 45bc
00000280: aee9 dc3e 5835 23bf adb2 3abf 592a 163e
00000290: b93b 4c3e 7bc1 c4be 723c 883e c728 06be
000002a0: e274 e53e 00b3 41be 38e4 4c3e f385 c3bd
000002b0: cb1b ffbc 4c3e 443d 1a31 7ebf 879c bbbc
000002c0: de68 19bf 0cb4 303d 9498 90bc 0b7f 0cbf
000002d0: b5df a83c 13fd b2bc bda5 c13d b335 e0bd
000002e0: 8a87 2bbd 7fdb 33bf 9815 2fc0 d098 3bc0
000002f0: 1cb8 dbbe 3a94 26bf 6897 e93e f6b9 c4be
00000300: 0141 84bf ea70 0e40 2bd1 2340 ce5a b83f
00000310: 32cc b83f 36ae 033f 60fd 5c3f 8fee 413f
00000320: c76a fe3e 9268 2abf 873d 5abe f7d8 c9be
00000330: 4786 50bf 79fd 603e e905 db3f b355 f33f
00000340: f776 3d3f a7cb 85bf ea37 be3f a5bc 2ebf
00000350: fbe4 f83d e0c9 82bd cc49 333f 2871 423f
00000360: f4cf ba40 bec5 a93e f94e 023f 1c51 563e
00000370: f14d 083f bd9b b43e e811 c63e 805a a53e
00000380: 53d5 df3d 8916 0e3d 6757 e0be 2928 ea3f
00000390: 9245 963f dcc8 143f 470f ca3e a0ea b7be
000003a0: 05fe f1bd 89ee 13bf 50dd 77be f57f 05c0
000003b0: 858c ee3f f1b8 df3f 1515 f2bf 746c b8be
000003c0: 8fde 91be 560c 98bf 30d0 573f dd4e 3fbf
000003d0: 1036 d13e 1525 fc3d f4d9 35be 2cca 4d3f
000003e0: 9b8f 3fbe 9e36 21bf ef4d 893e 2e63 bc3e
000003f0: c008 853e b88e 4bbe a503 cebd 78bf 31bf

weight_hh_l0 f4 [80, 20]
0.16161007 0.19676137 -0.10972452 -0.10802963 -0.15974738 0.085415445 0.17408766 0.066962905
-0.100696534 -0.118422456 -0.11925791 0.21594898 0.11762552 0.06709826 0.04795778 -0.18197706
0.18625371 0.057629514 0.15835571 0.101457186 0.20961237 -0.012432948 -0.2205924 0.11410472
-0.17877379 0.10480007 -0.19157547 -0.22312301 -0.008322592 0.05919966 -0.017688926 -0.14175184
-0.015338373 0.19804856 -0.10538623 -0.20175697 0.07882243 0.0482466 0.08603122 -0.13701236
0.13919526 -0.18961918 -0.21381243 -0.1951851 -0.20509662 -0.12859423 -0.09058018 0.19511475
0.16847828 -0.10335888 -0.21621887 0.06340712 0.0034708786 0.1416192 0.12786591 0.17903584
-0.1292679 0.21218386 -0.19280815 -0.061703034 -0.16390131 0.12986657 -0.14128423 0.20405765
-0.16118424 0.07348296 0.009390085 -0.19479491 -0.059354316 -0.07198545 -0.0702026 -0.21778254
0.0045114225 0.19275574 -0.21218763 0.032313745 0.09064325 0.001277116 -0.07444223 0.09705367
0.20627871 -0.016039958 0.11642907 -0.16995281 0.045334086 -0.05434499 -0.013299189 -0.1053954
-0.0015939226 -0.22234264 0.105519295 -0.019474853 0.0035717718 0.18591528 -0.16147998 -0.012866215
0.15383235 0.043928593 0.22320427 -0.070156105 -0.14765112 -0.1798278 0.160508 -0.105690055
0.1826347 0.021498097 -0.1309647 0.089840956 -0.18942106 -0.10057791 -0.022682663 -0.16947913
0.013554926 0.0695653 0.05151159 -0.17597741 0.06708576 0.20845243 0.21504468 0.09496973
-0.12130509 0.13570936 -0.044974547 0.20855615 -0.07971183 0.111732975 0.03350913 0.035110947
-0.08534763 0.2176298 0.17639296 0.110904746 0.17697176 -0.067693144 0.015188993 0.13811642
-0.074689336 0.097631834 -0.13481255 0.120771945 -0.1788294 0.09732217 0.08296499 0.048249584
-0.063792706 0.1100811 0.1416069 0.04135573 0.21081631 -0.11151178 -0.12160342 0.0025134215
0.09051258 -0.17920151 -0.045658488 -0.14385831 -0.14755398 -0.22161774 -0.019881649 0.1235213
-0.056364074 -0.0630747 0.20117147 0.21347618 0.1657563 0.19184011 0.077027306 0.21758224
0.10984671 -0.22047737 -0.03584577 0.12267068 0.030343253 -0.020464297 -0.004752926 0.046688184
-0.15278259 -0.15315348 -0.1281529 0.14379564 -0.09016611 -0.021979025 0.17403904 -0.09080036
0.19334146 -0.12813851 -0.123215444 0.16106485 -0.069863126 -0.16794054 -0.06944615 -0.15654244
-0.14075486 0.15262945 -0.07597677 0.04531428 0.077085145 0.006485007 -0.008438306 0.116952404
0.13346191 -0.11413518 -0.049505163 0.09400681 -0.004753566 0.096432716 0.0035895247 0.20375538
0.08758031 0.17580236 -0.18898375 -0.13267073 0.20399943 -0.07210325 -0.17034087 -0.099547476
-0.1388866 -0.008516781 -0.11024658 -0.099998355 0.09412577 -0.13434939 0.14003256 -0.017656272
-0.1310583 -0.063544564 -0.0822586 -0.1349018 0.09469259 0.03413779 0.18109623 0.16869606
0.16418917 -0.024753807 -0.03587776 -0.16910115 -0.17340058 -0.12001444 -0.14746551 -0.078481846
-0.2001804 -0.12537266 -0.09807777 0.14188635 -0.16369507 -0.06265513 -0.04501 -0.09038764
-0.07203509 -0.11805207 0.12979308 -0.13622132 0.10846987 0.07534995 -0.032047186 0.20544428
00000000: 1c7d 253e d07b 493e 40b7 e0bd a33e ddbd
00000010: d194 23be 4bee ae3d 0944 323e d923 893d
00000020: fc39 cebd 7987 f2bd 7e3d f4bd bb21 5d3e
00000030: a6e5 f03d d06a 893d 616f 443d 3258 3abe
00000040: 4bb9 3e3e ed0c 6c3d 0028 223e c9c8 cf3d
00000050: a0a4 563e 90b3 4bbc f9e2 61be bcaf e93d
00000060: 7a10 37be 6ba1 d63d 5c2c 44be 5c7a 64be
00000070: 7b5b 08bc 587b 723d 5ee8 90bc 6527 11be
00000080: cd4d 7bbc 3ecd 4a3e bcd4 d7bd 6199 4ebe
00000090: a76d a13d 3a9e 453d 2331 b03d f84c 0cbe
000000a0: 3489 0e3e 882b 42be a5f1 5abe 9ade 47be
000000b0: d904 52be 35ae 03be 1a82 b9bd 29cc 473e
000000c0: 9285 2c3e d2ad d3bd 7b68 5dbe 98db 813d
000000d0: ae77 633b a004 113e 48ef 023e 2c55 373e
000000e0: ce5e 04be ba46 593e 806f 45be 52bc 7cbd
000000f0: bfd5 27be befb 043e d0ac 10be 7df4 503e
00000100: 7b0d 25be 3c7e 963d dfd8 193c 5178 47be
00000110: 831d 73bd 1c6d 93bd 61c6 8fbd 6302 5fbe
00000120: 8ed4 933b c361 453e b747 59be 6b5b 043d
00000130: 2ba3 b93d e764 a73a 2b75 98bd 13c4 c63d
00000140: ba3a 533e 3b66 83bc 5d72 ee3d 1c08 2ebe
00000150: 3cb0 393d da98 5ebd d7e4 59bc 8bd9 d7bd
00000160: 2beb d0ba caad 63be 801a d83d ba89 9fbc
00000170: 6314 6a3b 9360 3e3e 025b 25be d1cc 52bc
00000180: 3a86 1d3e 78ee 333d a98f 643e 01ae 8fbd
00000190: db31 17be c724 38be 365c 243e 0774 d8bd
000001a0: 9704 3b3e c71c b03c 9c1b 06be 89fe b73d
000001b0: 98f7 41be cbfb cdbd fed0 b9bc f08b 2dbe
000001c0: 7b15 5e3c 4178 8e3d d1fd 523d 6c33 34be
000001d0: 4264 893d 8e74 553e ac34 5c3e 7d7f c23d
000001e0: ce6e f8bd 65f7 0a3e 3b37 38bd be8f 553e
000001f0: f53f a3bd 42d4 e43d df40 093d 7fd0 0f3d
00000200: bdca aebd 59da 5e3e 5ba0 343e 0722 e33d
00000210: 1638 353e b4a2 8abd 41db 783c 646e 0d3e
00000220: b9f6 98bd 33f3 c73d 4d0c 0abe 4857 f73d
00000230: 0e1f 37be d950 c73d 8ce9 a93d 5ba1 453d
00000240: c0a5 82bd 3372 e13d 6601 113e a064 293d
00000250: 3be0 573e 4a60 e4bd 370b f9bd 37b8 243b
00000260: a95e b93d 9a80 37be 6504 3bbd 984f 13be
00000270: 6418 17be c3ef 62be d7de a2bc bcf8 fc3d
00000280: 04de 66bd 4f2d 81bd e5ff 4d3e 8099 5a3e
00000290: 05bc 293e bc71 443e 7ec0 9d3d e1cd 5e3e
000002a0: 50f7 e03d d2c4 61be 04d3 12bd c43a fb3d
000002b0: 6a92 f83c bea4 a7bc 6fbe 9bbb 1c3c 3f3d
000002c0: 0a73 1cbe 44d4 1cbe 843a 03be 2a3f 133e
000002d0: 02a9 b8bd 5b0d b4bc 4a37 323e 8af5 b9bd
000002e0: 4efb 453e be36 03be 6158 fcbd 2fee 243e
000002f0: 6614 8fbd 9bf8 2bbe c839 8ebd a94c 20be
00000300: 0b22 10be e54a 1c3e b599 9bbd 779b 393d
00000310: d1de 9d3d 2e80 d43b d240 0abc be84 ef3d
00000320: 3daa 083e b5bf e9bd edc5 4abd a486 c03d
00000330: cdc3 9bbb 847e c53d 3b3e 6b3b 40a5 503e
00000340: 4e5d b33d 8905 343e f584 41be d6da 07be
00000350: 3ae5 503e deaa 93bd d66d 2ebe 8cdf cbbd
00000360: 4a38 0ebe f889 0bbc f5c8 e1bd f0cb ccbd
00000370: 03c5 c03d e392 09be b264 0f3e e3a3 90bc
00000380: 2634 06be a723 82bd 3277 a8bd b323 0abe
00000390: 30ee c13d 11d4 0b3d 4a71 393e a9be 2c3e
000003a0: 3521 283e 7fc8 cabc 8ff4 12bd da28 2dbe
000003b0: ec8f 31be 21ca f5bd 3301 17be 17bb a0bd
000003c0: 17fc 4cbe b161 00be ffdc c8bd a84a 113e
000003d0: ae9f 27be 5551 80bd 685c 38bd 281d b9bd
000003e0: 2287 93bd 49c5 f1bd 7ae8 043e 9a7d 0bbe
000003f0: 7425 de3d 1351 9a3d e943 03bd fc5f 523e

bias_ih_l0 f4 [80]
0.39082742 -0.003944745 -0.46865842 -0.22266924 -0.26762125 -0.84855276 -0.262394 0.13404179
-0.4243134 0.021377882 -0.04323965 0.05228541 0.30226767 -0.32135978 0.3718467 -0.20611286
-0.37290847 -0.14466482 -0.32060662 0.39789012 0.18613839 -0.15729539 0.16319476 0.13132913
0.06465326 -0.04939137 0.05878961 0.026219275 -0.065119185 -0.20268327 -0.13895057 0.06611076
-0.18437006 -0.06127259 -0.21813685 0.18212451 0.17065477 0.19362281 -0.07952684 0.021883382
0.08761065 -0.16918199 -0.15639874 -0.5064967 -0.26253605 -0.5058458 0.36049318 0.24899918
0.04140268 -0.18499348 0.7816014 -0.12647742 0.2230174 0.3121417 -0.13503882 0.52385724
-0.0786084 0.5144025 0.19198734 0.702715 -0.3462875 -0.16898552 -0.1973355 -0.118513286
0.13906133 0.063836865 -0.103661254 0.6203226 -0.06309612 0.2215682 0.1930354 0.22978981
0.077817224 -0.18907164 0.2710337 -0.011970251 -0.15737337 -0.30818364 -0.059856195 0.5461369
00000000: 881a c83e eb42 81bb fff3 efbe 6803 64be
00000010: a705 89be c13a 59bf 8258 86be 4042 093e
00000020: 9b3f d9be ab20 af3c 0f1c 31bd 3a29 563d
00000030: d4c2 9a3e 4589 a4be b162 be3e 400f 53be
00000040: dced bebe 0423 14be 8d26 a4be 41b8 cb3e
00000050: 109b 3e3e 0b12 21be 871c 273e 257b 063e
00000060: ee68 843d 9b4e 4abd 60cd 703d cec9 d63c
00000070: 355d 85bd 348c 4fbe 0f49 0ebe 1465 873d
00000080: 81cb 3cbe f8f8 7abd 445f 5fbe d97e 3a3e
00000090: 20c0 2e3e 0f45 463e f8de a2bd c744 b33c
000000a0: 366d b33d 0b3e 2dbe fe26 20be c5a9 01bf
000000b0: 206b 86be 1c7f 01bf 9092 b83e a4f9 7e3e
000000c0: db95 293d ee6e 3dbe 0817 483f 4c83 01be
000000d0: ac5e 643e 09d1 9f3e 9e47 0abe 821b 063f
000000e0: 71fd a0bd e2af 033f 5498 443e 21e5 333f
000000f0: 984c b1be 8a0a 2dbe 5112 4abe 18b7 f2bd
00000100: 1866 0e3e e7bc 823d 5a4c d4bd 76cd 1e3f
00000110: 8a38 81bd c6e2 623e 12ab 453e 054e 6b3e
00000120: a35e 9f3d ff9b 41be eec4 8a3e df1e 44bc
00000130: 7c26 21be 3fca 9dbe c52b 75bd a1cf 0b3f

bias_hh_l0 f4 [80]
0.3305171 -0.32838407 -0.1230494 -0.30877876 -0.16303425 -0.7948248 -0.45780206 0.20821372
-0.34218952 0.25352898 0.13059522 -0.023246063 0.2670107 -0.413785 0.08797192 -0.63733566
-0.094667114 -0.25188422 -0.10033078 0.3210009 -0.1704327 -0.21297033 0.013159618 -0.14934969
0.031492125 0.1578481 0.07274059 -0.080159545 0.037036736 0.15195715 0.041744027 0.04517564
0.024979105 0.22052963 0.095684566 -0.022994937 -0.002269519 -0.17292336 0.020594351 0.083277285
-0.0648022 -0.450423 -0.27347383 -0.4636833 -0.3158474 -0.85329586 0.53255457 0.090173766
0.0059750564 -0.29229558 0.69840574 -0.2997424 0.19196711 0.40263256 -0.10661757 0.6186722
0.27684003 0.2950436 0.1513673 0.86155874 -0.37912327 -0.14408854 -0.10501945 0.03438204
0.18566048 -0.16688557 -0.3813521 0.40041426 -0.30021736 0.4117271 0.4319936 0.14681531
-0.011220792 -0.1322849 0.2861293 -0.07404297 -0.32114625 -0.3166343 0.084044814 0.32199565
00000000: 8a39 a93e f521 a8be 5301 fcbd 4018 9ebe
00000010: 73f2 26be a379 4bbf 0865 eabe fa35 553e
00000020: 7733 afbe 8dce 813e c1ba 053e 876e bebc
00000030: a0b5 883e a1db d3be 9f2a b43d 6e28 23bf
00000040: d5e0 c1bd f8f6 80be 397a cdbd 3b5a a43e
00000050: e985 2ebe e514 5abe 709b 573c 20ef 18be
00000060: e3fd 003d efa2 213e 05f9 943d b02a a4bd
00000070: d5b3 173d a89a 1b3e c9fb 2a3d 180a 393d
00000080: fba0 cc3c 85d2 613e 45f6 c33d e15f bcbc
00000090: 36bc 14bb d212 31be 7cb5 a83c 488d aa3d
000000a0: 04b7 84bd d89d e6be c304 8cbe e667 edbe
000000b0: c0b6 a1be 9971 5abf 7f55 083f 06ad b83d
000000c0: 68ca c33b c4a7 95be b8ca 323f d677 99be
000000d0: 0793 443e db25 ce3e 505a dabd 4d61 1e3f
000000e0: fabd 8d3e f40f 973e 0800 1b3e 1d8f 5c3f
000000f0: 721c c2be f28b 13be 7014 d7bd 2fd4 0c3d
00000100: c81d 3e3e 0de4 2abe 9540 c3be 1903 cd3e
00000110: 17b6 99be e5cd d23e 442e dd3e c156 163e
00000120: 6ad7 37bc b175 07be 8a7f 923e d7a3 97bd
00000130: 486d a4be e41d a2be b01f ac3d 9ddc a43e

weight_ih_l0 f4 [40, 20]
0.9193478 -2.2439485 -1.4178627 1.0367378 -1.9836171 1.596236 -0.57366776 1.0703052
-0.29140082 0.87356883 0.8065174 1.3367083 0.42329398 -0.89527315 0.11884089 -1.6068218
-0.76341534 -0.24184187 0.04560204 0.29464117 -0.9933726 1.2888032 1.7900732 0.21297067
-0.11342351 4.2187514 1.2658457 -0.9272564 -0.89262736 -0.8940716 -1.0516962 0.97925216
-1.0781691 0.9137557 1.8425152 -1.7877686 -0.13038261 -0.35920197 2.4810681 0.012874131
-0.81756365 0.050788872 -0.0832261 -0.701268 0.1059312 5.319907 -0.40623933 -1.3708493
-0.46784723 -1.1868353 -1.2929988 0.8245365 0.11890758 -0.6405792 1.6140388 -0.30586672
-0.082267076 -2.6359653 0.16335528 -0.8473373 -0.8200468 -0.24230368 2.6998122 -0.41665176
-0.23567094 2.1800013 0.97880316 -1.7083194 0.63924086 -0.87243956 -0.9061194 -0.37212664
-0.7264127 0.2850059 1.8379554 -3.4048104 1.063875 -0.02145122 2.3460379 -0.19730757
-1.7620281 1.8060092 0.8046863 -0.14111306 0.48811585 -0.37773085 -0.7825189 -1.4115798
-2.1738093 -0.30005133 -1.3348638 1.01104 -1.5709407 -1.1437097 0.07345715 -0.7599223
1.3409292 0.24241002 0.6908695 0.38436 -0.48295075 -0.8637982 0.46593332 1.2022945
-2.016718 2.87389 -1.4251382 -0.5819204 -0.45933485 -0.23696074 -0.39723575 2.5282433
-0.08501525 -1.0457851 -0.56178474 -2.1167185 0.59453934 -0.77282965 -0.58147264 -1.5781308
1.6265343 -0.4352984 1.2596945 0.7695872 -0.015084232 0.10262842 -1.1053089 -1.7296463
1.5034121 -0.58981246 1.1023744 1.058202 1.1111817 -0.54162073 0.12808526 -1.1099781
-0.4531615 -0.96208966 0.23641008 0.5336737 1.5406752 -0.3947088 0.62600535 0.21912733
0.18815295 -0.13780567 -1.0428549 -0.22461805 -0.9772759 0.04603564 -3.0013647 -0.7144295
-0.52921224 0.41411373 -0.08629388 -0.52738523 1.1524069 0.22857565 0.7222754 1.3386859
-1.4225404 -0.39454734 0.8135399 -0.01630601 1.3123599 0.3419111 -0.3137633 -0.47783187
-0.7621741 -0.58344865 -1.0769141 0.48029783 -0.50591063 1.0014266 0.0056881187 -0.8998191
0.9332735 -0.7185521 -0.3925266 -1.0928705 -0.59988016 -2.2957277 0.065404035 3.8443823
-1.2201451 1.4178191 -0.034837462 -0.7386434 0.19237198 2.269233 -0.46876097 -1.4209105
0.24001077 0.33168006 0.3166425 -1.0130106 -1.6361341 -0.6437655 0.18992732 0.35410675
-0.29709557 -0.06367328 0.06923891 0.25411132 -0.12298035 -0.1550857 -0.008037137 0.23475929
0.17467777 0.08115408 0.19852285 0.26238918 0.12984906 -0.2354856 -0.22305387 -0.011269604
-0.29922315 0.045256574 0.25450823 0.31369525 0.03429835 0.11857535 -0.11543769 0.047000565
0.15375872 -0.22047225 -0.30782726 0.097436175 0.24299166 -0.17431498 -0.02105122 0.1186383
-0.1505633 0.112980545 0.25288093 0.21153848 -0.022288747 -0.035089124 -0.012329426 -0.06584582
0.15381779 -0.11617494 0.26614636 -0.15398705 -0.26134774 0.00142017 0.03557214 0.17726995
0.018236063 0.11445356 0.29319832 -0.2104442 -0.2692911 0.24357797 0.042077184 -0.20312381
00000000: 615a 6b3f da9c 0fc0 867c b5bf d3b3 843f
00000010: 2ae7 fdbf 7651 cc3f e4db 12bf c3ff 883f
00000020: 7d32 95be 35a2 5f3f ed77 4e3f 4219 ab3f
00000030: fdb9 d83e 9f30 65bf da62 f33d 56ac cdbf
00000040: 306f 43bf 65a5 77be 34c9 3a3d 35db 963e
00000050: ab4d 7ebf 81f7 a43f 1e21 e53f fc14 5a3e
00000060: 964a e8bd 0300 8740 3b07 a23f ad60 6dbf
00000070: 3a83 64bf e0e1 64bf fb9d 86bf 45b0 7a3f
00000080: 7201 8abf e5eb 693f 8ad7 eb3f 9ad5 e4bf
00000090: 0583 05be 52e9 b7be d2c9 1e40 05ee 523c
000000a0: da4b 51bf fe07 503d 7272 aabd 4d86 33bf
000000b0: 75f2 d83d ae3c aa40 9afe cfbe fd77 afbf
000000c0: ac89 efbe 38ea 97bf fc80 a5bf d314 533f
000000d0: d185 f33d 00fd 23bf d398 ce3f 909a 9cbe
000000e0: a47b a8bd a8b3 28c0 9b46 273e 19eb 58bf
000000f0: 96ee 51bf 751e 78be b9c9 2c40 6153 d5be
00000100: b953 71be 2485 0b40 d892 7a3f 36aa dabf
00000110: 4aa5 233f 3358 5fbf 71f7 67bf 6287 bebe
00000120: 2ff6 39bf 4bec 913e 1f42 eb3f 6ae8 59c0
00000130: 0e2d 883f 78ba afbc 7c25 1640 ff0a 4abe
00000140: 238a e1bf 4f2b e73f ecff 4d3f f17f 10be
00000150: 52ea f93e f065 c1be 2953 48bf a6ae b4bf
00000160: b11f 0bc0 54a0 99be d1dc aabf c269 813f
00000170: 9614 c9bf 1465 92bf b470 963d 458a 42bf
00000180: 91a3 ab3f 553a 783e d3dc 303f d5ca c43e
00000190: 5245 f7be e121 5dbf d08e ee3e c9e4 993f
000001a0: e811 01c0 d0ed 3740 ee6a b6bf bcf8 14bf
000001b0: f02d ebbe d6a5 72be 7c62 cbbe bdce 2140
000001c0: 7a1c aebd 49dc 85bf 20d1 0fbf 5178 07c0
000001d0: bb33 183f 2ad8 45bf 64db 14bf 3100 cabf
000001e0: 4732 d03f 6fdf debe ab3d a13f ab03 453f
000001f0: db23 77bc d92e d23d c37a 8dbf 0d65 ddbf
00000200: cf6f c03f f3fd 16bf 9b1a 8d3f 2a73 873f
00000210: 343b 8e3f a8a7 0abf c828 033e c313 8ebf
00000220: c904 e8be 824b 76bf 7c15 723e d79e 083f
00000230: d834 c53f 4617 cabe e341 203f ea62 603e
00000240: 2bab 403e ee1c 0dbe 457c 85bf 4602 66be
00000250: c12e 7abf de8f 3c3d 5c16 40c0 dae4 36bf
00000260: 747a 07bf b706 d43e d9ba b0bd b802 07bf
00000270: 1282 933f bc0f 6a3e 0ae7 383f 0f5a ab3f
00000280: ce15 b6bf 1c02 cabe 2744 503f 2e94 85bc
00000290: 69fb a73f f90e af3e 95a5 a0be 61a6 f4be
000002a0: d81d 43bf e45c 15bf 52d8 89bf 99e9 f53e
000002b0: 5c83 01bf bf2e 803f 6663 ba3b 8b5a 66bf
000002c0: 03eb 6e3f 08f3 37bf 3ff9 c8be 2ee3 8bbf
000002d0: bf91 19bf 34ed 12c0 8df2 853d 5c0a 7640
000002e0: b72d 9cbf 197b b53f bab1 0ebd bc17 3dbf
000002f0: 29fd 443e 1d3b 1140 7001 f0be 65e0 b5bf
00000300: 62c5 753e f8d1 a93e f71e a23e 55aa 81bf
00000310: d86c d1bf d1cd 24bf 4f7c 423e 7b4d b53e
00000320: e91c 98be 2367 82bd 21cd 8d3d e11a 823e
00000330: 1fdd fbbd c9ce 1ebe 32ae 03bc bd64 703e
00000340: bbde 323e 1c34 a63d 9349 4b3e e057 863e
00000350: 27f7 043e 2323 71be 3c68 64be 25a4 38bc
00000360: c733 99be f55e 393d e74e 823e aa9c a03e
00000370: 6d7c 0c3d a2d7 f23d 986a ecbd aa83 403d
00000380: ed72 1d3e 7ac3 61be 899b 9dbe 9e8c c73d
00000390: ced2 783e a07f 32be 9c73 acbc a3f8 f23d
000003a0: 442d 1abe 5862 e73d 9c79 813e 8b9d 583e
000003b0: e496 b6bc 9db9 0fbd 5c01 4abc 2cda 86bd
000003c0: 6982 1d3e 20ed edbd 5644 883e c8ae 1dbe
000003d0: 5fcf 85be ff24 ba3a 18b4 113d 4186 353e
000003e0: cc63 953c a166 ea3d 171e 963e af7e 57be
000003f0: 86e0 89be 816c 793e 2059 2c3d b0ff 4fbe

weight_hh_l0 f4 [40, 10]
-0.17632477 -0.03389887 0.23870993 0.1362795 0.16726154 0.28343704 -0.16017999 0.25368544
0.11096931 0.0971214 0.09782499 0.16492951 -0.05944474 -0.20832041 -0.1157597 0.24448858
-0.3099129 0.008374226 -0.13773157 -0.2883738 0.255316 -0.2179664 -0.26013586 -0.29581377
-0.18045902 -0.04583553 -0.019176006 0.22436765 -0.23070239 -0.25130472 -0.07563666 0.104757704
-0.21823397 0.18709555 -0.16008805 -0.04655136 0.083931915 0.18522464 -0.25298494 0.20741895
0.3092736 0.020625468 -0.10165616 -0.046783954 -0.15341876 0.28406549 0.1872485 -0.024104964
0.13571182 0.22612198 -0.0770813 -0.29561365 0.18885045 0.023027651 0.13908528 0.05341076
-0.08649473 -0.13874212 0.20891897 0.015476546 -0.2921186 -0.2749001 0.19105385 -0.31402797
-0.19444193 -0.123655245 0.1056085 -0.31009197 -0.026210433 -0.034731 -0.15890089 0.29659283
-0.108228534 0.3109738 0.27269056 0.116839044 0.29090047 0.07966428 -0.11308553 0.18249996
-0.10603847 0.17728733 -0.037344854 0.012566768 -0.0054850685 -0.08696406 0.20818508 0.1786589
0.09403196 0.08041261 0.2944986 -0.19454096 0.0422049 -0.19513182 0.25921163 0.15026516
-0.28481254 -0.27795902 0.13615163 0.029944161 -0.2869293 -0.24509917 -0.30085662 -0.16469477
0.17501184 -0.092081204 -0.011380962 0.061395686 0.060463924 0.19210628 0.15552144 0.22387156
0.08403245 0.10078592 0.288357 -0.25148603 -0.053955033 0.2472196 0.09138769 0.26585245
0.2384741 0.022741077 0.2370943 0.28751567 0.22367682 -0.28910753 0.03415438 -0.07108615
-0.18886077 0.064083844 -0.18404773 0.30102992 -0.16821796 0.15095271 -0.056865036 -0.21004
-0.14082712 0.14088264 0.3067345 -0.2735027 -0.10008313 0.027426472 -0.295349 -0.08536607
0.007736388 -0.046425 0.10934328 0.23637427 -0.15805802 0.048439354 -0.025410686 0.07908604
-0.006077406 0.23641239 0.17014234 0.28270736 -0.069026336 -0.2933152 -0.22790521 -0.21086453
-0.19224937 0.24696013 0.17102 -0.2214886 0.07928505 0.035060663 0.086166196 0.2744689
0.112361215 -0.27277154 -0.107801236 0.03407175 0.057039917 0.06558521 0.25073424 0.2636123
0.3059032 -0.19448276 -0.08393651 0.0668823 -0.27597702 0.09498718 -0.19457248 -0.011391592
-0.23374599 0.17163846 0.28965536 0.09946158 0.112140454 0.10081683 0.13479412 0.06421337
-0.17196503 0.20459223 -0.18485822 -0.06977523 0.22248355 0.06877832 0.25464553 -0.09553639
0.2286708 -0.025045512 0.027729446 0.26526964 -0.27781737 0.21009429 -0.052937698 0.24643165
0.22202504 -0.14067006 -0.23496972 -0.0059952633 -0.25772113 -0.24096057 -0.018006863 0.22976527
0.04193239 0.18077074 0.21697986 -0.2924456 0.2570636 -0.25667912 0.1850503 -0.11934577
0.044223554 -0.09050418 0.064798586 0.09082038 0.14365874 -0.07173492 0.2529005 0.25469527
0.14680488 -0.05740362 -0.3156558 0.10792522 -0.22838257 0.049320303 -0.25141898 -0.19299084
0.20780098 -0.09830299 0.2822796 -0.2653293 0.26886153 0.1947924 0.1362424 -0.13981384
0.30089125 -0.1575056 0.007066771 -0.14568613 -0.17422879 0.27345368 0.07087505 -0.024142813
00000000: 7b8e 34be 8bd9 0abd 6070 743e da8c 0b3e
00000010: 9c46 2b3e a91e 913e 3906 24be 0fe3 813e
00000020: e143 e33d 96e7 c63d 7858 c83d 48e3 283e
00000030: 547c 73bd f251 55be 6c13 edbd 375b 7a3e
00000040: e7ac 9ebe 0d34 093c 8109 0dbe bba5 93be
00000050: c7b8 823e 9532 5fbe 8730 85be e774 97be
00000060: 40ca 38be 09be 3bbd 0017 9dbc a2c0 653e
00000070: 3f3d 6cbe 03ab 80be 65e7 9abd 358b d63d
00000080: ba78 5fbe fa95 3f3e 1fee 23be a4ac 3ebd
00000090: 7fe4 ab3d 87ab 3d3e 3e87 81be a265 543e
000000a0: 1c59 9e3e bef6 a83c 1b31 d0bd 88a0 3fbd
000000b0: cf19 1dbe 0871 913e 12be 3f3e c677 c5bc
000000c0: 0af8 0a3e 858c 673e cddc 9dbd ac5a 97be
000000d0: 0362 413e 7ca4 bc3c 5f6c 0e3e 3ec5 5a3d
000000e0: 2624 b1bd 6a12 0ebe dbee 553e 5791 7d3c
000000f0: 9290 95be b5bf 8cbe 9fa3 433e 46c8 a0be
00000100: c91b 47be f63e fdbd 4549 d83d 60c4 9ebe
00000110: 43b7 d6bc 1842 0ebd eab6 22be 04db 973e
00000120: eca6 ddbd f537 9f3e 199e 8b3e 4f49 ef3d
00000130: e8f0 943e 0727 a33d 6399 e7bd 45e1 3a3e
00000140: b32a d9bd cf8a 353e ebf6 18bd d8e4 4d3c
00000150: 17bc b3bb 371a b2bd 782e 553e 5cf2 363e
00000160: d493 c03d 5eaf a43d 85c8 963e bf35 47be
00000170: 0cdf 2c3d a3d0 47be 63b7 843e 1cdf 193e
00000180: f3d2 91be a550 8ebe 556b 0b3e 754d f53c
00000190: 66e8 92be 47fb 7abe e109 9abe bfa5 28be
000001a0: 4e36 333e 1295 bcbd 3777 3abc 0b7a 7b3d
000001b0: 05a9 773d 82b7 443e 0341 1f3e 963e 653e
000001c0: 3519 ac3d d968 ce3d 87a3 933e c7c2 80be
000001d0: f4ff 5cbd 2327 7d3e 7829 bb3d d01d 883e
000001e0: 8e32 743e 7f4b ba3c d9c8 723e 4135 933e
000001f0: 890b 653e e705 94be 77e5 0b3d 9e95 91bd
00000200: b864 41be 643e 833d 0277 3cbe 9820 9a3e
00000210: 5441 2cbe 5993 1a3e 50eb 68bd ba14 57be
00000220: fc34 10be 8a43 103e 4e0c 9d3e 8c08 8cbe
00000230: 62f8 ccbd 7bad e03c fc37 97be 68d4 aebd
00000240: 8781 fd3b 2428 3ebd 5fef df3d 190c 723e
00000250: f6d9 21be 5868 463d 122a d0bc ddf7 a13d
00000260: fa24 c7bb 1716 723e cb39 2e3e 05bf 903e
00000270: ae5d 8dbd 692d 96be fc5f 69be dfec 57be
00000280: 05dd 44be 1ee3 7c3e de1f 2f3e e8cd 62be
00000290: 3360 a23d c59b 0f3d e777 b03d 3087 8c3e
000002a0: a31d e63d b6a8 8bbe e5c6 dcbd d28e 0b3d
000002b0: b0a2 693d 8a51 863d 3d60 803e 31f8 863e
000002c0: 589f 9c3e 7d26 47be e8e6 abbd 96f9 883d
000002d0: dc4c 8dbe a388 c23d 023e 47be cda3 3abc
000002e0: 1c5b 6fbe fec1 2f3e b54d 943e 83b2 cb3d
000002f0: e5a9 e53d 0e79 ce3d 7807 0a3e 4d82 833d
00000300: 9a17 30be a080 513e 794b 3dbe 51e6 8ebd
00000310: bad2 633e a6db 8c3d e660 823e 95a8 c3bd
00000320: ae28 6a3e 3f2c cdbc dd28 e33c 6cd1 873e
00000330: 143e 8ebe f522 573e 33d5 58bd 9458 7c3e
00000340: 885a 633e d00b 10be e79b 70be ea73 c4bb
00000350: 06f4 83be 5ebe 76be 2183 93bc 9647 6b3e
00000360: 4cc1 2b3d f71b 393e f82f 5e3e 6ebb 95be
00000370: d79d 833e 726b 83be d37d 3d3e 8e6b f4bd
00000380: c223 353d 415a b9bd 1fb5 843d 0900 ba3d
00000390: 471b 133e c2e9 92bd 2d7c 813e 6b67 823e
000003a0: 0554 163e 0f20 6bbd a39d a1be e607 dd3d
000003b0: 1fdd 69be 1604 4a3d fdb9 80be 649f 45be
000003c0: c8c9 543e 1453 c9bd f486 903e 3ed9 87be
000003d0: 38a8 893e a977 473e 2183 0b3e 5c2b 0fbe
000003e0: 6b0e 9a3e 2649 21be 5f90 e73b bf2e 15be
000003f0: 0869 32be 1f02 8c3e f026 913d 26c7 c5bc

bias_ih_l0 f4 [40]
0.28607118 0.6468489 0.14256363 -0.021944545 0.6851774 -0.3876866 1.0139726 0.98153967
-0.05629656 0.39652395 0.02090258 -0.06857031 0.19361474 0.23417766 -0.085758045 -0.21176945
0.016111292 -0.25922245 -0.051308043 0.06757337 0.28008085 0.27579737 0.35552326 0.81541914
-0.44734663 -0.035044204 0.7713286 -0.7431965 -0.3257995 0.05956883 0.33170682 0.4639764
0.5555282 -0.0037182965 1.2919402 -0.19079395 1.3254272 1.2998072 0.058012675 0.24638149
00000000: ec77 923e e497 253f 33fc 113e 0cc5 b3bc
00000010: c967 2f3f dc7e c6be dbc9 813f 2f46 7b3f
00000020: 3997 66bd 3005 cb3e e33b ab3c 976e 8cbd
00000030: f142 463e 45cc 6f3e eaa1 afbd 17da 58be
00000040: d4fb 833c ceb8 84be 6228 52bd e863 8a3d
00000050: c266 8f3e 5035 8d3e 2507 b63e 4fbf 503f
00000060: 9e0a e5be 838a 0fbd cb75 453f 2042 3ebf
00000070: 31cf a6be 72fe 733d 7ad5 a93e 518e ed3e
00000080: 1937 0e3f aaae 73bb 4c5e a53f 7d5f 43be
00000090: 99a7 a93f 1560 a63f b39e 6d3d 6e4b 7c3e

bias_hh_l0 f4 [40]
0.63807845 0.33305356 -0.20987736 -0.0037295748 0.9410307 -0.32884026 0.8817717 1.2185566
-0.14150597 0.89498204 0.020330789 0.2308281 0.210875 -0.13798757 -0.0988925 0.28235552
-0.098516434 -0.22483253 0.040674392 0.1512074 0.3930326 0.811719 0.2556866 0.5641543
-0.31115103 -0.45827198 0.56860405 -0.71859014 -0.3993527 0.12630834 0.39498723 0.22858725
0.7180365 -0.08692112 1.2208707 -0.59813833 1.3716553 0.8076149 0.21031664 0.3366889
00000000: 1c59 233f ff85 aa3e 17ea 56be e26b 74bb
00000010: 63e7 703f c05d a8be cabb 613f aaf9 9b3f
00000020: f1e6 10be 8b1d 653f c18c a63c 345e 6c3e
00000030: 9eef 573e 9d4c 0dbe 2788 cabd e790 903e
00000040: fcc2 c9bd 803a 66be 319a 263d 1dd6 1a3e
00000050: 923b c93e d1cc 4f3f 5be9 823e 6b6c 103f
00000060: 304f 9fbe a0a2 eabe 0990 113f 86f5 37bf
00000070: f577 ccbe f956 013e c43b ca3e c712 6a3e
00000080: 3dd1 373f b303 b2bd 7e45 9c3f 981f 19bf
00000090: 6792 af3f dabf 4e3f 3f5d 573e 7d62 ac3e

weight f4 [2, 10]
-1.7422076 3.059468 -1.2354773 -2.1306288 -0.89212674 -1.1518655 0.11158738 -0.6925707
-0.090101644 1.6067263 -0.39933693 0.004203896 0.15666242 0.44698697 -1.0068448 0.8726795
-1.722198 -1.8085799 1.9361507 -0.17581731
00000000: a900 dfbf 53ce 4340 1f24 9ebf 395c 08c0
00000010: 6b62 64bf 5470 93bf ed87 e43d 504c 31bf
00000020: 3687 b8bd 35a9 cd3f e475 ccbe d6c0 893b
00000030: 1d6c 203e 7adb e43e 4ae0 80bf ec67 5f3f
00000040: fc70 dcbf 8c7f e7bf c9d3 f73f 7409 34be

bias f4 [2]
0.077086456 0.23324473
00000000: 81df 9d3d b5d7 6e3e

weight_ih_l0 f4 [40, 2]
-0.635831 -0.3860682 -0.31587514 0.080879554 0.58842367 -0.9751798 0.7953895 5.166789
-0.3308987 -0.7488853 0.2298907 -1.6944423 -0.11642345 -1.0340062 1.0772622 2.2239153
-1.6372308 1.4974389 -0.84642696 1.6201428 0.31373602 0.20373894 0.2829228 0.16271962
0.122790955 -0.15269011 0.07167099 -0.14180404 -0.21892133 0.2966438 -0.21079908 0.089678265
0.0143924095 -0.08785775 -0.04455133 0.29214537 -0.050913844 0.050430715 0.29525864 -0.18518129
0.15583363 2.3904169 -0.54580045 0.6306471 0.9911814 -0.42134404 -0.12730683 0.78821373
0.22291704 -1.5144027 2.4035583 -0.41272 1.3762698 -0.64532894 -3.150543 0.16559988
-0.054583773 1.4931626 1.4055784 0.30739138 -0.86393327 2.3522544 -0.6224907 -0.055923637
0.6400374 -1.02711 0.25528815 2.6405983 -4.034802 -0.18334496 -0.8613353 0.84761447
0.91949785 0.36653775 1.5884274 1.4692461 -1.4009947 1.7752192 -0.19622028 0.11437757
00000000: d2c5 22bf bbaa c5be 63ba a1be 2ea4 a53d
00000010: efa2 163f 62a5 79bf a59e 4b3f 5656 a540
00000020: 8e6b a9be f2b6 3fbf 7868 6b3e 7ce3 d8bf
00000030: 6b6f eebd 515a 84bf bae3 893f a154 0e40
00000040: c790 d1bf 14ac bf3f 70af 58bf d760 cf3f
00000050: 02a2 a03e f1a0 503e 42db 903e f99f 263e
00000060: d379 fb3d cc5a 1cbe 3dc8 923d 1435 11be
00000070: ea2c 60be b2e1 973e b7db 57be 3da9 b73d
00000080: 24ce 6b3c c4ee b3bd 757b 36bd 1494 953e
00000090: 098b 50bd 7090 4e3d 242c 973e 2aa0 3dbe
000000a0: da92 1f3e 97fc 1840 94b9 0bbf 1772 213f
000000b0: 10be 7d3f 68ba d7be b95c 02be 60c8 493f
000000c0: 5d44 643e f3d7 c1bf e6d3 1940 0950 d3be
000000d0: 9c29 b03f 4734 25bf 7fa2 49c0 0493 293e
000000e0: 3c93 5fbd f41f bf3f fee9 b33f 6762 9d3e
000000f0: bb2a 5dbf 568b 1640 8d5b 1fbf 2f10 65bd
00000100: 7ed9 233f 5778 83bf 21b5 823e 90ff 2840
00000110: 191d 81c0 c8be 3bbe 7880 5cbf 43fd 583f
00000120: 3664 6b3f d6aa bb3e 9751 cb3f 4210 bc3f
00000130: cb53 b3bf 623a e33f f8ed 48be ca3e ea3d

weight_hh_l0 f4 [40, 10]
-0.127179 -0.1940694 -0.09029236 0.12114132 -0.07042713 -0.23057908 0.03229749 -0.18274212
-0.15584365 -0.18065573 0.243358 0.21763834 0.12848143 -0.0067655323 -0.24823102 -0.2368691
-0.26152876 -0.24799131 0.14047849 -0.3085167 -0.16356818 -0.23201418 -0.16555166 0.05599672
-0.16779937 -0.17296506 0.0050440854 0.11796197 -0.16271672 -0.10600786 -0.09698287 -0.18291089
-0.2770973 0.089351244 -0.27705777 -0.12672482 0.10999156 0.063313834 0.26692554 0.31271046
-0.13068767 0.08570207 -0.011529263 0.08617287 -0.30022764 0.07910158 -0.0033566041 0.11411395
0.27306587 0.2516021 0.002705195 -0.047397703 -0.30116796 -0.23118702 -0.23354638 0.30448478
0.16325708 -0.20614101 0.10115645 -0.24632192 -0.047121495 -0.31485546 0.1687498 -0.14863192
0.27144283 -0.06909464 0.21657027 -0.080049284 0.136779 0.25895986 0.02742293 -0.26749903
-0.041495893 -0.18212593 -0.19937553 0.071633175 -0.19058968 -0.22949094 0.12938055 0.027229203
-0.25929812 -0.30570158 -0.21520488 0.023173615 -0.008681836 -0.050163213 -0.073837 0.0033979958
-0.18352902 0.106293045 -0.016289564 -0.260653 -0.048241142 -0.10753611 -0.07556086 -0.031461816
-0.20919506 0.063166365 0.19979446 0.002010434 0.13456786 0.28971216 0.26887408 0.25511557
-0.012188626 -0.14900991 -0.29218465 -0.103898436 -0.06627835 -0.043475676 -0.14667761 0.048301835
0.16061227 -0.19647826 -0.024644978 0.06894385 -0.12726457 0.040293913 0.111286804 0.023116807
0.036099035 0.15775889 0.16096824 -0.12434367 -0.16408388 0.18694785 -0.119116455 -0.0044085467
-0.20973772 -0.08234841 -0.157975 0.07110345 0.14511472 -0.2708532 0.31290033 -0.15001152
0.13470666 0.13167685 -0.22476947 -0.08985423 0.12852569 0.019272286 -0.021246795 0.22602257
0.22230709 -0.25827867 0.28502226 0.13286628 -0.26598763 -0.27459088 0.27863336 0.08165063
-0.14555097 0.21274494 0.11409823 -0.13825503 0.11860927 -0.020837516 0.12645128 0.08776226
-0.19886638 -0.07591265 -0.16153227 -0.08924901 -0.17076804 -0.022432411 0.058924366 0.15812364
-0.16731708 -0.2158478 0.031195976 -0.010244728 0.20499875 -0.10333083 -0.19935317 -0.18243301
-0.11783832 -0.2907455 -0.21845661 -0.028203791 0.2751138 -0.10953007 -0.1321791 -0.2711203
-0.11150974 -0.27210134 0.12546498 0.2474077 -0.076793484 0.07075619 -0.17057732 -0.026392361
0.21783412 -0.017105257 -0.106151454 -0.24452993 0.19094795 -0.16732258 0.16488789 0.053525284
-0.17276931 -0.12281 0.19337223 -0.22765335 -0.042429164 0.22626711 -0.22850128 -0.12873319
0.28429678 0.22406588 0.16402444 0.2230435 -0.26596522 -0.2911827 -0.06259208 -0.30546832
-0.12167693 0.06884007 -0.20896126 0.11531917 0.25398988 -0.049659543 -0.14374718 -0.2198809
0.064987525 -0.30014822 0.1757405 0.29750174 0.05897812 0.0798574 0.25830385 -0.120831266
0.24402837 -0.018391753 -0.025072806 0.15430424 -0.28517964 -0.039231867 -0.30826622 -0.15370421
0.10209228 -0.045592003 -0.0580234 -0.081892304 0.075541854 -0.015005858 0.017107558 -0.059821974
0.086375795 -0.051617615 -0.092789195 0.09056279 -0.27175352 -0.24619257 0.23545386 -0.29968524
00000000: 363b 02be 21ba 46be 33eb b8bd f118 f83d
00000010: 193c 90bd ec1c 6cbe 5f4a 043d c020 3bbe
00000020: 7a95 1fbe d1fd 38be d732 793e 96dc 5e3e
00000030: a390 033e 66b1 ddbb 4630 7ebe d08d 72be
00000040: 19e7 85be 6ff1 7dbe 98d9 0f3e e7f5 9dbe
00000050: 6b7e 27be 2095 6dbe 6086 29be d15c 653d
00000060: 99d3 2bbe c11d 31be db48 a53b 0c96 f13d
00000070: 369f 26be a61a d9bd f49e c6bd fe4c 3bbe
00000080: b3df 8dbe c9fd b63d 84da 8dbe 27c4 01be
00000090: 4143 e13d afaa 813d 77aa 883e 961b a03e
000000a0: fdd2 05be 9184 af3d 3ce5 3cbc 677b b03d
000000b0: 70b7 99be 0200 a23d 79fa 5bbb 93b4 e93d
000000c0: 4acf 8b3e fed1 803e a449 313b 1824 42bd
000000d0: b032 9abe 4abc 6cbe c826 6fbe 6ee5 9b3e
000000e0: dd2c 273e a116 53be 1d2b cf3d d03b 7cbe
000000f0: 7802 41bd bc34 a1be bfcc 2c3e f732 18be
00000100: 8efa 8a3e 7e81 8dbd 99c4 5d3e e1f0 a3bd
00000110: cb0f 0c3e 6396 843e 0da6 e03c a2f5 88be
00000120: 99f7 29bd 387f 3abe 1929 4cbe 6ab4 923d
00000130: f129 43be acff 6abe 567c 043e c70f df3c
00000140: b9c2 84be eb84 9cbe ab5e 5cbe 98d6 bd3c
00000150: 423e 0ebc f177 4dbd da37 97bd e9b0 5e3b
00000160: 08ef 3bbe 2bb0 d93d b171 85bc 4f74 85be
00000170: 8198 45bd e43b dcbd a7bf 9abd 1bde 00bd
00000180: 3b37 56be 5e5d 813d eb96 4c3e 7cc1 033b
00000190: 28cc 093e 2755 943e dda9 893e 829e 823e
000001a0: ceb2 47bc 0e96 18be 3a99 95be b4c8 d4bd
000001b0: f2bc 87bd 8d13 32bd a832 16be 25d8 453d
000001c0: 8b77 243e 9931 49be 44e4 c9bc 6f32 8d3d
000001d0: a551 02be 3b0b 253d 56ea e33d 755f bd3c
000001e0: 95dc 133d 8c8b 213e dcd4 243e e5a7 febd
000001f0: 9b05 28be 426f 3f3e 54f3 f3bd 9275 90bb
00000200: 7cc5 56be 48a6 a8bd 33c4 21be b09e 913d
00000210: f498 143e 45ad 8abe 7934 a03e 9f9c 19be
00000220: 8bf0 093e 4cd6 063e f829 66be 7f05 b8bd
00000230: 3d9c 033e eae0 9d3c c20d aebc 7672 673e
00000240: 78a4 633e 1a3d 84be 70ee 913e 190e 083e
00000250: 882f 88be 2d97 8cbe 08a9 8e3e 7238 a73d
00000260: 500b 15be cfd9 593e 55ac e93d ba92 0dbe
00000270: 6be9 f23d 70b3 aabc 727c 013e b3bc b33d
00000280: a1a3 4bbe 1778 9bbd b768 25be 2fc8 b6bd
00000290: d1dd 2ebe 2dc4 b7bc ad5a 713d 2aeb 213e
000002a0: 2b55 2bbe 3507 5dbe b48e ff3c 81d9 27bc
000002b0: 31eb 513e 1d9f d3bd 3d23 4cbe b8cf 3abe
000002c0: 3855 f1bd 98dc 94be 17b3 5fbe a30b e7bc
000002d0: b7db 8c3e 4d51 e0bd f559 07be 48d0 8abe
000002e0: 385f e4bd de50 8bbe e479 003e 7258 7d3e
000002f0: e745 9dbd 9fe8 903d d2ab 2ebe cb34 d8bc
00000300: e80f 5f3e 5320 8cbc ef65 d9bd 0e66 7abe
00000310: dc87 433e 9c56 2bbe 5fd8 283e 543d 5b3d
00000320: 70ea 30be cf83 fbbd 5f03 463e f61d 69be
00000330: 34ca 2dbd 91b2 673e 3dfc 69be a2d2 03be
00000340: 598f 913e 8771 653e 06f6 273e 8465 643e
00000350: 982c 88be e615 95be 4730 80bd 5866 9cbe
00000360: c131 f9bd 06fc 8c3d f1f9 55be 752c ec3d
00000370: f60a 823e ce67 4bbd 7632 13be 7528 61be
00000380: 2e18 853d 07ad 99be 51f5 333e 2652 983e
00000390: 0b93 713d 478c a33d 6740 843e 6276 f7bd
000003a0: 93e2 793e 4daa 96bc 7c65 cdbc ee01 1e3e
000003b0: 1103 92be 98b1 20bd 12d5 9dbe a364 1dbe
000003c0: c215 d13d aebe 3abd f2a9 6dbd 27b7 a7bd
000003d0: b0b5 9a3d 21db 75bc 2625 8c3c e307 75bd
000003e0: cbe5 b03d fe6c 53bd 4308 bebd fc78 b93d
000003f0: 4723 8bbe e819 7cbe d11a 713e 5870 99be

bias_ih_l0 f4 [40]
0.89301914 0.12336362 0.75483656 0.48931873 0.55919427 2.7072701 1.598082 -0.14628285
1.2038469 2.9009826 -0.29770252 -0.12307995 -0.28432047 -0.18312751 0.16416603 -0.22370663
0.0627074 -0.14664946 -0.13461727 0.24790359 0.7623361 -0.52837145 -1.0230062 -0.88531226
-0.9617531 -0.6447664 -0.18525328 -0.37303558 -0.97762203 1.1293898 1.643884 -0.22853681
1.4065537 -0.07566105 0.76858115 1.8502033 1.7037597 -0.049191575 2.124709 4.180162
00000000: e79c 643f 11a6 fc3d f83c 413f fc87 fa3e
00000010: 5b27 0f3f ea43 2d40 f38d cc3f 2ccb 15be
00000020: a817 9a3f b3a9 3940 776c 98be 5711 fcbd
00000030: 7492 91be c785 3bbe 241b 283e 5a13 65be
00000040: bd6c 803d 472b 16be 1cd9 09be 70da 7d3e
00000050: 7528 433f 5a43 07bf def1 82bf d3a3 62bf
00000060: 7335 76bf 690f 25bf 09b3 3dbe 85fe bebe
00000070: 7045 7abf d88f 903f ca6a d23f 8e05 6abe
00000080: f409 b43f 2ef4 9abd bcc1 443f 76d3 ec3f
00000090: cc14 da3f 1b7d 49bd 3bfb 0740 e3c3 8540

bias_hh_l0 f4 [40]
1.0019145 0.20437048 1.0664519 0.35563862 0.73222286 2.8023849 1.9997693 -0.09647273
0.98158556 2.9211004 0.14526106 -0.30398256 -0.24812502 -0.16049232 -0.049572874 -0.27330586
-0.021201482 -0.104680695 -0.3009204 -0.0712179 0.8417117 -0.59468174 -1.0565796 -0.9758157
-0.5643293 -0.20553553 -0.5742807 -0.769155 -0.6883631 1.321631 1.994415 -0.24121135
0.85308576 -0.17541315 0.7949214 1.3957033 2.0490322 0.1818936 2.3685043 4.6944814
00000000: bc3e 803f 7f46 513e 7f81 883f 4416 b63e
00000010: f572 3b3f 465a 3340 71f8 ff3f 7f93 c5bd
00000020: 3149 7b3f 4ff3 3a40 51bf 143e 9aa3 9bbe
00000030: 7c14 7ebe 1958 24be ed0c 4bbd bfee 8bbe
00000040: bbae adbc d562 d6bd 3d12 9abe b1da 91bd
00000050: 6b7a 573f 103d 18bf 003e 87bf 0fcf 79bf
00000060: e377 10bf e877 52be 0f04 13bf 58e7 44bf
00000070: 9038 30bf 342b a93f fe48 ff3f 1c00 77be
00000080: d463 5a3f 819f 33be f87f 4b3f 68a6 b23f
00000090: 5823 0340 5142 3a3e 9395 1740 3139 9640

weight_ih_l0 f4 [80, 10]
1.7516639 -0.18478239 0.018011317 0.04509587 0.37063426 1.5304682 -0.045463495 -1.8519056
4.0310307 4.8566356 4.669156 -3.293819 -2.0061996 -0.15893948 -0.40917253 0.39424282
-0.6285345 0.81498796 1.0205971 0.7631687 3.0497901 0.9738527 -1.5780253 -1.7175953
2.8471076 -0.63420594 -2.1812565 3.4246643 0.22998466 -0.42804196 -1.2469728 1.6871859
0.58623743 -1.0255928 -0.7631048 -0.25776213 0.34512237 2.1331847 0.85286736 -2.7633328
0.21880202 0.64041895 -1.3873962 1.4254334 0.5376615 -1.4542373 -0.68984556 0.28865552
-0.85598874 -2.761719 1.330657 0.17736697 0.52821386 3.4976387 0.75018424 -1.2955164
-2.299683 -1.0986204 0.937236 -0.7112784 -2.7439256 0.7205935 1.2864947 -0.2913104
0.00090020866 2.3375266 3.2863722 0.10445353 -2.0914183 0.8929097 -1.0065367 -1.6128551
-0.85884976 0.67886406 2.1693645 -2.8199015 -1.1663827 -0.14803201 0.03794125 0.28690404
0.16988905 1.0467755 0.1487654 0.9469091 0.12637483 -0.17762467 -0.73475355 -0.63326097
0.5624083 1.0423112 1.6877431 -1.056614 -1.8671234 -1.8898275 4.2486396 2.6205366
0.9879546 -2.0320697 1.8579395 -0.47056216 -1.8726966 1.8849112 1.5399905 2.4586995
-0.28777733 1.1119388 1.1735008 -0.42828265 -0.12531537 1.5015796 -0.77094376 0.22977561
1.547066 0.5021009 -0.27710935 -0.029416434 0.24700384 0.7438497 -0.76308113 -0.41508058
0.041148476 0.13129315 0.64821714 -1.4007181 -0.22356422 -0.050559085 0.4343757 0.3735442
-0.569067 0.19341937 0.012296391 -0.48432985 -0.11013887 0.34316733 1.9246861 1.207346
0.08972156 1.1489668 0.11400696 0.33582786 -0.20074204 0.52451754 -1.1807297 0.26912692
0.40047103 0.27630392 -2.303532 -1.1214004 -0.1400656 -1.223243 -0.6311668 0.4440697
1.4580172 1.4733721 0.41958284 0.5764231 -0.27628756 -0.1418328 -0.03122539 0.49049106
-1.520532 1.6018571 1.2060616 1.4135069 -0.121360414 0.31338826 -0.26163733 1.1803944
1.4348474 -0.9843146 -1.3280017 -1.768912 -0.19473572 -0.20300353 1.0982171 0.49455222
-0.053311322 0.44601473 -1.3266369 -0.7790111 1.6780058 -3.6913168 1.9425387 -0.49170262
1.2301683 0.11209378 -2.186647 1.0698787 1.0749434 3.412381 -0.21067297 -0.12058894
1.3538358 -2.2117825 -1.555913 -0.7018361 -0.5304782 0.039155554 -0.8553639 -0.7627562
-0.19465451 0.19734834 0.16096352 -0.07598692 0.06272777 0.21070817 0.21493378 -0.1647559
0.08558199 0.10681081 -0.015819034 0.0011454886 0.06495981 0.20271046 0.13182728 0.07649938
0.17403829 0.18724091 0.12620838 -0.0008624551 -0.1720283 -0.0024375585 0.039594833 0.150176
0.0223207 0.068853825 0.18204561 -0.025481304 0.119565226 -0.1663354 -0.1752162 0.109619126
0.17961396 0.15939778 0.10192098 0.014324805 -0.03492771 0.12857546 0.013022739 -0.064873256
0.10304362 0.04565233 -0.22113195 -0.043252517 -0.0565009 0.14545994 0.20126666 0.07688664
-0.00022375053 0.01878814 -0.05055104 -0.18517043 0.17560005 0.10095448 0.043305777 -0.10344543
00000000: 8636 e03f 9837 3dbe 788c 933c 72b6 383d
00000010: c6c3 bd3e 62e6 c33f ee37 3abd 3e0b edbf
00000020: 34fe 8040 8f69 9b40 ba69 9540 eecd 52c0
00000030: 9365 00c0 08c1 22be 107f d1be 32da c93e
00000040: a3e7 20bf 0da3 503f eda2 823f 065f 433f
00000050: c32f 4340 694e 793f bcfc c9bf 2ada dbbf
00000060: 0337 3640 525b 22bf b599 0bc0 b32d 5b40
00000070: 1981 6b3e 5128 dbbe ce9c 9fbf b5f5 d73f
00000080: a813 163f a046 83bf d65a 43bf 66f9 83be
00000090: e1b3 b03e 1986 0840 8455 5a3f 72da 30c0
000000a0: a30d 603e 7ff2 233f 3396 b1bf 9a74 b63f
000000b0: 2fa4 093f 7324 babf b899 30bf a8ca 933e
000000c0: 1422 5bbf 01c0 30c0 f852 aa3f b09f 353e
000000d0: 0639 073f 50d9 5f40 130c 403f 7bd3 a5bf
000000e0: 022e 13c0 989f 8cbf b3ee 6f3f 5716 36bf
000000f0: 7a9c 2fc0 d178 383f dcab a43f a326 95be
00000100: fbfb 6b3a 099a 1540 ec53 5240 bbeb d53d
00000110: ccd9 05c0 bb95 643f 32d6 80bf 0972 cebf
00000120: 94dd 5bbf 09ca 2d3f ded6 0a40 4479 34c0
00000130: 074c 95bf b495 17be 4968 1b3d 16e5 923e
00000140: 65f7 2d3e bdfc 853f f555 183e a368 723f
00000150: 6768 013e 3ee3 35be cf18 3cbf 641d 22bf
00000160: fef9 0f3f 746a 853f f707 d83f 213f 87bf
00000170: e6fd eebf dee5 f1bf dbf4 8740 dfb6 2740
00000180: 98ea 7c3f 6e0d 02c0 f6d0 ed3f 86ed f0be
00000190: 86b4 efbf c544 f13f 691e c53f 555b 1d40
000001a0: 8d57 93be 0354 8e3f 4635 963f dd47 dbbe
000001b0: ac52 00be c333 c03f 925c 45bf 4c4a 6b3e
000001c0: 4206 c63f af89 003f 47e1 8dbe bcfa f0bc
000001d0: 93ee 7c3e ef6c 3e3f 4959 43bf 7185 d4be
000001e0: 4e8b 283d b671 063e 8ff1 253f bb4a b3bf
000001f0: 05ee 64be 0b17 4fbd 7e66 de3e 2f41 bf3e
00000200: 60ae 11bf ba0f 463e cd76 493c 15fa f7be
00000210: 7d90 e1bd a1b3 af3e 1d5c f63f 508a 9a3f
00000220: f0bf b73d 5811 933f 7b7c e93d a1f1 ab3e
00000230: 528f 4dbe c846 063f 2722 97bf 01cb 893e
00000240: 8a0a cd3e b577 8d3e 116d 13c0 0c8a 8fbf
00000250: 5b6d 0fbe 3a93 9cbf 2694 21bf 1b5d e33e
00000260: 4fa0 ba3f 7597 bc3f 90d3 d63e 7790 133f
00000270: 9075 8dbe 9e3c 11be 64cc ffbc a521 fb3e
00000280: cba0 c2bf a709 cd3f 3a60 9a3f cbed b43f
00000290: cf8b f8bd 6d74 a03e 54f5 85be 2a17 973f
000002a0: 14a9 b73f 0bfc 7bbf f6fb a9bf b56b e2bf
000002b0: cd68 47be 28e0 4fbe 6192 8c3f f335 fd3e
000002c0: f95c 5abd 0b5c e43e 3dcf a9bf 456d 47bf
000002d0: e5c8 d63f 893e 6cc0 1ca5 f83f 72c0 fbbe
000002e0: 2876 9d3f 6c91 e53d 06f2 0bc0 c9f1 883f
000002f0: bf97 893f 7364 5a40 a8ba 57be 56f7 f6bd
00000300: 7e4a ad3f d88d 0dc0 2828 c7bf 88ab 33bf
00000310: 6bcd 07bf 9361 203d 21f9 5abf fe43 43bf
00000320: 8353 47be af15 4a3e 9fd3 243e 089f 9bbd
00000330: 6b77 803d e2c3 573e 9a17 5c3e c5b5 28be
00000340: 9c45 af3d a0bf da3d eb96 81bc 3824 963a
00000350: a609 853d 5593 4f3e bbfd 063e b5ab 9c3d
00000360: 1837 323e 15bc 3f3e c53c 013e 6216 62ba
00000370: 3028 30be 72bf 1fbb 312e 223d bdc7 193e
00000380: e7d9 b63c 3c03 8d3d 2a6a 3a3e 2bbe d0bc
00000390: 9dde f43d d453 2abe e06b 33be fe7f e03d
000003a0: b9ec 373e 2c39 233e f2bb d03d 96b2 6a3c
000003b0: 5c10 0fbd 49a9 033e 545d 553c 45dc 84bd
000003c0: 8908 d33d f0fd 3a3d 6a70 62be 8d29 31bd
000003d0: 7d6d 67bd 73f3 143e d918 4e3e be76 9d3d
000003e0: 939e 6ab9 96e9 993c 9b0e 4fbd 519d 3dbe
000003f0: 80d0 333e 39c1 ce3d 6661 313d 33db d3bd
