VAE/AE3/model.pth (torch, 49386 bytes, 20 tensors)

weight_ih_l0 f4 [80, 41]
0	0xbe4e1b2c	-0.20127553
1	0xc00267d5	-2.0375874
2	0x3db376d2	0.087628976
3	0xbca0558f	-0.019572048
4	0xbef2079f	-0.4727144
5	0x3f24a49a	0.6431366
6	0xbd3de403	-0.046360027
7	0xbe5c5086	-0.21515092
8	0xbd5baf52	-0.053633995
9	0xbf345c84	-0.7045367
10	0x3daa1cc7	0.0830627
11	0xbf114dac	-0.5675914
12	0x3c1cd88e	0.009573115
13	0xbde81c5c	-0.11333534
14	0xbe7a31bd	-0.24433036
15	0x3e46b832	0.19406202
16	0xbeaba281	-0.33522418
17	0xbe0ff9a5	-0.14060076
18	0x3ee198e2	0.44061953
19	0xbd64e1f4	-0.05587955
20	0xbca65aec	-0.020307027
21	0xbf5b9754	-0.85777783
22	0xbf0173e8	-0.50567484
23	0x402f19c3	2.7359474
24	0xbf02bf9b	-0.51073617
25	0x3e8c9a13	0.274613
26	0xbd230f17	-0.039809313
27	0xbea7167c	-0.32634342
28	0x3fd7fef9	1.6874686
29	0xbf4f42b1	-0.8096114
30	0x3f0ccf54	0.5500386
31	0xbea127f0	-0.31475782
32	0x3fe135f5	1.7594591
33	0x400c1933	2.189038
34	0xbe137812	-0.14401272
35	0xbd9feb19	-0.07808513
36	0x3e1ce596	0.15321955
37	0x3dfc1a24	0.123096734
38	0x3efaf90f	0.49018142
39	0x3e26a402	0.16273502
40	0x3f3e8e63	0.74436015
41	0x3e87a3b5	0.26492086
42	0x3ebb622c	0.36598337
43	0xbf5ed227	-0.8703942
44	0xbd815dc2	-0.06316711
45	0x3dca2225	0.09869794
46	0xbdf89c88	-0.12139231
47	0x3d9e077f	0.077162735
48	0x3e3c37be	0.18380639
49	0x3d7c6fa9	0.061629925
50	0x3f3b8a3f	0.7325782
51	0x3dbab0aa	0.09115727
52	0xbebe789c	-0.37201393
53	0x3e2309a9	0.15921654
54	0xbd566468	-0.05234185
55	0x3e8e6baf	0.2781653
56	0x3ed07887	0.40716955
57	0x3e011bd2	0.12608269
58	0x3ead7eec	0.33885896
59	0xbd180995	-0.037118513
60	0x3e1074ae	0.1410701
61	0xbdeaaf80	-0.11459255
62	0x3fb6009d	1.4218937
63	0x3f2fd163	0.68678874
64	0x3ee1ad00	0.440773
65	0x3e1fbf53	0.15600328
66	0xbe60e4dd	-0.21962304
67	0x3f992f88	1.196763
68	0x3f9b3b47	1.2127465
69	0xbe0f099e	-0.13968512
70	0x3f6b5803	0.9193117
71	0x3fd14450	1.6348972
72	0xbf316414	-0.6929333
73	0x3f6ab4e2	0.91682255
74	0x3e076076	0.1322039
75	0x3f24d400	0.64385986
76	0x3f06ce80	0.52658844
77	0x3ff36feb	1.901853
78	0x3eb3b901	0.35102084
79	0xbeb8da68	-0.3610413
80	0x3f05323a	0.52029765
81	0x3f08bf72	0.5341712
82	0x3f4235bc	0.7586324
83	0xbeaeab3d	-0.3411502
84	0x3f01bc88	0.506783
85	0x3efb8261	0.4912291
86	0x3ca34564	0.019930549
87	0xbea8dca7	-0.32980844
88	0xbeaecf72	-0.34142643
89	0x3ca8ea42	0.020619515
90	0xbe6aba7b	-0.22922699
91	0xbd04d87a	-0.03243301
92	0xbd0e5559	-0.034749363
93	0x4047f529	3.1243384
94	0xbcfb3810	-0.030666381
95	0x3d9cb16b	0.07651027
96	0x3e9b0668	0.30278325
97	0x3e63471a	0.22195092
98	0xbe5f8d6b	-0.2183129
99	0x3cdcbbbf	0.026944993
100	0x3f7cc17d	0.9873274
101	0xbd12a009	-0.035797153
102	0x3d67aa73	0.056559037
103	0x3e22a3d4	0.15882808
104	0xbf346830	-0.7047148
105	0xbe87f6bc	-0.2655543
106	0x3aaa7c37	0.001300699
107	0x3cd179b1	0.025570722
108	0x3e932bac	0.28744256
109	0x3e862721	0.26201728
110	0x3e8fa1db	0.28053173
111	0x3f46df06	0.77684057
112	0x3fe4680f	1.7844256
113	0x3e71030b	0.23536317
114	0x3eb3591a	0.35028917
115	0x3f5880a7	0.8457131
116	0x3e7c5808	0.24642956
117	0xbdab3e31	-0.083614714
118	0x3f4edfc7	0.8081021
119	0xbe1463df	-0.14491223
120	0x3dca44a2	0.09876372
121	0x3f30bbb3	0.69036406
122	0x3f906295	1.1280085
123	0x3ddb2249	0.10699899
124	0x3f2499ce	0.6429719
125	0xbfda6549	-1.706216
126	0xbe87a080	-0.2648964
127	0xbf8d89e9	-1.1057712
128	0x3e53dfe8	0.20690882
129	0xbd8d9ac4	-0.06914285
130	0x3e4cba14	0.19992858
131	0x3d724b6a	0.05915395
132	0xbde4cec2	-0.111722484
133	0xbcd88b1c	-0.02643352
134	0xbe754bd0	-0.23954701
135	0x3ea4e306	0.32204455
136	0xbe8713e3	-0.2638236
137	0x3e42656c	0.18984002
138	0x3dbeea60	0.09322047
139	0x3e23b608	0.15987408
140	0x3ea7a169	0.32740334
141	0xbe765ced	-0.24058886
142	0xbb78bb9d	-0.0037953623
143	0x3e074894	0.1321128
144	0x3eb123e6	0.345977
145	0xbe9d89d7	-0.30769226
146	0xbf088c95	-0.5333951
147	0xbf219af5	-0.6312707
148	0xbec0f9e1	-0.37690642
149	0xbf4d694f	-0.80238813
150	0xbf394945	-0.72377425
151	0xbeb1a49c	-0.346959
152	0xbf78dbb3	-0.97210234
153	0x3de10664	0.10987547
154	0x3e992604	0.29911816
155	0x3fb803df	1.4376181
156	0x3f48dcaa	0.78461707
157	0xbf878795	-1.0588251
158	0x3fd54946	1.6662986
159	0xbdca6cc4	-0.09884027
160	0xbe112b0b	-0.14176576
161	0xbf30dbf8	-0.69085646
162	0xbf18a84f	-0.5963182
163	0x3f3d697f	0.739891
164	0xbebb60a1	-0.3659716
165	0xbfddcfdc	-1.7329059
166	0xbe6ef4e9	-0.23335613
167	0x3d476837	0.04868337
168	0xbf56fad6	-0.83976495
169	0x3e9a7718	0.30168986
170	0xbd518f2e	-0.051161937
171	0x3d98dc3d	0.07463882
172	0x3d03cd9f	0.032178517
173	0x3ee577a9	0.44817856
174	0x3f024d83	0.50899523
175	0x3f630cf7	0.8869166
176	0xbdae6213	-0.085148
177	0x3ea59e21	0.32347205
178	0x3e8609bf	0.2617931
179	0x3e95de62	0.29271227
180	0x3e9126da	0.28349954
181	0x3f193aa0	0.5985508
182	0x3f0364ee	0.5132588
183	0x3e492d8d	0.19646282
184	0xbe1c0c13	-0.15238981
185	0x3fb77fa8	1.4335833
186	0xbf82afa9	-1.0209857
187	0xbf69a176	-0.91261995
188	0x3f1701f7	0.58987373
189	0xbe0a8b52	-0.13529709
190	0x3fea4101	1.8301088
191	0x40379e29	2.8690283
192	0x3f15c928	0.58510065
193	0xbde15a6c	-0.11003575
194	0x3f3921a3	0.7231695
195	0x3ed5335e	0.41640753
196	0x3f861d2c	1.0477653
197	0x3f05aaed	0.5221394
198	0x3f80e1ae	1.0068872
199	0xbe8da019	-0.27661207
200	0x3f4e0fbf	0.80492777
201	0xbf0026dd	-0.500593
202	0x3e2e9121	0.1704755
203	0x3ed15c2a	0.40890628
204	0x3f4e0d0f	0.80488676
205	0xbeca8b28	-0.39559293
206	0x4009ca91	2.1529887
207	0x3f54b61b	0.8309037
208	0xbd31513b	-0.043290358
209	0xbf0538fa	-0.52040064
210	0xbdef1c4d	-0.1167532
211	0xbcca7399	-0.024713324
212	0xbe4dd1da	-0.20099583
213	0xbd78fb95	-0.060786802
214	0xbfbbf2b9	-1.4683448
215	0xbec5c661	-0.38627914
216	0x3effadbf	0.49937245
217	0xbec89ff9	-0.3918455
218	0xbe0a415e	-0.13501498
219	0xbe494824	-0.19656426
220	0xbecb0504	-0.39652264
221	0x3e036963	0.1283317
222	0x3d564029	0.05230728
223	0xbec73f1a	-0.3891533
224	0xbdbebfec	-0.0931395
225	0xbe0c6f7b	-0.13714401
226	0xc0203dcf	-2.5037725
227	0x3f53d723	0.8275015
228	0xbfa8c45b	-1.3184923
229	0x3ee1b469	0.44082955
230	0xbe8769f7	-0.26448032
231	0xbed99904	-0.42499554
232	0xbf4aac56	-0.79169214
233	0xbe970cdd	-0.29502
234	0x3f2a9321	0.6663075
235	0x3f775605	0.9661563
236	0x3f3dc877	0.7413401
237	0x3ecd94c9	0.40152577
238	0x3f2e6ea8	0.681376
239	0x3cda3f2d	0.026641453
240	0x3fa928a5	1.3215529
241	0x3e0512bc	0.12995428
242	0xbf468f77	-0.7756266
243	0xbd582368	-0.05276814
244	0xbd459c9f	-0.04824507
245	0x3dac1f68	0.08404428
246	0xbe9ac74d	-0.3023018
247	0x3f780d49	0.9689527
248	0x3f84d14d	1.0376374
249	0xbe9dfcd3	-0.30856952
250	0xbe845d49	-0.2585242
251	0xbf31a42a	-0.6939112
252	0x3e2d6a97	0.16935192
253	0x3d34d4c1	0.04414821
254	0x3e8fca5f	0.28084084
255	0xbf0d8bd0	-0.5529146

weight_hh_l0 f4 [80, 20]
0	0x3e3dff3e	0.18554398
1	0x3dfcfdf3	0.123531245
2	0xbd3fe66a	-0.0468506
3	0x3e16b7ae	0.14718506
4	0x3dee5072	0.116364375
5	0xbc497aef	-0.012297376
6	0xbd76e183	-0.06027366
7	0x3c85424b	0.016266963
8	0xbda3ea34	-0.08003655
9	0x3e48c544	0.19606501
10	0xbda7c392	-0.08191599
11	0x3e044ea8	0.1292063
12	0xbdb3f616	-0.087871715
13	0xbb41c810	-0.002956871
14	0x3e22818b	0.15869729
15	0x3e5aa35e	0.21351382
16	0xbe632d92	-0.22185352
17	0xbe07f384	-0.13276488
18	0xbd588a15	-0.05286606
19	0x3e4e3d77	0.20140634
20	0x3daeab76	0.08528797
21	0x3e5bd970	0.21469665
22	0x3e107e76	0.14110741
23	0x3e3bd0bd	0.18341346
24	0xbe3d6460	-0.18495321
25	0xbb918a42	-0.0044415304
26	0xbe5ae998	-0.21378171
27	0x3cd29ba0	0.025708973
28	0x3dea0055	0.114258446
29	0xbe06b7f4	-0.1315611
30	0x3bc193bd	0.0059075044
31	0xbe4133f9	-0.18867482
32	0xbe3da669	-0.18520512
33	0x3dab1864	0.083542615
34	0xbda780b3	-0.08178844
35	0xbe0bc09e	-0.13647696
36	0xbd6b5e1f	-0.057462808
37	0xbd410a06	-0.0471287
38	0xbd81d45b	-0.06339332
39	0x3dc15f06	0.094419524
40	0xbd93d732	-0.072187796
41	0x3e4705e2	0.19435838
42	0xbe0d01da	-0.13770238
43	0xbe3550f5	-0.17706664
44	0x3e3ba451	0.183244
45	0xbddea395	-0.108710445
46	0xbcd09b82	-0.025464777
47	0xbe33d2b3	-0.17560844
48	0xbe3fd04c	-0.18731803
49	0xbd6731ac	-0.056443855
50	0xbe550a40	-0.20804691
51	0x3dbf1048	0.09329277
52	0x3e088412	0.13331631
53	0x3e0f78d6	0.14010939
54	0x3da32cbd	0.079675175
55	0xbe5ae4d4	-0.21376354
56	0x3c2b15dd	0.010442224
57	0x3e5100b6	0.20410427
58	0xbdb4fc2b	-0.0883716
59	0xbbcd3228	-0.0062620826
60	0x3e62b1b6	0.22138104
61	0x3ddccb7b	0.10780998
62	0x3d8f6c03	0.070030235
63	0xbe2dada0	-0.16960764
64	0xbd732a34	-0.05936642
65	0xbc90c1bd	-0.017670507
66	0x3e1720ae	0.1475856
67	0xbce89567	-0.028391553
68	0x3e58555e	0.21126315
69	0x3dc8ee77	0.098111086
70	0xbe26586b	-0.16244666
71	0xbdf8af49	-0.12142808
72	0xbe0726fb	-0.13198464
73	0x3e2a189a	0.16610947
74	0xbc19fc6d	-0.009398562
75	0x3e2d4908	0.1692239
76	0x3e3aa6da	0.18227711
77	0xbe5eb92d	-0.21750326
78	0x3e1f8d1f	0.15581177
79	0x3dc3053c	0.09522483
80	0xbe57dbb9	-0.21079911
81	0x3e0d7aa0	0.13816309
82	0xbe0727f0	-0.13198829
83	0x3d1c9909	0.038231883
84	0xbe53404a	-0.20629993
85	0xbc5304d5	-0.01287957
86	0xbe51eb5a	-0.20499936
87	0xbdbb466a	-0.0914429
88	0x3e3646a3	0.17800383
89	0xbd10a7c6	-0.03531625
90	0xbcab64f7	-0.020922167
91	0xbdb4c7bb	-0.08827158
92	0xbb022c1f	-0.0019862724
93	0xbcf59840	-0.029979825
94	0x3db789d0	0.089618325
95	0x3e5642f1	0.20923974
96	0x3e0a8bc3	0.13529877
97	0x3e153f5d	0.14574952
98	0x3e1ba1b7	0.15198408
99	0xbda7c2b4	-0.081914335
100	0xbd263921	-0.040581826
101	0xbcee62d3	-0.029099857
102	0xbe1e1c7c	-0.15440553
103	0xbe19d8e6	-0.15024146
104	0x3d8f1c41	0.06987811
105	0xbda6702a	-0.08126862
106	0xbe226a20	-0.15860796
107	0xbdddbbfc	-0.10826871
108	0xbe262e50	-0.16228604
109	0xbe384cc1	-0.1799803
110	0xbcefb430	-0.029260725
111	0xbd6ef1f5	-0.058336217
112	0x3e03c977	0.12869821
113	0xbe09b296	-0.13447031
114	0xbd46096b	-0.048348825
115	0xbdcfea89	-0.10152156
116	0x3d8d7824	0.06907681
117	0xbcb1c348	-0.021699563
118	0xbe25652a	-0.16151872
119	0xbdb9cc6c	-0.090721935
120	0x3d85cfae	0.065337524
121	0xbe587782	-0.21139339
122	0xbe5eb10b	-0.21747224
123	0xbd8161b0	-0.063174605
124	0x3de3f238	0.11130184
125	0xbca48e67	-0.020087434
126	0x3ddfc027	0.10925322
127	0xbcbe6291	-0.02324036
128	0xbde471d4	-0.111545235
129	0x3e417dd7	0.1889566
130	0xbe46d4b6	-0.1941708
131	0x3e2b1380	0.16706657
132	0x3df57f7c	0.11987206
133	0x3de2dae8	0.11076909
134	0xbbb83c0a	-0.0056223916
135	0x3d74b424	0.059742108
136	0x3ddf0554	0.10889688
137	0x3ce1f5a0	0.027582943
138	0x3dab0acb	0.08351668
139	0x3d2ef1fb	0.04271124
140	0x3cecce8b	0.028907081
141	0xbe42f30a	-0.19038025
142	0xbbc0da5e	-0.0058854064
143	0xbe31a38f	-0.17347549
144	0x3d547c12	0.051876135
145	0xbc8be71a	-0.017077971
146	0xbdb35f40	-0.08758402
147	0xbd39f8b6	-0.045403205
148	0xbae0b09d	-0.0017142479
149	0xbddf579d	-0.10905383
150	0xbe011a44	-0.12607676
151	0xba9faa6d	-0.0012181528
152	0xbdd74a88	-0.105122626
153	0xbe532423	-0.20619254
154	0x3e58a400	0.21156311
155	0xbe2fa9ad	-0.1715457
156	0xbddbb745	-0.10728315
157	0x3d598791	0.0531078
158	0xbd878e32	-0.066189185
159	0x3e049751	0.12948348
160	0xbe4ab22e	-0.19794533
161	0x3e0eb176	0.13934883
162	0xbdb001a3	-0.08594062
163	0x3d28a1a4	0.041169778
164	0x3ccc38b9	0.024929391
165	0xbe42ae1b	-0.19011728
166	0x3e530f43	0.2061129
167	0x3d005ea7	0.031340268
168	0xbe081c50	-0.1329205
169	0xbd66a648	-0.056310922
170	0x3d0e7da6	0.034787796
171	0x3e2d5d3d	0.16930099
172	0x3e5dd212	0.21662167
173	0xbd8bd162	-0.06827046
174	0x3dfbbd85	0.12292007
175	0xbcca25d3	-0.02467624
176	0x3dafd682	0.08585836
177	0x3d50d7a1	0.05098689
178	0x3e215391	0.15754534
179	0xbd9d1605	-0.076702155
180	0xbe64e5f7	-0.2235335
181	0xbdb7a045	-0.08966116
182	0xbe59f593	-0.21285085
183	0x3d91b6e9	0.071149655
184	0xbe3904bc	-0.18068212
185	0xbdd6bf28	-0.10485679
186	0xbd88545a	-0.06656714
187	0x3dc0003a	0.09375043
188	0xbe56a4ee	-0.20961353
189	0x3e0c5971	0.13705994
190	0x3e2f8ad5	0.17142804
191	0x3e624991	0.22098376
192	0x3d4d0561	0.050053958
193	0x3e262ee2	0.16228822
194	0x3e1132b0	0.14179492
195	0xbe2df312	-0.16987255
196	0x3cdb392b	0.026760658
197	0x3d3b9a36	0.045801364
198	0xbd958210	-0.07300198
199	0xbcc90001	-0.024536135
200	0x3e49cca7	0.19706975
201	0x3dc1ca74	0.09462443
202	0x3e5bb813	0.21456937
203	0x3dbbd07e	0.09170626
204	0xbdce1c74	-0.10064021
205	0xbd95b495	-0.07309834
206	0x3dee2d21	0.116297014
207	0xbddf74da	-0.109109595
208	0xbd9feeda	-0.07809229
209	0xbe278c99	-0.16362227
210	0x3cb57608	0.022151008
211	0x3e0f74fe	0.14009473
212	0xbe0a8999	-0.13529052
213	0x3d9ddf40	0.07708597
214	0xbdfc824b	-0.12329539
215	0x3dbebd08	0.093133986
216	0x3de239a8	0.11046153
217	0xbe532335	-0.20618899
218	0x3e53c306	0.20679864
219	0xbdcfc0d9	-0.10144205
220	0xbcda8c7d	-0.026678318
221	0xbe1b9289	-0.15192617
222	0xbe593fb3	-0.21215706
223	0x3e14f127	0.14545117
224	0xbdbb99d2	-0.09160198
225	0x3e5b13f6	0.21394333
226	0x3c7cfed0	0.015441611
227	0x3e57695f	0.2103629
228	0xbe0c2edf	-0.13689755
229	0xbd9cd138	-0.07657093
230	0xbe5e99e4	-0.21738392
231	0xbdf7ce36	-0.120998785
232	0x3e5e49e7	0.21707879
233	0x3e0a11f0	0.13483405
234	0xbe489c79	-0.1959094
235	0xbe625f0c	-0.2210657
236	0xbdb92066	-0.09039383
237	0xbe488764	-0.19582897
238	0xbe503699	-0.20333327
239	0x3d1a60a8	0.037689835
240	0x3df101ac	0.11767897
241	0xbe57ce4f	-0.21074794
242	0xbdf9b9c5	-0.12193636
243	0x3e5530e2	0.20819429
244	0x3d31174d	0.043235112
245	0xbe1d0188	-0.15332615
246	0xbd8f7c7a	-0.07006164
247	0xbe0eaadc	-0.13932365
248	0xbe1ccbe8	-0.15312159
249	0xbc4d961c	-0.012547996
250	0x3ddfa885	0.109208144
251	0xbde59efc	-0.112119645
252	0x3e134b18	0.14384115
253	0xbe04218a	-0.12903419
254	0x3e3e4524	0.18581063
255	0xbdb96a8d	-0.09053526

bias_ih_l0 f4 [80]
0	0xbe580be3	-0.21098284
1	0x3d94e4c3	0.07270195
2	0x3f234ae7	0.63786167
3	0xbecaa40e	-0.3957829
4	0x3c339f96	0.010963341
5	0xbc5e40a7	-0.013565219
6	0xbdee5e5f	-0.116390936
7	0xbe96a809	-0.29425076
8	0x3dc3d15e	0.09561418
9	0x3f1a048d	0.60163194
10	0xbea8fbe6	-0.33004683
11	0x3e896070	0.26831388
12	0x3f2b206f	0.66846365
13	0xbda73b59	-0.081656165
14	0xbda7aa88	-0.08186823
15	0x3f15cfa7	0.5851998
16	0x3ef16919	0.47150496
17	0x3f14e6fd	0.5816496
18	0xbc367a56	-0.011137566
19	0x3df79180	0.12088299
20	0xbe0add0b	-0.13560884
21	0xbe5e498e	-0.21707746
22	0x3df1f0f9	0.1181354
23	0xbdc90391	-0.09815133
24	0x3d58e769	0.052955065
25	0x3e3d78b6	0.18503079
26	0xbdcb5769	-0.099287815
27	0xbc542cff	-0.012950181
28	0xbe635c2c	-0.2220313
29	0x3e3cb8f0	0.18429923
30	0xbd459b6f	-0.048243936
31	0xbdd32f06	-0.103117034
32	0x3d8f6954	0.070025116
33	0xbe5e8b7c	-0.21732897
34	0x3d079182	0.03309775
35	0x3e4a3ab2	0.19748953
36	0x3e513a7a	0.20432463
37	0x3e64f927	0.22360669
38	0x3db0c74a	0.08631761
39	0x3e403508	0.1877023
40	0xbe0a3976	-0.13498482
41	0xbf06efa4	-0.5270941
42	0x3e06e0f0	0.13171744
43	0x3d9221d1	0.07135356
44	0x3e08a35a	0.13343564
45	0xbd8a88cc	-0.06764373
46	0x3e17cb69	0.14823689
47	0xbdeb40a0	-0.114869356
48	0x3ee42033	0.44555816
49	0x3f024025	0.50879127
50	0xbe5e43ac	-0.21705502
51	0x3e9364fd	0.28787985
52	0xbeee80c9	-0.4658263
53	0xbeac2a62	-0.33626086
54	0xbe89f448	-0.26944184
55	0xbef0d13e	-0.4703464
56	0xbee15912	-0.44013268
57	0xbd5218a4	-0.05129303
58	0xbe57bc43	-0.2106791
59	0x3ed1aa93	0.4095045
60	0x3e2fa467	0.17152558
61	0x3f5285ec	0.822356
62	0x3e3b24d9	0.18275775
63	0xbedbf8ff	-0.42963406
64	0xbe8473d8	-0.25869632
65	0xbe4ef76a	-0.20211568
66	0x3e880183	0.26563653
67	0x3ec29359	0.38003042
68	0x3e87e96c	0.26545274
69	0x3eebfa27	0.4608929
70	0xbe444569	-0.19167103
71	0xbe971bce	-0.295134
72	0x3d80df6d	0.06292615
73	0xbe90052c	-0.28128946
74	0xbe68392d	-0.22678061
75	0x3edbd614	0.42936766
76	0x3f80c29b	1.0059389
77	0x3e6da608	0.23207867
78	0xbeabb046	-0.33532923
79	0x3ed542e2	0.4165259

bias_hh_l0 f4 [80]
0	0x3e032cfd	0.1281013
1	0x3e110af2	0.14164332
2	0x3f338829	0.7012964
3	0xbf02e956	-0.5113729
4	0x3d037083	0.03208972
5	0xbe8701f0	-0.26368666
6	0xbe1d67af	-0.15371583
7	0xbe25f1d8	-0.16205537
8	0x3ea4d02b	0.3219007
9	0x3f015a03	0.5052797
10	0xbda16d21	-0.07882143
11	0xbcaf4c0c	-0.021398567
12	0x3f30f021	0.6911641
13	0xbd530325	-0.05151667
14	0xbb812c94	-0.0039420817
15	0x3f284799	0.6573425
16	0x3ea2444b	0.31692728
17	0x3f5043e3	0.81353587
18	0xbd664f88	-0.05622819
19	0x3e406fd8	0.18792665
20	0x3e1be68b	0.15224664
21	0x3d8e2d58	0.069422424
22	0x3e0ab1dc	0.1354441
23	0xbe2f4886	-0.17117509
24	0x3e05169b	0.12996905
25	0xbe167e0c	-0.1469652
26	0xbd94b86d	-0.07261739
27	0xbe263be2	-0.16233781
28	0x3d25430c	0.040347144
29	0x3e2c43f1	0.16822793
30	0xbd1e75ef	-0.03868669
31	0x3c2b4d8b	0.010455499
32	0x3e3776b8	0.17916381
33	0xbe160863	-0.14651637
34	0x3d3b4bba	0.045726515
35	0x3e3b39dc	0.1828379
36	0x3e5b6062	0.21423486
37	0xbdbbebe2	-0.091758505
38	0x3cf6e533	0.030138588
39	0xbe3417cd	-0.17587204
40	0xbe5c03d6	-0.21485838
41	0xbedf77b9	-0.4364603
42	0xbe48d19d	-0.19611211
43	0x3e653e19	0.2238697
44	0x3e9065fe	0.28202814
45	0x3e8bd449	0.27310398
46	0xbe840aab	-0.2578939
47	0xbe02f129	-0.12787308
48	0x3ea7d691	0.3278089
49	0x3e90410a	0.2817462
50	0xbdcd8043	-0.100342296
51	0x3ed506fb	0.41606888
52	0xbef03f55	-0.46923319
53	0xbd98b524	-0.07456425
54	0xbe9e08d2	-0.30866104
55	0xbf2d1fa2	-0.6762639
56	0xbe72ba06	-0.23703775
57	0x3eb85f65	0.3601028
58	0xbe450407	-0.19239818
59	0x3ee26499	0.44217375
60	0x3df71a72	0.12065591
61	0x3f656fd0	0.8962374
62	0x3e70257d	0.234518
63	0xbefe9a59	-0.49727133
64	0xbcd665cb	-0.026171586
65	0xbe94e01d	-0.29077235
66	0x3ddd53be	0.10806988
67	0x3e1b39ee	0.15158817
68	0x3e215731	0.15755917
69	0x3eeb0aa4	0.45906556
70	0x3e15125f	0.1455779
71	0xbee11f16	-0.4396903
72	0x3e1c54ed	0.15266772
73	0xbe0f0c81	-0.13969614
74	0xbea0b841	-0.31390575
75	0x3f1bf413	0.609193
76	0x3f2eb48b	0.68244237
77	0x3ed24a98	0.41072536
78	0xbf2369c8	-0.63833284
79	0x3e7e5a6a	0.24839178

weight_ih_l0 f4 [40, 20]
0	0x3fdcd7ca	1.7253354
1	0x3fc3b977	1.5290974
2	0xbee860c9	-0.4538634
3	0xbf1ed5cc	-0.6204498
4	0xbef3f546	-0.47648066
5	0xbf0b7906	-0.5448154
6	0xbe6df4ca	-0.23237911
7	0xbf28d659	-0.6595207
8	0x3da21d5a	0.079157546
9	0x3f8a9040	1.0825272
10	0x3f6ad7af	0.9173536
11	0x3efd9434	0.49527133
12	0x3e922c93	0.28549632
13	0x3faf9037	1.3715886
14	0xbf1f77d7	-0.62292236
15	0x3d0df1a8	0.03465429
16	0x40042e5a	2.065329
17	0xbf441bac	-0.76604724
18	0x3f6e1259	0.92996746
19	0xbe9f462f	-0.31108233
20	0x3f19c809	0.60070854
21	0xbf4a399f	-0.7899417
22	0xbfb5f360	-1.4214897
23	0xbf21f2e6	-0.6326126
24	0x3e5053b5	0.20344432
25	0x3d8fdc73	0.07024469
26	0x3f99fbd2	1.2029974
27	0xbf842bbf	-1.032585
28	0xbee62768	-0.4495194
29	0xbd64d1c8	-0.055864125
30	0xbf3ca0bc	-0.7368276
31	0x3f75f8a1	0.960825
32	0xbf1a2376	-0.6021036
33	0x3ea10103	0.31446084
34	0xbf1afcf8	-0.6054225
35	0xbfa47395	-1.2847773
36	0x3f465eee	0.774886
37	0x3eb30aa1	0.34969047
38	0x3fb1c719	1.3888885
39	0xbe2a2ad0	-0.16617894
40	0x3fc1c3c3	1.5137867
41	0x3e1f5d51	0.15562941
42	0xbf784cf8	-0.96992445
43	0xbfea4af2	-1.8304121
44	0xc00c6a87	-2.194002
45	0xbdb2cfa6	-0.08731012
46	0x3f0d0475	0.55084926
47	0xbf34e359	-0.70659405
48	0xbd3aaf6f	-0.045577463
49	0xbe180a4e	-0.14847681
50	0x400f9b0d	2.2438385
51	0x3f72c3a9	0.94829804
52	0x3e69cd93	0.22832327
53	0x3f0e2bc0	0.5553551
54	0xbf887f5c	-1.0663867
55	0xbf2e9b5c	-0.6820581
56	0x3fda6b11	1.7063924
57	0x3e2bc110	0.16772866
58	0x3bcdea4d	0.0062840343
59	0xbe985d7f	-0.29758832
60	0x3cab1e5e	0.020888504
61	0xbf9e9d95	-1.239184
62	0x3d3d2938	0.046181887
63	0xbf001cb0	-0.50043774
64	0xc00004f0	-2.0003014
65	0xbf48f8ed	-0.7850483
66	0x3ee49c8e	0.44650692
67	0x3e034446	0.12819013
68	0x3f86042e	1.0470026
69	0xbd895504	-0.067056686
70	0x3e10d611	0.1414416
71	0xbf0f5f74	-0.56005025
72	0xbfb8501b	-1.4399446
73	0xbfdff5bc	-1.7496867
74	0x3e3af5c4	0.18257815
75	0xbe8ea10c	-0.27857244
76	0xbdd8e4cb	-0.10590514
77	0x3f30ec33	0.6911041
78	0x3fcb9870	1.5905895
79	0xbea975eb	-0.33097777
80	0xbdd79b71	-0.10527695
81	0xbe31b39d	-0.17353673
82	0xbf83c1ee	-1.0293558
83	0xbeaa3471	-0.33243135
84	0xbfa278a3	-1.2693065
85	0xbf85ff48	-1.0468531
86	0x3f24e219	0.644075
87	0x3e9edaf6	0.3102643
88	0xbec60487	-0.3867533
89	0xbf8c5d89	-1.0966045
90	0x3f3c19b3	0.73476714
91	0x3dd31fe6	0.103088185
92	0xbf4f8630	-0.8106413
93	0x3ed63b5e	0.4184217
94	0xbed9df97	-0.42553398
95	0xbf2bd0d0	-0.671155
96	0x3e3114c5	0.17293079
97	0x3f146fad	0.57982904
98	0x3fe8b74a	1.8180935
99	0xbf9097ec	-1.1296363
100	0x3fbd986a	1.4812138
101	0xbe9cd507	-0.30631277
102	0xbf91eeeb	-1.1401037
103	0xbfdb75ee	-1.7145364
104	0xbed9c585	-0.42533508
105	0xbf1398d4	-0.5765507
106	0x3ef3f6a8	0.4764912
107	0x3eb3462a	0.35014468
108	0xbf00fcf5	-0.5038598
109	0xbf3ba5b0	-0.73299694
110	0xbece23b3	-0.4026161
111	0x3ecbe065	0.39819637
112	0x3eadd411	0.33950856
113	0x3f8a75c9	1.0817195
114	0xbf624e24	-0.88400483
115	0xbf893b8e	-1.07213
116	0xbfcf919a	-1.6216309
117	0x3cd0722d	0.025445068
118	0x400d4d0c	2.2078276
119	0xbd6f154e	-0.058369927
120	0xbee66c7b	-0.4500464
121	0xbf462131	-0.77394396
122	0xbe3d2aec	-0.18473405
123	0xbf5851ae	-0.84499633
124	0xbf319581	-0.6936875
125	0xbf0ed1e7	-0.55789036
126	0x3f394366	0.72368467
127	0x3f562298	0.83646536
128	0x3efb8755	0.49126688
129	0x3f5fa5f8	0.87362623
130	0x3f278082	0.6543046
131	0xbfa318c9	-1.2741939
132	0xbfc5027f	-1.5391387
133	0xbf7520ed	-0.95753366
134	0x3f187ee7	0.5956864
135	0x3f57d347	0.8430676
136	0x3dd433f0	0.10361469
137	0xbf0cb374	-0.54961324
138	0x3f35c503	0.7100374
139	0xbf2e7d15	-0.6815961
140	0x3efa20d7	0.4885318
141	0xbedacacb	-0.42732844
142	0xbfddac5f	-1.7318228
143	0x3ee217e2	0.44158846
144	0x3f854cf6	1.0414112
145	0x3e64b8d6	0.22336134
146	0xbf3c9eca	-0.7367979
147	0x3f33c14e	0.70216835
148	0x3e8ccaba	0.27498418
149	0xbf590cc4	-0.84785104
150	0x3f49e3fe	0.78863513
151	0x3f225971	0.63417727
152	0xbf50708b	-0.81421727
153	0x3ea8a173	0.32935676
154	0xbf5d5bd5	-0.8646825
155	0x3e0006dd	0.12502618
156	0x3ed7e86e	0.42169517
157	0xbf82935e	-1.0201223
158	0x3f526c88	0.82196856
159	0xbf3117e1	-0.6917706
160	0x3fa94770	1.3224926
161	0xbeaf81b5	-0.34278646
162	0xbf5c13ba	-0.859676
163	0xbe07066e	-0.13186046
164	0x3dbae8f8	0.091264665
165	0xbe28d8e6	-0.1648899
166	0xbcbd0076	-0.023071509
167	0x3f3bccf6	0.7335962
168	0xbe1a4fd5	-0.15069516
169	0x3de2a2e8	0.11066228
170	0x4025725d	2.5851052
171	0x3f87de11	1.0614644
172	0x3f771e08	0.965302
173	0x3f7e9944	0.99452615
174	0xbedaa275	-0.4270207
175	0x3f8aa9c4	1.0833058
176	0x3ec46b5e	0.38363165
177	0xbee520dd	-0.44751635
178	0x3f3b34e5	0.73127586
179	0xbf4b849d	-0.79499227
180	0x3e9d0115	0.30664888
181	0xbf2bff65	-0.67186576
182	0x3e684855	0.22683842
183	0xbff136c0	-1.8844833
184	0xbf3617c7	-0.7113003
185	0xbf50ec94	-0.8161099
186	0x3efa85cd	0.48930207
187	0x3e89f963	0.2694808
188	0xc05bbec9	-3.4335196
189	0x3ce737ca	0.028224844
190	0x3e02dd40	0.12779713
191	0xbe7cda31	-0.24692608
192	0x3fdf7466	1.7457397
193	0x3e3f44c8	0.18678582
194	0x3dea44db	0.114389144
195	0x3e2aa3d4	0.16664058
196	0x3dce7b9b	0.100821696
197	0xbfadbfa4	-1.3574109
198	0x3f5d812c	0.86525226
199	0xbdbf397f	-0.093371384
200	0xbe8d4b80	-0.27596664
201	0xbda03325	-0.07822255
202	0x3daaa650	0.08332503
203	0xbd92137f	-0.07132625
204	0x3e582bee	0.21110508
205	0xbc5a4c3f	-0.013323843
206	0x3decd4b0	0.115640044
207	0xbd80a868	-0.06282121
208	0x3d6b6449	0.057468686
209	0xbc90756a	-0.017634112
210	0x3e7f3b3f	0.24924944
211	0xbd5b5e56	-0.053556763
212	0xbe34ecc6	-0.17668447
213	0x3e84c0b7	0.2592828
214	0x3d9f41d3	0.07776227
215	0x3e69e77f	0.22842215
216	0x3e29fbe5	0.16599996
217	0x3e94837b	0.29006562
218	0xbe78ccdb	-0.24296896
219	0xbe7ae62d	-0.24501868
220	0x3e97a997	0.29621574
221	0xbe96c37c	-0.29446018
222	0x3ea10ba0	0.31454182
223	0xbe3e80c6	-0.1860381
224	0x3e37a225	0.17932947
225	0xbd31f47c	-0.04344605
226	0x3e4ab395	0.19795068
227	0x3caff001	0.021476747
228	0xbe0eb5f6	-0.139366
229	0xbd91356c	-0.070902675
230	0x3e3d6318	0.18494833
231	0x3e959a0e	0.29219097
232	0xbe80c330	-0.25148916
233	0x3e59c8b7	0.21267973
234	0x3d060730	0.0327217
235	0xbe1a592c	-0.15073079
236	0x3e82919c	0.25501716
237	0xbe972cca	-0.2952636
238	0x3d93a50b	0.07209214
239	0xbd577c1d	-0.052608598
240	0x3d13a890	0.036049426
241	0xbe52a300	-0.20569992
242	0xbe28b03e	-0.16473481
243	0xbe0a4fc4	-0.1350699
244	0xbe2893d2	-0.16462639
245	0xbe938185	-0.28809753
246	0xbc31f7b9	-0.010862284
247	0xbcc08cb7	-0.023504598
248	0xbd249a24	-0.040186062
249	0x3e56c4c6	0.209735
250	0xbe3da557	-0.18520103
251	0xbe9d6078	-0.30737662
252	0x3ea0f249	0.3143485
253	0x3e8c854e	0.27445453
254	0xbe8b1cee	-0.2717051
255	0xbe132802	-0.1437073

weight_hh_l0 f4 [40, 10]
0	0xbe60fc8a	-0.21971336
1	0xbe346846	-0.17617902
2	0x3e896236	0.26832741
3	0x3dd862ce	0.105657205
4	0x3e86025d	0.26173678
5	0xbc5cb9a2	-0.013471993
6	0x3e8cf41c	0.2752999
7	0xbdfcd678	-0.12345594
8	0x3e3b1c0f	0.18272422
9	0xbdc55cae	-0.09636818
10	0x3e94a72e	0.29033798
11	0xbe07f166	-0.1327568
12	0x3e43cbda	0.19120732
13	0x3e61dcc9	0.22056879
14	0x3e1770e2	0.14789155
15	0xbe018cb6	-0.12651333
16	0xbe21f00e	-0.1581423
17	0x3dacafc1	0.0843196
18	0xbe5b13f1	-0.21394326
19	0x3e58f99b	0.21188967
20	0xbd2b2075	-0.041779
21	0xbe890e48	-0.26768708
22	0xbc7edfc0	-0.015556276
23	0x3e430fd5	0.19049008
24	0x3e439b72	0.19102266
25	0xbdef1cd2	-0.11675419
26	0x3e813c82	0.25241476
27	0xbe880186	-0.26563662
28	0x3e84bb25	0.2592403
29	0x3e8a7169	0.2703965
30	0xbe633e44	-0.22191721
31	0xbe787d28	-0.24266493
32	0xbe9a302f	-0.30114886
33	0x3d970944	0.07374814
34	0xbd5d4a81	-0.05402613
35	0xbdb41e0a	-0.08794792
36	0x3e6d4d8a	0.2317411
37	0xbe995a13	-0.29951534
38	0xbdbed06f	-0.09317099
39	0xbe042368	-0.12904131
40	0x3e50fd43	0.20409112
41	0xbdb9e444	-0.09076741
42	0xbde9072f	-0.11378323
43	0x3e8fa25b	0.28053555
44	0x3e7ff4ad	0.2499568
45	0xbe4481d4	-0.1919015
46	0x3d984c1e	0.07436393
47	0xbe0eb369	-0.13935627
48	0x3dc82533	0.0977272
49	0xbe8e53ca	-0.277983
50	0xbe972e56	-0.2952754
51	0x3e096c96	0.13420328
52	0xbe4c7da1	-0.19969799
53	0xbd9bdb63	-0.07610204
54	0xbe2b34e4	-0.16719395
55	0xbd66eb8a	-0.05637697
56	0xbe6457eb	-0.22299163
57	0x3e80f9da	0.25190622
58	0x3dc4da14	0.096119076
59	0xbe244d8b	-0.16045205
60	0x3e4d07c0	0.20022488
61	0x3e2ee9e9	0.17081417
62	0x3e729191	0.23688342
63	0x3e86dce2	0.26340395
64	0xbe6076bf	-0.21920298
65	0xbd89a3e5	-0.067207135
66	0x3e97c093	0.2963911
67	0xbe6d2279	-0.23157682
68	0xbdd0a849	-0.10188348
69	0xbe855e0d	-0.26048318
70	0xbda2ea1d	-0.0795481
71	0x3e3414bb	0.17586033
72	0x3e91323e	0.28358644
73	0x3e22a91c	0.15884823
74	0xbe84d7d1	-0.25945905
75	0xbc975a0b	-0.018475553
76	0xbe01c15b	-0.12671416
77	0x3cb07dc1	0.02154434
78	0xbde903dd	-0.1137769
79	0xbe651bfb	-0.22373955
80	0x3db06f58	0.08614987
81	0xbdc9af6b	-0.098479114
82	0x3ea1a203	0.31568918
83	0xbe2f3e83	-0.1711369
84	0x3e713a11	0.23557307
85	0x3e570ce2	0.21001008
86	0x3cddf993	0.027096545
87	0xbe353a89	-0.1769811
88	0xbdad4c4e	-0.084618196
89	0x3e63f25c	0.22260422
90	0xbdd40b0c	-0.103536695
91	0xbe199497	-0.14998089
92	0x3e669234	0.2251671
93	0x3e499765	0.19686659
94	0xbe8ebebf	-0.27879903
95	0xbe22aac0	-0.15885448
96	0x3e087767	0.13326798
97	0x3c62df7f	0.013847231
98	0x3e3c322e	0.18378517
99	0xbe440264	-0.19141537
100	0x3e9b0b83	0.3028222
101	0xbd2d9e68	-0.042387396
102	0x3c0eaa69	0.008707621
103	0x3e29e9e9	0.16593136
104	0x3e3ca97f	0.18424033
105	0x3c872d70	0.016501158
106	0x3def8857	0.11695927
107	0x3e942730	0.28936148
108	0xbdb57fd2	-0.088622704
109	0xbe29b533	-0.16573028
110	0xbe4e0952	-0.20120743
111	0xbe8ce001	-0.2751465
112	0x3da351bd	0.07974575
113	0x3cc5fcab	0.024168333
114	0xbe1490dd	-0.14508386
115	0xbe2506fe	-0.16115949
116	0x3d868b73	0.065695666
117	0xbe54e434	-0.20790178
118	0xbdf84a3c	-0.12123534
119	0xbe8e3124	-0.27771866
120	0xbe5f100e	-0.21783468
121	0x3e2b0c1e	0.16703841
122	0x3d0d94eb	0.034565847
123	0xbd99f5fa	-0.075176194
124	0xbe8229e3	-0.25422582
125	0x3e4c92cc	0.19977874
126	0xbd4ed746	-0.05049827
127	0x3b9f52be	0.0048621586
128	0x3da36590	0.07978356
129	0x3d5249b5	0.051339824
130	0x3e54dd38	0.20787513
131	0xbe9086dc	-0.2822789
132	0xbc22bb37	-0.009932331
133	0x3e82ae4c	0.25523603
134	0x3e64248f	0.22279571
135	0xbe5cd946	-0.21567258
136	0xbe9d3b5a	-0.30709344
137	0xbe964f8c	-0.29357564
138	0xbe041ff5	-0.12902816
139	0xbe87f6fa	-0.26555616
140	0x3d660ef8	0.05616662
141	0x3e947848	0.28998017
142	0x3e7586d5	0.23977216
143	0x3d4ddead	0.05026119
144	0x3d889ddd	0.06670735
145	0xbdf1cf8b	-0.11807164
146	0xbe929190	-0.2862668
147	0x3da095e8	0.07841092
148	0x3e195a1e	0.14975783
149	0xb9fcf154	-0.0004824499
150	0x3dccfb63	0.10008886
151	0xbd49a519	-0.049229715
152	0xbcdf5975	-0.027264336
153	0x3d46e43a	0.048557498
154	0xbe7022b0	-0.23450732
155	0xbdf8a3ba	-0.12140603
156	0x3c492df6	0.012279024
157	0xbe9da5d5	-0.30790582
158	0xbe3c28c6	-0.18374929
159	0xbe1b0624	-0.15139061
160	0x3e0b2820	0.13589525
161	0x3e3419e4	0.17588001
162	0x3dc1aafb	0.0945644
163	0xbd9d5eec	-0.076841205
164	0xbd85d9de	-0.065356955
165	0xbd222612	-0.039587088
166	0x3e401b2e	0.18760368
167	0xbe982acb	-0.29720148
168	0xbe7f1ceb	-0.24913375
169	0x3e3d75c2	0.18501952
170	0x3e41205a	0.18859997
171	0xbe7efa78	-0.24900234
172	0x3dabc2c7	0.0838676
173	0xbd9ca1bd	-0.07648037
174	0x3e848dec	0.25889528
175	0x3e5cd79b	0.21566622
176	0xbe9c77be	-0.30560106
177	0xbe20d1a7	-0.15704976
178	0x3e9e9b7b	0.30977997
179	0xbe336f0a	-0.17522827
180	0x3e39d9c8	0.18149483
181	0xbdb808b3	-0.08986034
182	0xbe89935a	-0.26870233
183	0x3e9c069b	0.3047379
184	0xbdc57f26	-0.09643392
185	0x3d648cd1	0.055798355
186	0xbe8d1ac7	-0.27559492
187	0xbd14a484	-0.036289707
188	0xbe938c59	-0.28818014
189	0x3e84c39e	0.25930494
190	0xbe94a9bf	-0.29035756
191	0xbe0d8c11	-0.13822962
192	0x3d6e5e14	0.05819519
193	0xbc2a9db2	-0.010413574
194	0x3daf7864	0.085678846
195	0x3ca13002	0.019676212
196	0xbe0721c2	-0.13196471
197	0xbd9fd1f7	-0.078037195
198	0xbe6ce6c3	-0.23134904
199	0xbe9e3985	-0.3090326
200	0xbe27df7e	-0.16393849
201	0x3cc7b921	0.024380269
202	0x3e974297	0.29542992
203	0xbe99b62c	-0.300218
204	0xbc4392c3	-0.011936846
205	0xbbd01b86	-0.0063509373
206	0xbe20f0c6	-0.15716848
207	0x3e8c92bb	0.27455696
208	0x3e978a9d	0.2959794
209	0xbe8ca216	-0.27467412
210	0xbddbf060	-0.10739207
211	0x3e436d26	0.19084606
212	0x3e248cd9	0.16069354
213	0xbcf944de	-0.030428346
214	0x3d174de9	0.036939535
215	0xbe3bfb0a	-0.18357483
216	0xbe5fea5c	-0.21866745
217	0xbd0768b1	-0.033058826
218	0x3e08074c	0.13284034
219	0x3da757f8	0.081710756
220	0x3de935dd	0.11387227
221	0x3d71af30	0.059004962
222	0xbe7d1160	-0.2471366
223	0x3dbdf4e0	0.09275222
224	0xbdaeba89	-0.085316725
225	0xbe179378	-0.14802349
226	0x3e51c50f	0.20485328
227	0x3e033e64	0.12816769
228	0xbe1ae881	-0.15127756
229	0xbe614a4b	-0.22000997
230	0x3e383186	0.17987642
231	0xbd75f6cc	-0.060049817
232	0xbdc0061a	-0.09376164
233	0x3c7cb308	0.015423544
234	0x3ddab9c7	0.106799655
235	0xbe8cc9c1	-0.27497676
236	0x3d7480b3	0.05969305
237	0xbe8e0906	-0.2774126
238	0x3e8309cb	0.2559341
239	0x3e69c4de	0.22829005
240	0xbe0b6bd4	-0.13615352
241	0x3e09e866	0.13467559
242	0xbe3ed6b3	-0.18636589
243	0x3e8aff08	0.27147698
244	0x3da2aa32	0.079426184
245	0x3e70b084	0.23504835
246	0xbe292eaa	-0.16521707
247	0x3e292942	0.16519645
248	0xbd688078	-0.056763142
249	0xbd2deee3	-0.04246415
250	0x3d32f6f6	0.04369255
251	0xbc8833e8	-0.016626313
252	0x3e25004b	0.16113393
253	0xbd790f9f	-0.060805913
254	0xbcb502c0	-0.022096038
255	0xbc30622a	-0.010765592

bias_ih_l0 f4 [40]
0	0xbcaadc92	-0.02085713
1	0x3f6ebf0e	0.93260276
2	0x3f900995	1.1252924
3	0x3f0be33d	0.54643613
4	0x3f2e64d1	0.68122584
5	0x3ef3a913	0.4758993
6	0x3f186baa	0.5953928
7	0x3ee61f59	0.4494579
8	0x3cdad350	0.02671209
9	0x3eb0bc7e	0.34518808
10	0x3defc6df	0.117078535
11	0x3daa909c	0.08328363
12	0xbe33b8cc	-0.17550963
13	0xbe358579	-0.17726697
14	0x3ea01ede	0.3127355
15	0xbe860316	-0.2617423
16	0xbe94f79b	-0.29095158
17	0xbd3c34db	-0.045948844
18	0xbe9109f0	-0.28327894
19	0x3e73b64e	0.23800012
20	0xbf00cf74	-0.5031655
21	0xbe2ba361	-0.16761543
22	0x3eb7e8f2	0.3591991
23	0xbe9160e8	-0.28394246
24	0x3ca107df	0.019657074
25	0x3f563e38	0.8368869
26	0x3dc47283	0.09592154
27	0xbe4d69d9	-0.20059909
28	0xbe3044a9	-0.17213692
29	0xbd81d71c	-0.06339857
30	0x3e2ff248	0.17182267
31	0x3faecd0d	1.3656327
32	0x3f3e8ed8	0.7443671
33	0x3fb694ef	1.4264201
34	0x3f85cceb	1.0453161
35	0x3f062d8b	0.52413243
36	0x3f22f1c3	0.6365015
37	0x3f42caef	0.760909
38	0xbeb83a92	-0.35982186
39	0x3f54fb91	0.8319636

bias_hh_l0 f4 [40]
0	0x3ea43ec7	0.32079145
1	0x3f6ed4c0	0.9329338
2	0x3f1f2a7d	0.62174207
3	0x3f8618af	1.0476283
4	0x3f708772	0.93956673
5	0x3f5b7f47	0.85741085
6	0x3f487912	0.7830974
7	0x3f29e357	0.6636252
8	0xbe7bbbd5	-0.24583371
9	0x3ec1d4da	0.37857705
10	0xbe0ae8cd	-0.13565369
11	0x3e84994d	0.2589821
12	0x3e5ba184	0.21448332
13	0xbe56ecf6	-0.20988831
14	0xbe001663	-0.1250854
15	0x3e4a7521	0.19771244
16	0xbd81b9ba	-0.06334253
17	0xbe7f3985	-0.24924286
18	0x3d8e8a3c	0.0695996
19	0x3e060075	0.13086112
20	0xbe66180e	-0.22470114
21	0xbef97221	-0.48719886
22	0xbc81dd58	-0.015852615
23	0xbf23706c	-0.6384342
24	0xbda66106	-0.081239745
25	0x3f5660f0	0.83741665
26	0xbe996fa7	-0.29967996
27	0xbd3eda3c	-0.046594843
28	0xbf16ed00	-0.58955383
29	0x3d810d00	0.06301308
30	0x3db206c8	0.086927
31	0x3faa5cab	1.330953
32	0x3e42d7e7	0.19027673
33	0x3f7a863d	0.9786108
34	0x3f6db4ce	0.9285401
35	0x3f820efb	1.0160822
36	0x3f017fa9	0.5058542
37	0x3f083027	0.53198475
38	0xbe189def	-0.14903997
39	0x3f7c9bab	0.9867503

weight f4 [2, 10]
0	0xbf464258	-0.7744498
1	0x3ba0c3da	0.00490616
2	0xbfc59a7f	-1.5437773
3	0x3f9a2ac1	1.2044297
4	0x3f23934a	0.6389662
5	0x3f64111e	0.8908862
6	0x3fc1c8c5	1.5139395
7	0x3f392881	0.7232743
8	0x3f9653c7	1.1744317
9	0xbf8a5f4b	-1.0810331
10	0xbf96b4a9	-1.1773883
11	0x3fc6d3b4	1.5533357
12	0xc008be7a	-2.1366258
13	0xbf4d2e14	-0.80148435
14	0x3f37af7c	0.7175214
15	0xbeaba6f4	-0.33525813
16	0xbf15cc48	-0.58514833
17	0x3f855bbd	1.0418621
18	0x3faa4c9d	1.330463
19	0x3fa966bb	1.3234476

bias f4 [2]
0	0x3ddef0ae	0.1088575
1	0x3efad8fb	0.48993668

weight_ih_l0 f4 [40, 2]
0	0xbf7b912d	-0.98268396
1	0x4025e1dd	2.5919106
2	0x3d94f268	0.07272798
3	0x3f1b77a9	0.6072946
4	0xbdc1cb45	-0.09462599
5	0xbf3b39c7	-0.73135036
6	0x3fd860f4	1.6904588
7	0xbf9d5fb6	-1.2294834
8	0xbf39f902	-0.7264558
9	0x3dbafa78	0.091298044
10	0xbf982944	-1.1887593
11	0x3f4ab3aa	0.79180396
12	0x3f3c3ad3	0.7352726
13	0x40a679e7	5.2023807
14	0xc007cacc	-2.1217527
15	0xbf8753db	-1.0572466
16	0x3d1774a0	0.036976457
17	0x3f229991	0.63515574
18	0x3e8e0969	0.27741554
19	0x3f4b9f10	0.79539585
20	0xbe710e3f	-0.2354059
21	0xbc9b472d	-0.018954838
22	0x3e25d73a	0.16195384
23	0x3e7be7b2	0.24600103
24	0xbe7394f6	-0.23787293
25	0x3e317856	0.17331061
26	0xbe5ae3c7	-0.21375953
27	0x3d90b74f	0.07066213
28	0xbdc1544b	-0.09439906
29	0x3e9f02c3	0.31056795
30	0xbb6ce6cb	-0.0036148306
31	0xbe81a6a0	-0.25322437
32	0xbe95bbd8	-0.29244876
33	0x3bc60679	0.006043252
34	0x3e92e1a1	0.28687766
35	0xbe819fd2	-0.25317246
36	0x3e8d6c66	0.27621764
37	0xbe5e0de2	-0.21684983
38	0xbd8cbf03	-0.0687237
39	0x3d8dfe43	0.06933262
40	0x3f8f4c9b	1.1195253
41	0xbe00f9e8	-0.12595332
42	0x3f8020dd	1.0010029
43	0x3f66ae1a	0.9010941
44	0x3f64daa2	0.8939611
45	0x3f7f7da1	0.9980107
46	0x3f77d371	0.9680701
47	0xbf3fba73	-0.74893874
48	0x3f67110e	0.902604
49	0x3f0a0d59	0.53926617
50	0x3f64388a	0.8914877
51	0xbf20fd13	-0.6288616
52	0xc0188d2f	-2.3836172
53	0x3e031083	0.12799267
54	0xbf37824f	-0.7168321
55	0x3f4f5d00	0.8100128
56	0x3db966f6	0.09052841
57	0x3f0ccae8	0.5499711
58	0x3f3ca5d4	0.73690534
59	0x3fbf5448	1.4947596
60	0x3fa741da	1.3066971
61	0x402fa50e	2.7444491
62	0x3f7bcfb9	0.98363835
63	0x3f50aecd	0.81516725
64	0xbeff3bc3	-0.49850282
65	0xbf74d141	-0.95631796
66	0x400d2e7e	2.2059627
67	0xbf3f9bc6	-0.74847066
68	0xbf4db34d	-0.80351716
69	0x3d6b8c56	0.05750688
70	0xbf9b8a5d	-1.21516
71	0x3f4afb6b	0.79289883
72	0x3f47abd0	0.7799654
73	0x40a77efa	5.23425
74	0xbf6c816d	-0.9238499
75	0xbf696de3	-0.911833
76	0x3f817634	1.0114198
77	0x3f53a147	0.82667965
78	0xbdf4e577	-0.119578294
79	0x3f79b3c0	0.975399

weight_hh_l0 f4 [40, 10]
0	0xbe295d60	-0.16539526
1	0xbe9d69f6	-0.30744904
2	0xbd2fac22	-0.042888768
3	0x3dc686e7	0.09693699
4	0x3e1f8b42	0.15580466
5	0xbe5ce84c	-0.21572989
6	0xbe539228	-0.20661223
7	0xbe5a93a7	-0.21345387
8	0x3d39246a	0.045200743
9	0x3ca6e810	0.020374328
10	0xbe821a3c	-0.2541064
11	0x3e78840e	0.24269125
12	0x3e1f223b	0.15540402
13	0x3dd0f7e5	0.10203532
14	0x3e91ab41	0.2845097
15	0xbd8fa8cb	-0.070146166
16	0xbd37feff	-0.044920918
17	0xbe423ec2	-0.18969253
18	0x3e0595ee	0.13045475
19	0x3e5124d4	0.20424205
20	0x3e920098	0.28516078
21	0x3dfd1750	0.12357962
22	0xbe9c3e07	-0.30516073
23	0xbe83487e	-0.25641245
24	0xbdae3b1e	-0.085073695
25	0xbe49fbf9	-0.19725026
26	0x3c28d32a	0.010304252
27	0x3e0f58d2	0.13998726
28	0xbc8c1c0e	-0.017103221
29	0x3d619b86	0.05507996
30	0x3e87c841	0.2651997
31	0xbe9e7162	-0.3094588
32	0xbd10040c	-0.03516011
33	0x3e95d4f1	0.29264024
34	0xbe32c8df	-0.17459439
35	0x3e5a56ac	0.21322125
36	0x3e257396	0.16157374
37	0xbcb192d9	-0.021676468
38	0xbde5f4d2	-0.112283364
39	0x3e8e8721	0.2783747
40	0xbe9cc3ce	-0.30618137
41	0xbc13a914	-0.009012479
42	0x3e5202e1	0.2050891
43	0xbe5a8b04	-0.21342093
44	0x3e41d9c0	0.18930721
45	0xbd5a1f76	-0.05325266
46	0xbe10ee22	-0.1415334
47	0x3e115aa4	0.14194733
48	0xbe89e3d5	-0.26931635
49	0xbe9b6e0a	-0.3035739
50	0x3e191cf7	0.14952455
51	0x3c81ef49	0.01586117
52	0x3e9a831e	0.3017816
53	0xbe490225	-0.19629724
54	0xbe074e16	-0.13213381
55	0xbd802c68	-0.0625847
56	0x3e0525a6	0.13002643
57	0xbe826bbe	-0.25472826
58	0x3d051a55	0.032495815
59	0xbe782a6f	-0.24234937
60	0xbe1ec350	-0.15504193
61	0x3e9e359e	0.30900282
62	0x3e6ba01f	0.230103
63	0xbdc42013	-0.0957643
64	0xbe58fd7f	-0.21190451
65	0xbe3ee051	-0.18640257
66	0xbd62adda	-0.05534158
67	0x3e87896b	0.2647203
68	0x3d9a6072	0.07537927
69	0xbde438d7	-0.11143654
70	0xbd698fdf	-0.05702197
71	0x3df6fb96	0.12059705
72	0xbd068e23	-0.032850396
73	0x3e35ca9e	0.17753074
74	0xbe8dc249	-0.2768729
75	0xbe823982	-0.254345
76	0xbd7b9d4e	-0.061429314
77	0x3e463366	0.19355544
78	0x3e3622ce	0.17786714
79	0x3e903057	0.2816188
80	0xbe869b84	-0.26290524
81	0x3e5adfea	0.21374479
82	0xbd8764b8	-0.066110075
83	0xbe9b1a65	-0.30293575
84	0x3e836cd6	0.25668973
85	0x3e801a30	0.2501998
86	0x3e9ddef2	0.30834156
87	0x3dd56d52	0.10421242
88	0x3e851fd1	0.26000836
89	0xbe2abe49	-0.1667415
90	0x3e14566b	0.14486091
91	0x3e93e73b	0.28887352
92	0xbe8b69bb	-0.27229103
93	0xbe72d165	-0.2371269
94	0xbca4241c	-0.02003675
95	0xbe259745	-0.16170986
96	0xbba309a3	-0.004975514
97	0x3e28ca45	0.1648341
98	0x3e014d99	0.12627257
99	0x3b95cd93	0.0045716255
100	0x3e59e07b	0.21277039
101	0x3e808416	0.25100774
102	0xbe9dde11	-0.30833486
103	0xbe8eabec	-0.2786554
104	0x3d981aba	0.07426973
105	0xbe2adbf6	-0.16685471
106	0x3e9ac180	0.30225754
107	0x3e326e09	0.17424788
108	0x3ce60feb	0.028083762
109	0xbe3f583c	-0.18686002
110	0xbe2ca4b4	-0.16859704
111	0x3d9ed542	0.077555194
112	0x3e9e3eda	0.30907327
113	0xbe3ffecf	-0.18749546
114	0xbe9f208d	-0.31079522
115	0x3cbaf75d	0.02282303
116	0xbd8e217c	-0.069399804
117	0xbd40e37b	-0.047091942
118	0xbe7f4f89	-0.24932684
119	0xbe06011e	-0.13086364
120	0x3e3dfc28	0.18553221
121	0x3e124b75	0.14286597
122	0xbe8faf5b	-0.28063473
123	0x3e666760	0.22500372
124	0x3d1fa0f8	0.03897187
125	0x3e59e170	0.21277404
126	0x3ea0dd11	0.3141866
127	0xbdc69d0e	-0.096979246
128	0xbe4933fd	-0.19648738
129	0x3e544c14	0.20732147
130	0xbbc7b8f8	-0.006095048
131	0x3d3f3629	0.04668251
132	0x3e94648f	0.2898297
133	0x3e551a3d	0.2081079
134	0xbe5ace7b	-0.21367829
135	0xbd4c7e99	-0.04992542
136	0x3e426820	0.18985033
137	0xbe4adcc8	-0.19810784
138	0xbe858561	-0.26078323
139	0xbe8c7c0f	-0.274384
140	0x3d82cac0	0.06386328
141	0x3cb881c1	0.022522809
142	0x3e1da833	0.15396194
143	0xbe2e1a24	-0.1700216
144	0x3e8905c9	0.26762226
145	0x3e7cf629	0.24703278
146	0x3e216fea	0.15765348
147	0x3df191ae	0.11795364
148	0x3e27ae4f	0.16375087
149	0xbe9926f7	-0.2991254
150	0xbe04816b	-0.12939994
151	0x3e6cc1c6	0.23120794
152	0xbe6836a9	-0.22677101
153	0xbc61f555	-0.013791402
154	0x3e166a6a	0.14689031
155	0x3e7e39f7	0.248268
156	0x3e89e505	0.2693254
157	0xbe87176a	-0.2638505
158	0xbd4cb6b0	-0.049978912
159	0xbe8e5e43	-0.2780629
160	0xbda11cff	-0.07866859
161	0x3b48e749	0.0030655435
162	0x3e503bf5	0.20335372
163	0x3e30649a	0.17225876
164	0x3e09d6a1	0.1346078
165	0xbe8de168	-0.27711034
166	0x3d6804bf	0.05664515
167	0xbe2a854e	-0.16652414
168	0x3e89c9cd	0.26911774
169	0xbe11ce48	-0.14238846
170	0xbe3898d2	-0.18027046
171	0x3dbe86f8	0.09303087
172	0xbe6493fe	-0.2232208
173	0xbcaeec9e	-0.021353062
174	0x3ae9f446	0.0017849288
175	0xbe43add6	-0.19109282
176	0x3e2377ec	0.15963715
177	0xbe915562	-0.28385454
178	0xbe3524b5	-0.17689784
179	0xbe0dd95a	-0.13852444
180	0x3e52ab46	0.20573148
181	0x3e90ba8e	0.2826733
182	0x3c9638db	0.018337658
183	0x3e97a867	0.29620668
184	0xbcce9746	-0.025218617
185	0x3e4db19d	0.20087285
186	0x3e126358	0.14295709
187	0xbd824b82	-0.06362058
188	0xbdd1f0a1	-0.102509744
189	0x3dc72d00	0.0972538
190	0x3e7256d6	0.23665938
191	0x3e5550ae	0.20831558
192	0xbde808bd	-0.11329792
193	0x3e2f6d2d	0.17131491
194	0xbb41ec99	-0.0029590486
195	0x3e99fa28	0.30073667
196	0x3e095c64	0.1341415
197	0x3e461028	0.193421
198	0xbe9758f9	-0.29560068
199	0xbe1e7486	-0.15474138
200	0xbcddfba2	-0.027097527
201	0xbe339a85	-0.17539413
202	0x3d4d7ee6	0.050169848
203	0x3cfb60ab	0.030685743
204	0x3e8a4b88	0.2701075
205	0x3c7afb00	0.015318632
206	0x3ac44388	0.0014973739
207	0xbe446ec9	-0.19182886
208	0x3e510e6d	0.20415659
209	0x3e4848ba	0.19558993
210	0xbd9b036c	-0.07569012
211	0xbda04cd6	-0.07827155
212	0x3e5338e4	0.20627171
213	0xbd489e50	-0.048979104
214	0x3e4683de	0.19386241
215	0xbc0936e5	-0.008374904
216	0xbe87ec91	-0.26547673
217	0x3e440aed	0.19144793
218	0xbbb7d36f	-0.0056099216
219	0x3c4d3255	0.012524207
220	0x3dba547d	0.09098146
221	0xbe41dc39	-0.18931665
222	0xbdc40e6d	-0.09573064
223	0x3e4a72f2	0.1977041
224	0x3cd3b461	0.025842847
225	0x3e2ea624	0.17055565
226	0xbe182f84	-0.14861876
227	0x3d20b546	0.039235376
228	0x3e22383a	0.15841761
229	0x3e7c8e7a	0.24663725
230	0x3e46c71b	0.1941189
231	0x3d55e8ce	0.052223973
232	0xbc059715	-0.008153697
233	0x3a874944	0.0010321517
234	0x3dd5ac17	0.10433214
235	0x3e4ad159	0.19806422
236	0xbe0944bb	-0.13405125
237	0xbe9e39d4	-0.30903494
238	0xbe539baf	-0.20664857
239	0x3e3c3fde	0.18383738
240	0xbdb7dc40	-0.08977556
241	0xbcd9ff7b	-0.02661108
242	0xbe899942	-0.2687474
243	0xbe357e5e	-0.17723987
244	0xbe9416fd	-0.2892379
245	0xbe84d36e	-0.25942558
246	0xbe29b97a	-0.1657466
247	0xbe8aa4ee	-0.27078956
248	0xbcc85414	-0.024454154
249	0xbe4a3220	-0.19745684
250	0xbe1b1496	-0.15144572
251	0x3e13273a	0.14370432
252	0xbe1a6e1d	-0.15081067
253	0xbe92fce1	-0.28708556
254	0x3d0bf116	0.034165464
255	0x3ccbd523	0.024881905

bias_ih_l0 f4 [40]
0	0x3f8ee4f0	1.1163616
1	0x3fc27001	1.5190431
2	0x400ee4df	2.2327192
3	0x3f7a7234	0.9783051
4	0x3da648a4	0.08119324
5	0x3fe78c1c	1.8089633
6	0x3f186232	0.59524834
7	0xbf331ac5	-0.6996272
8	0x3f097053	0.5368702
9	0x400967bc	2.1469564
10	0xbdbb309f	-0.09140133
11	0x3bde8d7e	0.0067917695
12	0x3e34f2b9	0.17670716
13	0xbe25b699	-0.16182937
14	0xbe2cd39b	-0.16877596
15	0x3e6a2b5e	0.22868106
16	0x3e2fd7a8	0.1717211
17	0xbd58e966	-0.05295696
18	0x3e80560f	0.25065657
19	0x3d5ab7f6	0.053398095
20	0x3f6886b1	0.9083052
21	0xbdbb3947	-0.09141784
22	0x3f910ace	1.1331422
23	0xbf76938c	-0.9631889
24	0xbdbaae50	-0.09115279
25	0xbc3d656c	-0.011559825
26	0x3f2e80d8	0.6816535
27	0xbebe987c	-0.3722571
28	0xbf84d8e9	-1.0378696
29	0xbf634f60	-0.8879299
30	0x3f9db4c6	1.2320793
31	0x3f824958	1.0178633
32	0x3f69feff	0.9140472
33	0x3f931d00	1.1493225
34	0xbe8ae610	-0.2712865
35	0x4012157a	2.2825608
36	0x3f7c6e9f	0.98606294
37	0xbf163f6c	-0.58690524
38	0x3ed5abea	0.41732723
39	0x4010d456	2.26296

bias_hh_l0 f4 [40]
0	0x3f47d3f3	0.78057784
1	0x3f6921dc	0.9106729
2	0x3fd4b7c5	1.6618582
3	0x3f83d827	1.030034
4	0x3eaa4359	0.33254507
5	0x3ff18b0a	1.8870556
6	0x3f1dedc6	0.6169094
7	0xbf2f43ab	-0.6846263
8	0x3e705248	0.23468888
9	0x400f0270	2.2345238
10	0x3d576fbe	0.0525968
11	0xbdb494a0	-0.088174105
12	0x3e8fe99a	0.2810791
13	0x3da2ea22	0.079548135
14	0x3e8ae562	0.2712813
15	0x3e274175	0.16333564
16	0xbe91e5b0	-0.2849555
17	0xbe9d5d81	-0.307354
18	0x3d7bf287	0.06151059
19	0xbe970e99	-0.29503325
20	0x3f6d3375	0.9265664
21	0xbdf6504e	-0.12027036
22	0x3fa698d2	1.3015387
23	0xbee24f1a	-0.44200975
24	0xbce33266	-0.027733993
25	0x3eaca679	0.3372076
26	0x3de0837c	0.10962579
27	0xbe7122fb	-0.235485
28	0xbf495bc9	-0.7865568
29	0xbf4fbb30	-0.81145
30	0x3f6b20f5	0.91847163
31	0x3fb5eff9	1.4213859
32	0x3f5e9b13	0.86955374
33	0x3f8d6586	1.1046607
34	0xbeb4b8b9	-0.35297182
35	0x400718d6	2.1108909
36	0x3f431421	0.7620259
37	0xbf2e8062	-0.68164647
38	0x3f0f44d3	0.5596439
39	0x4006f755	2.108846
